models/lstm/consumption/saved_model/consumption_lstm_house_6.pth (torch, 293334 bytes, 17 tensors)

lstm.weight_ih_l0 f4 [200, 1]
0.56981754 0.10602174 -0.45797956 -0.5171647 0.19723631 -0.22678752 0.63648844 0.17231561
0.4174654 0.4866009 0.4691516 0.095982045 -0.108565755 0.055004478 -0.67571 -0.38110486
0.4764487 0.5201302 0.09389598 0.078899555 0.26831517 0.1700663 -0.12834677 0.7392836
0.35620058 -0.58505243 -0.2555991 -0.48594645 -0.05534768 0.37052524 0.14760731 0.84979165
0.29957962 0.27435863 -0.3813476 0.40513012 0.11804031 -0.29115725 0.43910614 0.058123298
0.7760711 -0.48028907 0.043768287 0.68670315 0.11868852 -0.48115888 0.46832514 -0.15834671
0.24445644 -0.79225785 0.18668033 -0.09110995 -0.64117396 -0.5173728 -0.59873307 -0.8650413
0.11087248 -0.85132325 -0.38571116 -0.46622676 -0.28960714 -0.3478747 -0.55821246 0.02464717
-0.6412501 -1.272737 0.33489493 0.5761083 -0.43518507 -0.55004853 -0.87588567 -0.28398052
-0.92892504 0.20715365 -0.51709986 -0.19010088 -0.19232449 -0.9967076 -1.17969 -0.6224825
-1.0733776 0.44008493 0.28728378 -0.21813811 -0.819768 -0.21276388 0.08220558 -0.4634704
-0.22906421 -0.10559152 -0.052598476 -0.51631826 -0.109519154 -0.22289072 -0.6151564 -0.8447529
0.09835892 -0.91712147 -0.5326583 -0.36668155 -0.95808274 -0.8998512 0.44547048 0.8009303
1.3672061 -1.2710278 -1.3231987 -0.7009725 -1.3792678 1.4043261 1.0664604 -0.788566
0.8806882 -0.78069025 0.8450479 -1.7994221 0.80718523 -0.9719211 0.9214106 0.9941524
-1.3559253 -1.2926775 -1.146536 1.497122 1.3663472 0.717527 0.20252863 -1.1204149
-1.3434364 -1.1005256 -1.4393829 1.1174123 -0.35005116 -1.1047955 -1.4083999 0.98832124
-0.3321717 -0.4482252 1.0023184 0.74401873 -1.2786776 -0.50963044 -1.5928746 1.2086061
-1.2960538 0.91539776 -0.675937 1.1853634 1.1451374 -0.38306835 0.9178383 0.040146057
-0.4214043 -0.65739274 0.3443776 -0.51382214 0.80115825 -0.10535519 0.47517622 0.23534597
0.42745274 0.029182997 0.0069842804 0.36451134 -0.83065844 -0.6799385 0.80971617 0.74308836
0.053543296 -0.12739857 -0.07225538 -0.11281288 -0.21796122 0.9025516 0.49535337 -0.4460577
-0.21071446 -0.7323031 -0.30447558 0.08509257 0.23783863 0.9451812 0.36966679 0.3832914
-0.41560984 0.45162734 0.33414647 -0.0035180296 0.16274264 0.032724857 0.90187204 -0.52990884
0.10525483 0.6778576 0.0071571474 -0.84504694 0.48558715 -0.4501619 0.14470237 -0.6107871
00000000: 90df 113f ed21 d93d 4c7c eabe e864 04bf
00000010: 51f8 493e fd3a 68be e8f0 223f 8173 303e
00000020: 06be d53e c123 f93e a334 f03e 3c92 c43d
00000030: b957 debd 604c 613d 55fb 2cbf 2d20 c3be
00000040: 16f1 f33e 4127 053f 894c c03d 1796 a13d
00000050: 9b60 893e dc25 2e3e 566d 03be b141 3d3f
00000060: ec5f b63e ffc5 15bf e3dd 82be f9cd f8be
00000070: 40b4 62bd 7cb5 bd3e 5f26 173e f28b 593f
00000080: 8062 993e bc78 8c3e fe3f c3be 376d cf3e
00000090: 1ebf f13d 9012 95be 85d2 e03e b212 6e3d
000000a0: 98ac 463f 73e8 f5be 6046 333d c7cb 2f3f
000000b0: f712 f33d 755a f6be 50c8 ef3e a425 22be
000000c0: ca52 7a3e 69d1 4abf 2129 3f3e da97 babd
000000d0: fa23 24bf 8b72 04bf 9246 19bf 5973 5dbf
000000e0: 1c11 e33d 52f0 59bf ef7b c5be 46b5 eebe
000000f0: 6347 94be a21c b2be 03e7 0ebf dde8 c93c
00000100: f728 24bf 0ce9 a2bf 5977 ab3e d57b 133f
00000110: 94d0 debe fbcf 0cbf 0b3a 60bf e565 91be
00000120: 08ce 6dbf 1620 543e a860 04bf cea9 42be
00000130: b6f0 44be 3b28 7fbf 1500 97bf 035b 1fbf
00000140: 7064 89bf d052 e13e dc16 933e 995f 5fbe
00000150: 51dc 51bf c6de 59be 665b a83d fe4b edbe
00000160: cf8f 6abe 5e40 d8bd 8071 57bd 6f2d 04bf
00000170: 944b e0bd 773d 64be e47a 1dbf ba41 58bf
00000180: 6770 c93d 79c8 6abf 4b5c 08bf afbd bbbe
00000190: e944 75bf a65c 66bf b514 e43e c509 4d3f
000001a0: 9c00 af3f 0ab1 a2bf 935e a9bf ef72 33bf
000001b0: d98b b0bf f5c0 b33f c681 883f 76df 49bf
000001c0: c874 613f 51db 47bf 0f55 583f 7753 e6bf
000001d0: b1a3 4e3f d2cf 78bf 91e1 6b3f c680 7e3f
000001e0: f68e adbf 7576 a5bf b1c1 92bf b2a1 bf3f
000001f0: 77e4 ae3f d9af 373f aa63 4f3e c169 8fbf
00000200: b9f5 abbf 06de 8cbf b33d b8bf 5e07 8f3f
00000210: e839 b3be f069 8dbf 7346 b4bf 9f02 7d3f
00000220: 6912 aabe c67d e5be f84b 803f 0378 3e3f
00000230: b5ab a3bf 2477 02bf 51e3 cbbf 9bb3 9a3f
00000240: 17e5 a5bf 8257 6a3f 350a 2dbf fdb9 973f
00000250: dd93 923f 8921 c4be 73f7 6a3f 3170 243d
00000260: 4ec2 d7be e44a 28bf 4352 b03e d989 03bf
00000270: b518 4d3f 76c4 d7bd 4c4a f33e 89fe 703e
00000280: 16db da3e 2e11 ef3c 64dc e43b 3ba1 ba3e
00000290: 08a6 54bf 7310 2ebf 8f49 4f3f 0a3b 3e3f
000002a0: 3750 5b3d c574 02be a1fa 93bd 700a e7bd
000002b0: 3a31 5fbe 9f0d 673f f59e fd3e ad61 e4be
000002c0: 88c5 57be 3778 3bbf 39e4 9bbe 0345 ae3d
000002d0: f88b 733e 65f7 713f f744 bd3e c53e c43e
000002e0: d0ca d4be b33b e73e 3f15 ab3e be8e 66bb
000002f0: 02a6 263e 800a 063d 16e1 663f 1ba8 07bf
00000300: d88f d73d 1388 2d3f 8186 ea3b ff54 58bf
00000310: e19e f83e 9f7b e6be dc2c 143e 8b5c 1cbf

lstm.weight_hh_l0 f4 [200, 50]
-0.105212525 0.03321927 0.08998713 -0.31400177 -0.06651671 0.20675834 -0.020587161 0.05824955
0.043415986 0.109887645 -0.15046327 0.28684404 0.15914139 0.22037686 -0.63576627 0.03891969
0.030097257 0.028211983 0.11464568 -0.09900709 0.022408748 0.0333062 -0.015710765 0.06733592
-0.07495942 -0.2709886 -0.017987598 -0.00039107574 0.11395467 0.10382278 -0.07962159 -0.22077496
-0.10734059 0.09352193 -0.042584494 -0.20006505 -0.14259262 -0.17434427 -0.45518258 -0.097003356
-0.06486273 0.2455089 0.006229567 -0.22887655 -0.079518385 -0.19750221 0.05583618 0.10697705
-0.1645502 -0.07434934 -0.01812638 -0.0757826 -0.07892218 -0.121292196 -0.0794063 -0.071822084
0.0303418 0.025151078 -0.10864563 0.05196863 0.11233734 0.1641656 0.14124021 -0.15899223
-0.02354461 -0.027433826 -0.0038760349 0.19101271 0.13015544 0.085628755 0.016125118 -0.027530951
-0.04169675 0.0030747447 -0.11333603 0.11010997 0.09080529 -0.039434105 -0.12619539 -0.11532413
-0.12900028 0.06850942 -0.062254284 -0.106296405 0.10390231 0.08618818 -0.024138631 -0.012036171
-0.13960432 0.1585794 -0.11177143 -0.0947634 -0.10209179 -0.09294424 0.02053164 0.04644266
0.015767941 -0.10089934 -0.13689426 0.005222274 0.16641086 0.072797894 0.124321505 0.37845933
0.019179164 -0.022572195 0.13530733 -0.07374681 0.22045958 -0.10902877 -0.12425731 0.1161362
0.19249162 0.12688205 0.15623109 -0.009205212 -0.044669192 0.21355297 -0.09812221 -0.042055193
0.060612056 0.26202583 -0.018358417 0.038356286 -0.07891763 -0.022162974 0.18023561 -0.039795093
0.005872196 0.06258907 -0.041048117 -0.2843289 0.21150115 0.12084529 -0.1604446 -0.07904116
-0.07773887 0.12801328 0.19326358 -0.13876073 0.091796294 -0.23562528 0.062481176 -0.14522038
-0.10697951 -0.13878703 -0.06773404 0.049230937 -0.15228187 -0.038390357 0.0037431682 0.100562505
-0.05790603 0.08401108 0.020707896 -0.05965725 0.2014444 -0.106418766 -0.08682947 0.05048142
0.0446104 0.11427423 0.12260803 0.14090922 -0.14457296 0.08840358 -0.2330681 0.094465226
-0.06274976 -0.017703127 0.051558178 0.17133397 -0.109126166 0.23666658 0.03387135 -0.12287727
-0.050597765 -0.18123768 -0.04606523 -0.05322044 -0.07591573 0.03227613 -0.11149358 -0.035436794
0.024673741 -0.05163318 -0.049246315 0.04072659 0.057045992 -0.0379258 -0.19268166 -0.10412618
-0.14214343 -0.058568764 0.14358681 -0.09210808 0.012732476 0.11290098 0.010649168 -0.058485586
-0.3739314 -0.09770921 0.07339209 0.023329565 0.0958498 -0.13396074 -0.102631904 0.21950646
0.167432 -0.07524334 -0.15322126 0.2909336 -0.022746833 0.16691698 0.020726861 0.18868123
-0.043729514 0.18556105 -0.15440807 -0.015428972 -0.0690426 0.06233219 0.38296607 -0.014117009
-0.23547162 -0.0052304375 -0.05944554 -0.10348705 -0.044840008 0.18577456 0.05736732 0.03200372
-0.12510808 0.2030228 0.03496553 -0.020337427 0.020973897 0.04928013 -0.15343882 -0.04150515
0.10753447 0.0750019 -0.00089758635 -0.099684775 -0.13418162 0.025393507 -0.07471547 -0.039432947
-0.1652628 -0.24139199 -0.04907515 -0.0369852 0.26929677 -0.18638583 0.29901478 0.049590766
00000000: aa79 d7bd ee10 083d 2c4b b83d d7c4 a0be
00000010: ea39 88bd 75b8 533e 68a6 a8bc 1597 6e3d
00000020: f6d4 313d c60c e13d 0b13 1abe 39dd 923e
00000030: f6f5 223e 79aa 613e 94c1 22bf 416a 1f3d
00000040: 868e f63c d11c e73c 5bcb ea3d 3bc4 cabd
00000050: 8d92 b73c 156c 083d ddb3 80bc 6ae7 893d
00000060: 5384 99bd 05bf 8abe ba5a 93bc 4c09 cdb9
00000070: 1161 e93d 0aa1 d43d a510 a3bd d512 62be
00000080: 62d5 dbbd 6d88 bf3d 146d 2ebd dadd 4cbe
00000090: cd03 12be 4e87 32be b10d e9be b2a9 c6bd
000000a0: c0d6 84bd af66 7b3e 6521 cc3b 9d5e 6abe
000000b0: 89da a2bd 053e 4abe 7ab4 643d c916 db3d
000000c0: d97f 28be 7744 98bd c67d 94bc e833 9bbd
000000d0: f4a1 a1bd 0b68 f8bd c59f a2bd 7517 93bd
000000e0: 5e8f f83c a209 ce3c 9a81 debd 0fdd 543d
000000f0: 1f11 e63d 071b 283e 46a1 103e dcce 22be
00000100: a0e0 c0bc e7bc e0bc 1305 7ebb d698 433e
00000110: 7847 053e 215e af3d d318 843c 9788 e1bc
00000120: 36ca 2abd a881 493b b81c e8bd 5681 e13d
00000130: 20f8 b93d a885 21bd 5d39 01be 0f2f ecbd
00000140: a618 04be ab4e 8c3d 59fe 7ebd eeb1 d9bd
00000150: bcca d43d 6e83 b03d 61be c5bc 5c33 45bc
00000160: 6ff4 0ebe a362 223e 6be8 e4bd 5013 c2bd
00000170: 8015 d1bd 8d59 bebd f831 a83c a93a 3e3d
00000180: c52b 813c 50a4 cebd 022e 0cbe 9c1f ab3b
00000190: 9c67 2a3e 1017 953d 469c fe3d 6cc5 c13e
000001a0: 9f1d 9d3c 53e9 b8bc 018e 0a3e 9108 97bd
000001b0: 28c0 613e 7a4a dfbd 9e7a febd d1d8 ed3d
000001c0: 861c 453e 5eed 013e 0bfb 1f3e 75d1 16bc
000001d0: 0bf7 36bd a1ad 5a3e 4cf4 c8bd 1142 2cbd
000001e0: 5944 783d 4028 863e 6464 96bc 7b1b 1d3d
000001f0: 919f a1bd 208f b5bc af8f 383e 2e00 23bd
00000200: 8d6b c03b b32e 803d 1222 28bd 8f93 91be
00000210: c293 583e bc7d f73d 974b 24be 55e0 a1bd
00000220: 8f35 9fbd ea15 033e e3e6 453e 4b17 0ebe
00000230: b2ff bb3d c147 71be 43ec 7f3d a7b4 14be
00000240: 1318 dbbd 301e 0ebe 25b8 8abd 61a6 493d
00000250: c7ef 1bbe 353f 1dbd f14f 753b b7f3 cd3d
00000260: e02e 6dbd 000e ac3d 9ba3 a93c 295b 74bd
00000270: 7147 4e3e 15f2 d9bd a6d3 b1bd 9bc5 4e3d
00000280: 65b9 363d 9c08 ea3d eb19 fb3d 824a 103e
00000290: ef0a 14be f00c b53d 67a9 6ebe fc76 c13d
000002a0: f282 80bd 2606 91bc ab2e 533d 2c72 2f3e
000002b0: 8a7d dfbd b958 723e afbc 0a3d 14a7 fbbd
000002c0: 9a3f 4fbd 5f96 39be e5ae 3cbd adfd 59bd
000002d0: b579 9bbd fa33 043d bf56 e4bd 2c26 11bd
000002e0: 9620 ca3c 507d 53bd 81b6 49bd edd0 263d
000002f0: 0fa9 693d 1558 1bbd 574e 45be 1b40 d5bd
00000300: 0c8e 11be cde5 6fbd 6c08 133e 29a3 bcbd
00000310: e09b 503c a138 e73d d979 2e3c 958e 6fbd
00000320: f073 bfbe c41b c8bd 984e 963d a51d bf3c
00000330: e64c c43d 012d 09be ad30 d2bd 4dc6 603e
00000340: 4b73 2b3e 2e19 9abd 09e6 1cbe 40f5 943e
00000350: 9157 babc 49ec 2a3e 61cb a93c a735 413e
00000360: b81d 33bd b703 3e3e 261d 1ebe cdc9 7cbc
00000370: 3566 8dbd 0a50 7f3d 2114 c43e 074b 67bc
00000380: 791f 71be 1764 abbb 2b7d 73bd 05f1 d3bd
00000390: 28aa 37bd b03b 3e3e fff9 6a3d 5516 033d
000003a0: 551c 00be 35e5 4f3e 0438 0f3d ad9a a6bc
000003b0: 73d1 ab3c f6d9 493d 111f 1dbe 4e01 2abd
000003c0: 083b dc3d 999a 993d 004c 6bba 8827 ccbd
000003d0: e866 09be 0b06 d03c 6d04 99bd 7184 21bd
000003e0: a73a 29be 762f 77be 0603 49bd cb7d 17bd
000003f0: 44e1 893e eddb 3ebe 7718 993e b01f 4b3d

lstm.bias_ih_l0 f4 [200]
-0.17133471 -0.118755296 -0.30009964 -0.04852466 -0.11680205 -0.110146925 0.07910308 0.012343954
-0.0359614 0.10213049 -0.0024887032 -0.062175214 0.057507362 0.07929921 -0.01379837 0.2641831
0.09502147 0.07581334 -0.045859177 0.12645908 -0.1150072 0.37160277 0.22318618 0.08570577
0.2946841 -0.052925527 -0.24571906 -0.13652581 0.05374158 -0.17935117 0.046466395 -0.0057052234
-0.3613687 0.10907926 -0.13848028 -0.1404501 -0.074651904 -0.12182367 0.05309616 0.0633427
0.0055162767 -0.22113414 0.30321258 0.16940746 0.013955353 -0.17495073 -0.1120071 0.011121693
-0.16926003 -0.063320614 -0.39548892 -0.051510558 -0.3082049 0.011940697 -0.48995715 -0.31822684
-0.52878886 -0.34772864 -0.09175025 -0.3139905 0.016466781 -0.25235036 -0.11372267 -0.08825516
-0.09574829 -0.81759423 -0.26441014 -0.3957028 -0.13772795 -0.14373603 -0.36945543 -0.49989477
-0.21300775 -0.3807015 -0.4618737 0.033207107 -0.37880358 -0.20158325 -0.46454945 -0.39296153
-0.35997704 -0.36123887 -0.5113177 -0.077186555 -0.4655675 -0.36140484 -0.22876535 -0.40586653
-0.2879961 -0.027147958 -0.5372718 -0.27694574 -0.5927786 -0.29572162 -0.0015741842 -0.18501675
-0.29620823 -0.17279518 -0.24597879 -0.099906035 0.0066639516 0.15281308 -0.016213356 0.00063154584
-0.11406904 0.046080098 0.10999686 0.070645094 0.1612535 -0.103883535 0.052469313 -0.030044153
-0.06067042 0.027855292 -0.14173552 0.055815022 -0.1338063 0.09526445 -0.1443801 -0.07666415
0.07920353 0.011336813 0.07198826 -0.08201347 -0.07137712 0.0502225 0.08163343 -0.010950549
0.03739329 0.14509062 0.0912892 -0.15536815 0.016374163 -0.06550189 0.044707995 0.0007765675
-0.010818898 0.022296276 -0.03557513 -0.011334975 0.0043673217 0.096127026 0.0047304416 -0.0067677535
0.10551402 -0.09186461 0.112325594 -0.062052626 -0.086009786 0.017860763 -0.05039443 -0.12444059
-0.17925642 -0.19148917 0.014108477 -0.12542379 0.23414806 -0.18134847 -0.13231039 -0.07392214
0.14936121 -0.13630517 0.0011883975 -0.025179613 -0.1452182 0.081629254 -0.0027358865 0.08820683
-0.06794664 -0.026360253 0.037297927 0.33967856 0.1310627 0.02524132 0.22780536 0.049048122
-0.43230924 -0.05776073 0.2869192 -0.058676768 0.038982593 0.031237954 -0.38029206 -0.049456544
-0.0781472 0.016430277 -0.15696144 -0.36867028 -0.037091795 0.114770494 -0.057328023 -0.35720834
0.19614261 0.07654714 -0.13793537 -0.10650337 -0.24680366 -0.10002331 -0.1466888 -0.047409687
00000000: 5e72 2fbe fa35 f3bd a9a6 99be cbc1 46bd
00000010: ea35 efbd b694 e1bd cc00 a23d 4c3e 4a3c
00000020: 434c 13bd ca29 d13d 8319 23bb 70ab 7ebd
00000030: d78c 6b3d a067 a23d 8f12 62bc 0243 873e
00000040: 9e9a c23d 0644 9b3d d5d6 3bbd 7d7e 013e
00000050: e588 ebbd b842 be3e eb8a 643e 8286 af3d
00000060: d6e0 963e 70c8 58bd c79d 7bbe 6ccd 0bbe
00000070: 2220 5c3d d5a7 37be 8c53 3e3d e2f2 babb
00000080: 5105 b9be f264 df3d c6cd 0dbe 27d2 0fbe
00000090: 19e3 98bd b07e f9bd 5c7b 593d d1b9 813d
000000a0: e2c1 b43b fd70 62be ae3e 9b3e 2679 2d3e
000000b0: fea4 643c 4926 33be fa63 e5bd c337 363c
000000c0: 8052 2dbe 3dae 81bd 867d cabe bcfc 52bd
000000d0: 08cd 9dbe eaa2 433c aadb fabe a1ee a2be
000000e0: b55e 07bf 7d09 b2be 8ee7 bbbd 5dc3 a0be
000000f0: 58e5 863c 1134 81be 6ee7 e8bd 1fbf b4bd
00000100: ae17 c4bd db4d 51bf c460 87be 8f99 cabe
00000110: 8e08 0dbe 8a2f 13be 4329 bdbe 35f2 ffbe
00000120: b41e 5abe 4feb c2be b67a ecbe 2d04 083d
00000130: 8bf2 c1be d76b 4ebe 6dd9 edbe 4132 c9be
00000140: e94e b8be 4df4 b8be b7e5 02bf fc13 9ebd
00000150: dd5e eebe 0e0a b9be 7741 6abe bdcd cfbe
00000160: 3a74 93be 6565 debc a58a 09bf d5cb 8dbe
00000170: 57c0 17bf d368 97be db54 ceba 0875 3dbe
00000180: 9ba8 97be 38f1 30be dde1 7bbe 899b ccbd
00000190: 475d da3b 087b 1c3e dfd1 84bc 538e 253a
000001a0: 079d e9bd 7cbe 3c3d 0946 e13d 60ae 903d
000001b0: a31f 253e e4c0 d4bd 10ea 563d 281f f6bc
000001c0: 8c81 78bd c830 e43c 1e23 11be 4b9e 643d
000001d0: 8504 09be 021a c33d 60d8 13be 1802 9dbd
000001e0: 7635 a23d 0abe 393c 956e 933d aef6 a7bd
000001f0: 2b2e 92bd 1cb6 4d3d 6e2f a73d ee69 33bc
00000200: b529 193d a392 143e d5f5 ba3d d418 1fbe
00000210: 1c23 863c db25 86bd bb1f 373d 9092 4b3a
00000220: bf41 31bc aea6 b63c 3ab7 11bd 55b6 39bc
00000230: c01b 8f3b 3fde c43d d201 9b3b 08c4 ddbb
00000240: bc17 d83d 8323 bcbd f60a e63d e52a 7ebd
00000250: e625 b0bd bc50 923c 646a 4ebd b5da febd
00000260: ff8e 37be bd15 44be 3e27 673c 186f 00be
00000270: 82c4 6f3e 6ab3 39be 607c 07be 7e64 97bd
00000280: 25f2 183e 9593 0bbe 01c4 9b3a 7a45 cebc
00000290: 14b4 14be 3d2d a73d 8f4c 33bb c8a5 b43d
000002a0: 9c27 8bbd 75f1 d7bc b6c5 183d 59ea ad3e
000002b0: 4d35 063e e2c6 ce3c cf45 693e afe6 483d
000002c0: a357 ddbe 8496 6cbd 13e7 923e 0d57 70bd
000002d0: 36ac 1f3d bde6 ff3c a4b5 c2be f292 4abd
000002e0: a40b a0bd ca98 863c 80ba 20be 5ac2 bcbe
000002f0: 91ed 17bd cb0c eb3d cad0 6abd 03e4 b6be
00000300: 9cd9 483e bfc4 9c3d ee3e 0dbe 701e dabd
00000310: 19ba 7cbe 05d9 ccbd 9735 16be a930 42bd

lstm.bias_hh_l0 f4 [200]
-0.06805644 -0.0142629985 -0.19264846 -0.04372728 -0.052895114 0.13051395 -0.02556464 -0.1594384
0.10630063 0.13867003 -0.11268608 -0.002905303 -0.17635734 -0.08409222 0.04110893 0.32502818
-0.14550635 -0.13094604 0.01529644 0.10739059 -0.0086089475 0.3337667 -0.0336368 0.13261798
0.43078637 -0.08379317 -0.4081664 -0.016493933 0.13409598 -0.038339257 0.26420328 0.0077953087
-0.510782 0.033851936 -0.08194418 -0.24712582 -0.06496514 -0.17789544 0.03334564 0.0076613897
-0.13252857 -0.1363952 0.10583857 0.20091411 -0.065642305 -0.005943257 -0.29068136 0.09452528
0.06764512 -0.038562424 -0.43031588 -0.12970573 -0.2943613 0.03154564 -0.6514555 -0.19275668
-0.3528718 -0.14115764 -0.21834245 -0.36169353 -0.08808561 -0.2087393 -0.1568884 0.14141233
-0.08993038 -0.8673123 -0.28411895 -0.2058112 -0.11117694 -0.13642643 -0.17036821 -0.4455858
-0.23827724 -0.56819504 -0.49594742 -0.04553596 -0.09960366 -0.09741349 -0.4773567 -0.41770607
-0.520189 -0.37983832 -0.47697523 -0.037088808 -0.47952715 -0.4135316 -0.20658982 -0.36825976
-0.3384411 -0.10475856 -0.47591594 -0.30437255 -0.35755414 -0.43694425 -0.16283755 -0.06861307
-0.38032416 -0.086113036 -0.27646893 -0.02528685 0.096622415 -0.08096647 -0.034202415 -0.09569046
-0.05634964 0.056291163 0.029812932 0.004700625 -0.033774678 -0.061729614 -0.11541893 0.12933691
-0.034319885 0.010177438 0.01531838 0.04769286 0.052336905 -0.06108483 0.02103556 -0.025783798
0.075144 0.0795635 0.078286216 -0.03270854 0.02939463 -0.13334028 -0.1064556 0.18413958
0.10271805 -0.0005930724 0.08182778 0.023629539 -0.012286421 0.15841474 0.1160778 -0.06255202
0.03204561 0.05061751 -0.0755343 -0.06006941 0.062472202 -0.018106345 0.05147112 -0.11381708
0.0019629165 -0.008959284 -0.07154094 -0.08391244 -0.02985614 0.038182504 -0.28011748 -0.074767835
-0.22072415 -0.10246313 0.0032130498 -0.004816071 0.11450161 -0.013670803 -0.024293555 0.07997801
-0.10786798 -0.18356876 -0.10663538 0.1112103 0.0719213 0.22851577 -0.15972021 0.12588386
0.02271205 0.0898533 0.11903009 0.23144741 0.1680545 -0.029643534 0.32342547 0.05716353
-0.45507187 -0.057344336 0.3201329 -0.06807841 0.13463648 0.06090649 -0.4255085 -0.12954512
-0.21879019 -0.034228925 -0.046045516 -0.1605252 -0.18830134 -0.019977365 -0.08413759 -0.21895172
0.22905898 0.1930702 -0.077658705 -0.040071435 -0.28683597 -0.06449225 -0.03392747 -0.18163836
00000000: 2d61 8bbd 5aaf 69bc a345 45be 601b 33bd
00000010: 8ca8 58bd 73a5 053e f06c d1bc d243 23be
00000020: 25b4 d93d 84ff 0d3e f6c7 e6bd e566 3ebb
00000030: 0597 34be 8b38 acbd d661 283d 186a a63e
00000040: 9eff 14be b816 06be eb9d 7a3c 99ef db3d
00000050: 8b0c 0dbc 78e3 aa3e bec6 09bd 02cd 073e
00000060: 0890 dc3e c19b abbd 30fb d0be 491e 87bc
00000070: 7550 093e a009 1dbd a745 873e ca6f ff3b
00000080: 9cc2 02bf 54a8 0a3d 5ad2 a7bd 8d0e 7dbe
00000090: 710c 85bd 392a 36be 7095 083d 650c fb3b
000000a0: 92b5 07be 2fab 0bbe e4c1 d83d 6ebc 4d3e
000000b0: 796f 86bd a7bf c2bb 30d4 94be 7896 c13d
000000c0: 8689 8a3d a2f3 1dbd 5d52 dcbe 94d1 04be
000000d0: 86b6 96be 0036 013d cac5 26bf 0262 45be
000000e0: 9dab b4be a18b 10be 2a95 5fbe e52f b9be
000000f0: 3a66 b4bd c1bf 55be 5aa7 20be 65ce 103e
00000100: 6b2d b8bd 2e08 5ebf 0a78 91be 2cc0 52be
00000110: bcb0 e3bd 5fb3 0bbe 0175 2ebe d223 e4be
00000120: f3fe 73be 3b75 11bf d2ec fdbe ea83 3abd
00000130: 01fd cbbd b980 c7bd 1968 f4be 92dd d5be
00000140: 1b2b 05bf 2b7a c2be 1936 f4be 6fea 17bd
00000150: 9584 f5be 6aba d3be 488c 53be 8b8c bcbe
00000160: 2748 adbe a88b d6bd 41ab f3be b8d6 9bbe
00000170: 5611 b7be 28b7 dfbe e3be 26be 0285 8cbd
00000180: d9b9 c2be 085c b0bd 568d 8dbe 5e26 cfbc
00000190: f9e1 c53d c0d1 a5bd d517 0cbd 5cf9 c3bd
000001a0: e1ce 66bd 9091 663d 403a f43c b307 9a3b
000001b0: 5157 0abd 31d8 7cbd c360 ecbd e570 043e
000001c0: 0293 0cbd 45bf 263c f1f9 7a3c 9759 433d
000001d0: 395f 563d 1634 7abd c452 ac3c 8b38 d3bc
000001e0: 19e5 993d 30f2 a23d 8654 a03d 64f9 05bd
000001f0: 02cd f03c 5b8a 08be 6505 dabd 168f 3c3e
00000200: d75d d23d 6a78 1bba 5395 a73d bc92 c13c
00000210: fc4c 49bc 7937 223e 33ba ed3d 461b 80bd
00000220: 4242 033d 4e54 4f3d bab1 9abd 570b 76bd
00000230: dae2 7f3d c253 94bc 62d3 523d ee18 e9bd
00000240: 46a4 003b f6c9 12bc 0e84 92bd 49da abbd
00000250: dd94 f4bc 4265 1c3d 8f6b 8fbe e11f 99bd
00000260: 8305 62be 31d8 d1bd 0892 523b 22d0 9dbb
00000270: d27f ea3d 81fb 5fbc 4703 c7bc 83cb a33d
00000280: e3e9 dcbd 73f9 3bbe a663 dabd 3ac2 e33d
00000290: 794b 933d 0a00 6a3e b28d 23be b3e7 003e
000002a0: 9f0e ba3c 0205 b83d 0cc6 f33d 8d00 6d3e
000002b0: 7b16 2c3e ffd6 f2bc 0698 a53e 4e24 6a3d
000002c0: 2eff e8be e5e1 6abd 76e8 a33e b26c 8bbd
000002d0: 25de 093e 1579 793d 40dc d9be 7aa7 04be
000002e0: 890a 60be a133 0cbd 399a 3cbd b860 24be
000002f0: 11d2 40be 92a7 a3bc 5450 acbd e134 60be
00000300: 708e 6a3e 32b4 453e 870b 9fbd f221 24bd
00000310: 2adc 92be 8314 84bd 88f7 0abd 68ff 39be

lstm.weight_ih_l1 f4 [200, 50]
-0.00078823214 0.39103967 -0.25886762 -0.5251365 -0.88505965 0.80933625 0.5634207 0.70816797
0.5774887 -0.47836083 -0.8165281 1.00694 -0.34827256 0.5953104 -0.4848058 0.78156817
-0.41163146 0.29881752 -0.50263184 -0.36127484 0.79868865 0.6519853 0.268068 -0.6934481
-0.8662531 -0.569481 0.19804965 0.7791269 0.6977845 0.7722153 0.75900644 -0.4668791
0.18826592 0.45943227 0.4640645 -0.53840303 0.23634486 0.4246619 -0.9976974 -0.31808493
0.68737864 0.0029609234 0.9658203 -0.7098419 0.3254475 -0.9681018 0.22085364 -0.72320384
-0.3408629 0.14438657 -0.09022911 -0.06589196 0.15920155 0.042066857 0.37590665 -0.115045086
-0.2592291 0.05506392 0.09064452 -0.06340707 0.12329406 0.093278356 0.100636736 0.07123531
0.020866718 -0.09271295 0.081113845 0.046042465 0.12334152 -0.047269374 -0.15362187 -0.2558308
0.06315745 0.092976175 0.29094416 -0.051490054 -0.08199909 -0.055228908 0.10980087 -0.18011406
-0.19463472 0.02105786 -0.119649634 -0.117744505 -0.20176284 0.07005845 0.07914829 0.23166053
0.053153522 0.093081586 -0.3003928 0.039194815 -0.20116694 0.024245288 -0.14747727 0.1266923
0.069701515 0.09938693 -0.17618613 -0.041686248 -0.10976157 -0.14997871 0.08059333 -0.10780177
0.082545355 -0.013621333 0.008382026 0.087768294 0.06488341 0.11883149 -0.11028763 0.25596225
0.048174422 0.07678716 -0.107583866 0.0647841 0.0035566355 0.09298369 0.12369373 -0.11286547
-0.01630591 0.012701211 -0.14803313 0.048496895 -0.10577607 -0.05347193 -0.19932328 0.02034634
-0.048989866 -0.059577998 -0.11760774 0.07555491 0.08221436 0.025307516 -0.06099185 -0.1788287
0.15460442 -0.036410104 0.060584754 0.016105637 0.11066785 -0.07634526 0.08701157 -0.11158963
0.009712102 -0.035248533 0.09168184 -0.075803466 -0.14062002 -0.18960582 -0.08226399 -0.006762049
0.001191386 -0.13775237 -0.1286021 0.22993469 -0.04820491 0.20053858 -0.012691585 -0.010875675
-0.06625843 0.1546262 -0.036617126 -0.03981902 -0.30483407 0.4544949 0.04719026 0.1347008
0.0065147583 0.027435828 0.07187726 0.080023 0.17169566 -0.24971132 -0.2188305 -0.11902405
-0.1380339 0.19754456 0.011508078 0.40836075 0.15230621 -0.07910498 -0.08921493 -0.046437886
0.16572846 0.04765258 -0.0800328 -0.15113433 -0.11264536 0.052662335 0.093860365 0.11427551
0.28308314 -0.07885138 0.08070791 -0.17954606 -0.081805915 -0.24250361 -0.2763084 0.10125181
0.05705371 -0.03683812 0.37516314 0.2156256 0.5247437 -0.23407884 -0.24803343 0.319641
-0.34014556 0.39055845 0.50104034 -0.40022784 0.13294655 -0.0056540924 0.055062678 -0.39363495
-0.14843711 0.28964743 0.3420918 0.0906432 -0.5133036 -0.09312462 -0.37678397 0.2403033
0.09325427 -0.018377472 0.21654502 -0.2647396 -0.4124815 -0.30932438 -0.23855135 -0.01721219
0.10525935 -0.35299087 -0.16362362 -0.08622349 0.13244162 0.15395097 0.18603471 -0.0045394264
-0.2905305 -0.34243193 -0.40172732 0.10483264 -0.3867258 -0.1533136 0.16846573 0.08209827
0.25756627 0.08666219 0.17382036 0.2761776 -0.03416206 -0.27004442 -0.35136402 0.4850832
00000000: 5da1 4eba 5a36 c83e 4c8a 84be 586f 06bf
00000010: 4593 62bf a930 4f3f 573c 103f 7f4a 353f
00000020: 4dd6 133f b6eb f4be fc07 51bf 69e3 803f
00000030: c850 b2be 4366 183f 7738 f8be da14 483f
00000040: 5cc1 d2be 9cfe 983e 7bac 00bf 04f9 b8be
00000050: dc76 4c3f 82e8 263f 3540 893e d185 31bf
00000060: c3c2 5dbf 82c9 11bf 87cd 4a3e dc74 473f
00000070: 01a2 323f e7af 453f 3f4e 423f c70a efbe
00000080: c8c8 403e b53a eb3e dd99 ed3e c8d4 09bf
00000090: 6304 723e 496d d93e 1969 7fbf 07dc a2be
000000a0: 0cf8 2f3f 0d0c 423b 0040 773f 33b8 35bf
000000b0: 0ea1 a63e 85d5 77bf 7527 623e e323 39bf
000000c0: 9585 aebe 13da 133e 0aca b8bd 5df2 86bd
000000d0: bb05 233e 4c4e 2c3d d676 c03e c29c ebbd
000000e0: adb9 84be b48a 613d d6a3 b93d 91db 81bd
000000f0: 9981 fc3d b908 bf3d a21a ce3d d1e3 913d
00000100: aef0 aa3c 4ae0 bdbd 041f a63d 0697 3c3d
00000110: 7b9a fc3d 889d 41bd 0d4f 1dbe 41fc 82be
00000120: b158 813d 4b6a be3d a2f6 943e 3ce7 52bd
00000130: 24ef a7bd b537 62bd 47df e03d d26f 38be
00000140: 534e 47be 8981 ac3c de0a f5bd 0824 f1bd
00000150: eb9a 4ebe ce7a 8f3d 8018 a23d 6b38 6d3e
00000160: 82b7 593d 8fa1 be3d 16cd 99be be8a 203d
00000170: b5fe 4dbe 0e9e c63c 4804 17be a0bb 013e
00000180: abbf 8e3d 608b cb3d 236a 34be 33bf 2abd
00000190: adca e0bd 0594 19be 1e0e a53d 2dc7 dcbd
000001a0: 8a0d a93d 032c 5fbc c454 093c ddbf b33d
000001b0: 98e1 843d ed5d f33d 7bde e1bd 7c0d 833e
000001c0: 8b52 453d 9642 9d3d ee54 dcbd 87ad 843d
000001d0: 7116 693b 3c6e be3d 2353 fd3d 0326 e7bd
000001e0: f993 85bc bd18 503c ff95 17be aea4 463d
000001f0: 20a1 d8bd 6205 5bbd 671b 4cbe 5ead a63c
00000200: 99a9 48bd 0f08 74bd 54dc f0bd 88bc 9a3d
00000210: 0160 a83d b551 cf3c 97d2 79bd df1e 37be
00000220: 9f50 1e3e c322 15bd b827 783d f8ef 833c
00000230: d3a5 e23d e75a 9cbd 1f33 b23d 1b89 e4bd
00000240: 821f 1f3c c460 10bd b0c3 bb3d d93e 9bbd
00000250: b2fe 0fbe 0728 42be 067a a8bd 2e94 ddbb
00000260: 4828 9c3a f50e 0dbe 45b0 03be 0074 6b3e
00000270: 8372 45bd fc59 4d3e 5ef0 4fbc e32f 32bc
00000280: 80b2 87bd 5556 1e3e d7fb 15bd 4519 23bd
00000290: 3613 9cbe 8eb3 e83e 934a 413d 02ef 093e
000002a0: c179 d53b 1ac1 e03c 6334 933d 19e3 a33d
000002b0: fdd0 2f3e 53b4 7fbe 1a15 60be e2c2 f3bd
000002c0: c258 0dbe 1f49 4a3e 618c 3c3c a914 d13e
000002d0: 29f6 1b3e cb01 a2bd 51b6 b6bd a735 3ebd
000002e0: b9b4 293e 5a2f 433d 3de8 a3bd f5c2 1abe
000002f0: 9cb2 e6bd 76b4 573d dd39 c03d 4709 ea3d
00000300: 46f0 903e d57c a1bd 304a a53d ecda 37be
00000310: dc89 a7bd de52 78be 4b78 8dbe 1c5d cf3d
00000320: 27b1 693d 92e3 16bd 6215 c03e f5cc 5c3e
00000330: 9a55 063f 5db2 6fbe 7afc 7dbe fca7 a33e
00000340: 8f27 aebe 47f7 c73e 2e44 003f aaea ccbe
00000350: 2423 083e f745 b9bb 6789 613d 858a c9be
00000360: e6ff 17be ab4c 943e a826 af3e 24a3 b93d
00000370: dd67 03bf 1fb8 bebd d4e9 c0be 1112 763e
00000380: 18fc be3d 5a8c 96bc fabd 5d3e f38b 87be
00000390: c630 d3be c45f 9ebe ce46 74be 9400 8dbc
000003a0: 3792 d73d 38bb b4be f38c 27be f195 b0bd
000003b0: c79e 073e 53a5 1d3e e27f 3e3e 78bf 94bb
000003c0: 6ac0 94be 3d53 afbe 34af cdbe 7fb2 d63d
000003d0: ed00 c6be 3efe 1cbe 4882 2c3e 2323 a83d
000003e0: badf 833e f27b b13d f7fd 313e 2667 8d3e
000003f0: 84ed 0bbd 4343 8abe fce5 b3be d35c f83e

lstm.weight_hh_l1 f4 [200, 50]
0.44269004 -0.3475235 0.22328818 0.7482114 0.8650047 -0.3225393 0.5545938 -0.2844197
0.53304565 -0.661455 0.022966452 0.45001298 -0.6919961 0.45528105 0.47124577 -0.3069606
0.685275 -0.56923693 0.4951936 0.21983463 0.88731974 -0.6176967 -0.30639407 0.109307796
0.6824711 0.15268645 0.40571594 -0.39420313 0.6975325 0.421715 0.120723195 -0.4829194
0.45311072 0.69400907 0.5740849 0.26205692 0.04850408 -0.40554878 0.07081574 -0.03608064
0.660621 0.20583478 0.63330954 -0.17502704 -0.25200787 -0.42749846 -0.538123 0.16274516
0.9792669 0.34514874 -0.05850303 0.13070618 -0.13184635 -0.09887667 0.0355994 0.004898195
0.024644284 0.18369365 -0.04467303 0.20764449 0.059194826 0.025376162 0.20289682 -0.019486908
-0.11707657 0.033743847 -0.007476504 0.18838347 -0.083682775 -0.1572882 -0.3180546 -0.1729142
-0.10749861 0.34014887 -0.019618608 -0.058315527 -0.01770603 0.2647884 -0.016401965 -0.10371498
-0.07803432 -0.41304907 0.1703341 -0.066586174 -0.16321634 -0.050331272 -0.06172959 0.12872306
0.209602 0.12021832 0.057572193 -0.0058979103 -0.043129425 0.20257047 -0.35497862 0.2971438
0.3794919 -0.14708711 -0.23653388 0.09899914 0.93680006 0.110445626 0.04089797 0.0033293853
0.0063981246 -0.018370988 -0.19915883 -0.01302485 0.016783934 -0.19159403 0.093045235 0.09656443
0.037111826 0.06687587 0.19278494 -0.013155478 -0.008577231 0.1581655 -0.037672438 -0.053631593
0.015153859 -0.19051509 0.12939252 0.5685895 0.14896752 -0.14770457 0.26407257 -0.0939287
-0.03760848 -0.02467011 0.025952501 0.082160115 -0.0863276 0.0682184 -0.3082678 0.12613949
0.32035768 0.015367243 -0.024042705 -0.23907402 -0.019486373 0.08725517 -0.14006639 -0.060091592
-0.2049339 0.012856296 -0.07901747 0.18747996 -0.0193855 0.029671019 0.76610434 0.12790714
0.0031524838 0.08645125 0.28404206 0.122787215 -0.06730372 -0.0017545407 -0.14526972 0.057495087
0.12199654 0.08393705 0.06524374 0.19583847 0.028153867 0.036526524 -0.07501888 0.052432872
-0.019922778 -0.16336505 -0.010196946 -0.37618783 -0.030595848 -0.1480805 -0.1972802 -0.08154987
-0.0923024 0.09648279 -0.10936878 -0.01255712 0.045780256 -0.28005576 0.12065427 0.004262652
0.28647116 -0.03291023 0.16968197 -0.054134928 -0.033265773 0.23738185 0.19873337 -0.17365758
0.05011119 0.05915074 -0.10198226 0.010405898 0.08257454 -0.13757795 -0.20161171 -0.1032118
0.58262956 0.047579296 -0.061669096 0.45448244 0.30550113 -0.50740784 0.15381402 -0.01026723
0.16377863 -0.4337555 0.026206179 0.18292156 -0.35857832 0.6027006 0.22682887 -0.42437539
0.26557517 0.15319036 0.49592423 0.029472562 0.084233664 -0.20921175 -0.08357217 0.86457145
0.18113312 -0.00076805847 -0.024137486 -0.0947589 -0.17531517 0.26212847 0.39403272 -0.36304373
0.6148881 0.21589485 0.34105337 0.53655946 0.520757 -0.52587235 -0.0334625 -0.66336936
0.3690748 0.044326544 0.12271857 -0.071888715 -0.26156673 0.025269689 -0.2457161 0.2115535
0.09166665 -0.032331463 -0.0022875813 -0.21258636 0.30474338 0.25892913 0.4282752 0.33519018
00000000: 45a8 e23e 9aee b1be a8a5 643e c88a 3f3f
00000010: f370 5d3f df23 a5be dcf9 0d3f 759f 91be
00000020: ae75 083f 1d55 29bf 2424 bc3c 1a68 e63e
00000030: a826 31bf 991a e93e 2047 f13e f129 9dbe
00000040: 2f6e 2f3f 83b9 11bf 048a fd3e 541c 613e
00000050: 6327 633f 5f21 1ebf afdf 9cbe c4dc df3d
00000060: 6db6 2e3f d659 1c3e 00ba cf3e fed4 c9be
00000070: 7d91 323f 07eb d73e b93d f73d 3641 f7be
00000080: 21fe e73e 94aa 313f 3af7 123f 532c 863e
00000090: 37ac 463d 17a4 cfbe d807 913d 4bc9 13bd
000000a0: 751e 293f 5ac6 523e 9320 223f 4a3a 33be
000000b0: 2d07 81be 14e1 dabe 6ec2 09bf aba6 263e
000000c0: 3cb1 7a3f 56b7 b03e e0a0 6fbd d7d7 053e
000000d0: bb02 07be da7f cabd add0 113d 0a81 a03b
000000e0: cfe2 c93c 301a 3c3e 11fb 36bd c2a0 543e
000000f0: 4676 723d abe1 cf3c 2fc4 4f3e 02a3 9fbc
00000100: d7c5 efbd fd36 0a3d 76fd f4bb 99e7 403e
00000110: e061 abbd 2810 21be 0dd8 a2be 6c10 31be
00000120: 3b28 dcbd fe27 ae3e 34b7 a0bc 43dc 6ebd
00000130: 3c0c 91bc 5892 873e 6a5d 86bc 8568 d4bd
00000140: 75d0 9fbd 2b7b d3be 106c 2e3e 555e 88bd
00000150: 2f22 27be 2a28 4ebd 2bd8 7cbd facf 033e
00000160: e8a1 563e 0635 f63d d2d0 6b3d 4243 c1bb
00000170: 7ba8 30bd a26e 4f3e c2bf b5be 3b23 983e
00000180: c34c c23e 019e 16be f035 72be 10c0 ca3d
00000190: 21d2 6f3f 5131 e23d a184 273d d131 5a3b
000001a0: 5ca7 d13b c17e 96bc 4bf0 4bbe 2e66 55bc
000001b0: 767e 893c 3a31 44be 808e be3d 92c3 c53d
000001c0: 9202 183d 37f6 883d 6a69 453e 138a 57bc
000001d0: 8487 0cbc 23f6 213e 6a4e 1abd cdac 5bbd
000001e0: e447 783c 6316 43be 797f 043e 158f 113f
000001f0: f18a 183e de3f 17be 8534 873e b15d c0bd
00000200: 590b 1abd f818 cabc 579a d43c 9043 a83d
00000210: 86cc b0bd 17b6 8b3d 47d5 9dbe b62a 013e
00000220: ec05 a43e e4c6 7b3c 35f5 c4bc d2cf 74be
00000230: e3a1 9fbc d7b2 b23d 906d 0fbe 9a22 76bd
00000240: 31da 51be 37a3 523c e9d3 a1bd bffa 3f3e
00000250: 57ce 9ebc a310 f33c 6a1f 443f 17fa 023e
00000260: e799 4e3b 5a0d b13d f66d 913e dd77 fb3d
00000270: 88d6 89bd 9ef8 e5ba 96c1 14be f87f 6b3d
00000280: 52d9 f93d 30e7 ab3d 839e 853d e189 483e
00000290: f0a2 e63c d69c 153d 80a3 99bd dac3 563d
000002a0: 1835 a3bc 2b49 27be 1711 27bc b19b c0be
000002b0: 25a4 fabc 6aa2 17be d203 4abe 9e03 a7bd
000002c0: 0a09 bdbd c598 c53d bdfc dfbd 61bc 4dbc
000002d0: 1484 3b3d 7863 8fbe 9619 f73d b7ad 8b3b
000002e0: 59ac 923e e1cc 06bd 1cc1 2d3e 96bc 5dbd
000002f0: b141 08bd 3a14 733e c380 4b3e 4bd3 31be
00000300: 6441 4d3d 0c48 723d 13dc d0bd 807d 2a3c
00000310: d71c a93d 3ce1 0cbe 4d73 4ebe b560 d3bd
00000320: 3627 153f 82e2 423d bc98 7cbd ecb1 e83e
00000330: a56a 9c3e 7be5 01bf 6c81 1d3e e237 28bc
00000340: 96b5 273e 3315 debe 57ae d63c ca4f 3b3e
00000350: 9497 b7be 964a 1a3f d445 683e bb47 d9be
00000360: 78f9 873e efdd 1c3e c8e9 fd3e 7170 f13c
00000370: b382 ac3d 9b3b 56be e327 abbd 8e54 5d3f
00000380: f67a 393e 8857 49ba fabb c5bc f410 c2bd
00000390: d285 33be b435 863e a8be c93e dee0 b9be
000003a0: 4e69 1d3f 8a13 5d3e 8c9e ae3e f65b 093f
000003b0: 5550 053f 929f 06bf f90f 09bd 93d2 29bf
000003c0: 5ff7 bc3e c08f 353d e053 fb3d 643a 93bd
000003d0: 13ec 85be 6102 cf3c 009d 7bbe 7ba1 583e
000003e0: b9bb bb3d ff6d 04bd 3feb 15bb 3db0 59be
000003f0: 5307 9c3e 5c92 843e e346 db3e 0c9e ab3e

lstm.bias_ih_l1 f4 [200]
0.07469317 -0.2875504 -0.4159326 -0.115853 -0.22312677 0.0684671 -0.4866047 -0.2424187
-0.42640242 -0.05239103 -0.5037733 0.066700704 -0.10394787 -0.3489214 -0.14450286 -0.2124852
-0.5054342 -0.31373528 -0.15547115 -0.4383921 -0.30899104 -0.37871462 -0.6278502 0.056772284
0.22393106 -0.5416493 -0.34705266 -0.39971998 -0.21795294 -0.31358576 -0.3231228 -0.22326572
-0.55726826 -0.23460278 -0.38134298 -0.20236762 -0.020426717 -0.32272652 -0.5524385 -0.29410383
-0.40786967 -0.34846407 -0.26973864 -0.094625995 -0.3681944 -0.17179641 -0.18988314 -0.15886334
0.012509782 -0.4987515 -0.447057 -0.0947955 -0.055710755 -0.44701135 -0.601053 -0.37139732
-0.2820271 -0.3095545 -0.2306671 -0.36032692 -0.4204175 0.13982853 -0.081615575 -0.3777717
-0.66826975 -0.2818112 -0.3336348 -0.20414506 -0.555639 -0.62758994 -0.380686 -0.49068728
0.38920665 -0.3904584 -0.33871013 -0.6083725 -0.12024582 -0.36353996 -0.2777359 -0.5912351
-0.24511304 -0.64034534 -0.30222315 -0.16290155 -0.9330196 -0.5203321 -0.3159785 -0.34034473
-0.24938767 -0.55869526 -0.35925135 -0.3628411 -0.18632893 -0.48653814 -0.06661703 -0.3351021
-0.60659343 -0.26169068 -0.4191202 -0.09132848 -0.19779846 -0.026936809 0.0991153 -0.07619962
0.015816104 -0.047478233 -0.046723053 -0.03745171 0.07873683 -0.07138931 0.018664319 -0.16985218
-0.06534673 -0.0021044028 0.12457279 0.0014176762 0.03743167 0.008416504 0.22030161 -0.05314443
0.15891385 0.11261438 0.026500123 0.015656276 0.085672475 0.101978794 -0.032742217 -0.017359369
0.012520293 0.0007833098 0.07040678 -0.23036136 -0.066581175 0.1057056 0.30667228 0.14121053
0.06584936 0.049059078 0.023130812 -0.029242007 0.093252525 -0.030961921 0.17141739 0.060220145
0.057424236 -0.08531142 -0.19373263 0.2045408 0.0011151319 -0.019260295 -0.14753495 -0.1343061
-0.29091614 -0.16304225 -0.30963555 0.13911335 -0.5185757 -0.032398432 -0.25421524 -0.16846322
-0.5262998 -0.044238158 -0.32750428 -0.1886597 -0.23687503 -0.41553697 -0.65235543 -0.14660312
0.011438841 -0.37219712 -0.28162882 -0.2507656 -0.13427438 0.11448586 0.043128498 -0.5345186
-0.34115142 -0.2771446 -0.18372455 -0.2504734 -0.2752355 -0.20994347 -0.3228322 0.009754864
-0.45989004 -0.13770942 0.087093115 -0.307974 -0.57278126 -0.3324573 -0.48193458 -0.2605737
-0.18662818 -0.14850822 -0.48027468 -0.14275104 -0.12960392 -0.07445851 0.06058296 -0.32829392
00000000: bcf8 983d ce39 93be 1ef5 d4be 5644 edbd
00000010: 587b 64be 7b38 8c3d 4024 f9be 9c3c 78be
00000020: 6b51 dabe fa97 56bd 49f7 00bf 619a 883d
00000030: 9fe2 d4bd d3a5 b2be 8ff8 13be b895 59be
00000040: 2364 01bf e9a1 a0be d433 1fbe ee74 e0be
00000050: 1334 9ebe e2e6 c1be caba 20bf 0e8a 683d
00000060: 2f4e 653e 87a9 0abf e3b0 b1be 19a8 ccbe
00000070: 0e2f 5fbe 508e a0be 5a70 a5be c59f 64be
00000080: 22a9 0ebf b63b 70be 633f c3be 7539 4fbe
00000090: ee55 a7bc 693c a5be 9c6c 0dbf c794 96be
000000a0: 4bd4 d0be e269 b2be 2f1b 8abe 46cb c1bd
000000b0: fa83 bcbe 66eb 2fbe ba70 42be 12ad 22be
000000c0: d4f5 4c3c 5b5c ffbe a8e4 e4be 2524 c2bd
000000d0: f630 64bd acde e4be 9cde 19bf ca27 bebe
000000e0: db65 90be ed7d 9ebe ff33 6cbe c57c b8be
000000f0: f640 d7be 362f 0f3e 1126 a7bd 4b6b c1be
00000100: ba13 2bbf 8f49 90be 2ed2 aabe 670b 51be
00000110: 5c3e 0ebf bca9 20bf 47e9 c2be 5d3b fbbe
00000120: 1846 c73e 2aea c7be 6a6b adbe 4dbe 1bbf
00000130: 7143 f6bd e921 babe 6633 8ebe 2f5b 17bf
00000140: eafe 7abe aced 23bf febc 9abe aacf 26be
00000150: 5fda 6ebf 7c34 05bf efc7 a1be aa41 aebe
00000160: 7b5f 7fbe a706 0fbf cbef b7be 4fc6 b9be
00000170: 03cd 3ebe 871b f9be 826e 88bd 8192 abbe
00000180: b549 1bbf 52fc 85be ec96 d6be 6d0a bbbd
00000190: ae8b 4abe 95aa dcbc f6fc ca3d 8c0e 9cbd
000001a0: c690 813c 8978 42bd ac60 3fbd f766 19bd
000001b0: c640 a13d 8f34 92bd eae5 983c bbed 2dbe
000001c0: 82d4 85bd 05ea 09bb 0520 ff3d 52d1 b93a
000001d0: f351 193d 60e5 093c bf96 613e f9ad 59bd
000001e0: 50ba 223e 5ea2 e63d c916 d93c 9741 803c
000001f0: 0d75 af3d 42da d03d b41c 06bd 3c35 8ebc
00000200: ea21 4d3c 0857 4d3a 6e31 903d d9e3 6bbe
00000210: b65b 88bd 2d7c d83d 2604 9d3e 7e99 103e
00000220: 07dc 863d 2cf2 483d d47c bd3c ef8c efbc
00000230: 2efb be3d dba3 fdbc 0a88 2f3e 66a9 763d
00000240: ad35 6b3d c1b7 aebd d961 46be 2573 513e
00000250: 9e29 923a c4c7 9dbc 6713 17be 8a87 09be
00000260: f6f2 94be 8cf4 26be 8d88 9ebe bb73 0e3e
00000270: 61c1 04bf 38b4 04bd 8028 82be 9f81 2cbe
00000280: 95bb 06bf 1233 35bd a4ae a7be 0230 41be
00000290: 5e8f 72be 43c1 d4be c400 27bf 211f 16be
000002a0: fa69 3b3c 9f90 bebe a731 90be 5964 80be
000002b0: 397f 09be 9077 ea3d 82a7 303d 36d6 08bf
000002c0: 66ab aebe e6e5 8dbe 4a22 3cbe 0d3e 80be
000002d0: abeb 8cbe 6cfb 56be 434a a5be ddd2 1f3c
000002e0: b576 ebbe b303 0dbe e05d b23d c5ae 9dbe
000002f0: cba1 12bf d837 aabe 21c0 f6be ea69 85be
00000300: 751b 3fbe 8a12 18be 90e6 f5be 542d 12be
00000310: e4b6 04be b47d 98bd d625 783d 2416 a8be

lstm.bias_hh_l1 f4 [200]
-0.096746646 -0.31662315 -0.3286739 0.009204682 -0.23106457 0.09247011 -0.56503737 -0.16333857
-0.2847407 -0.14211968 -0.3219101 -0.08269222 -0.24480134 -0.37720498 -0.3105912 -0.20896125
-0.47127867 -0.26358598 -0.06653912 -0.41751885 -0.24817684 -0.19187227 -0.5890558 0.12045011
0.2815771 -0.5481472 -0.16758423 -0.34238735 -0.10826262 -0.5043771 -0.2638706 -0.42723936
-0.61201054 -0.21769609 -0.5097062 -0.13326395 -0.016059639 -0.31667626 -0.44366112 -0.22180201
-0.408097 -0.24109022 -0.2216697 -0.1393552 -0.5539433 -0.1123713 -0.114529386 -0.097043335
-0.09254092 -0.7012747 -0.508801 -0.20496535 -0.17665634 -0.4643232 -0.567524 -0.21061492
-0.36253157 -0.3266984 -0.22367562 -0.5135808 -0.50329846 -0.017313646 -0.2370083 -0.46942726
-0.50487494 -0.33338758 -0.50509816 -0.25891548 -0.48866677 -0.426128 -0.34158134 -0.44513673
0.2870293 -0.396438 -0.2832998 -0.5790083 -0.15374015 -0.5048194 -0.27320224 -0.57318145
-0.17187925 -0.7243627 -0.21159181 -0.3861223 -0.87899554 -0.4643584 -0.38708088 -0.38895252
-0.10000608 -0.5820891 -0.538144 -0.22628577 -0.20334835 -0.4544984 -0.23001598 -0.40676165
-0.6253253 -0.40271187 -0.23856191 -0.11294156 -0.13668011 -0.12435045 -0.035112746 0.102230705
0.02899289 0.090963036 -0.030345486 -0.10447866 -0.07269078 -0.03408922 -0.008022965 0.02208545
0.07642702 0.036820386 0.13468085 0.065231785 0.15349372 -0.11639944 0.02924806 0.040029313
-0.06098489 -0.0996106 -0.00528265 -0.05590618 0.030284392 0.04942856 0.03221421 -0.06311225
-0.014486412 0.23717359 0.110573985 -0.38030404 -0.028308822 0.03066674 0.3365502 -0.01793668
0.06531672 -0.15062223 -0.07324596 -0.096627526 0.009166442 0.015401281 -0.042227767 -0.1746146
0.003759406 0.04714221 -0.0010824059 -0.018923756 0.114645004 0.0898639 -0.073158875 -0.26460877
-0.3748779 -0.28480136 -0.13004956 0.0036761742 -0.58732593 -0.12595965 -0.26424426 -0.058020238
-0.5618882 -0.13034816 -0.1465273 -0.29837325 -0.1743682 -0.25111622 -0.43132076 -0.17403239
0.033120964 -0.51056075 -0.2914255 -0.29073107 -0.35498214 0.10094739 0.053219892 -0.451824
-0.112259835 -0.3248855 -0.30289868 -0.28616193 -0.27483898 -0.28862298 -0.3441272 -0.116202876
-0.459868 -0.17069046 -0.13911279 -0.3101901 -0.3894648 -0.35515854 -0.46298698 -0.36356866
-0.112741545 -0.17523193 -0.2733145 -0.13651137 -0.027205141 -0.20273352 -0.07498103 -0.45891204
00000000: 1b23 c6bd 6e1c a2be f247 a8be 3ccf 163c
00000010: 319c 6cbe f860 bd3d 4aa6 10bf 3a42 27be
00000020: 88c9 91be d287 11be 67d1 a4be 8a5a a9bd
00000030: 34ad 7abe 0321 c1be cf05 9fbe f0f9 55be
00000040: 704b f1be bef4 86be aa45 88bd 08c5 d5be
00000050: 1222 7ebe 2a7a 44be 5ccc 16bf 8cae f63d
00000060: e02a 903e 6053 0cbf 339b 2bbe 654d afbe
00000070: cbb8 ddbd dc1e 01bf 0c1a 87be 1ebf dabe
00000080: b9ac 1cbf b9eb 5ebe 1b7c 02bf 5876 08be
00000090: 818f 83bc 6423 a2be 8d27 e3be 1120 63be
000000a0: 17f2 d0be 5be0 76be 62fd 62be 21b3 0ebe
000000b0: 3acf 0dbf ed22 e6bd 628e eabd a8be c6bd
000000c0: 1886 bdbd bd86 33bf c840 02bf 70e2 51be
000000d0: 66e5 34be c5bb edbe 4149 11bf 70ab 57be
000000e0: bd9d b9be 0345 a7be 390b 65be 087a 03bf
000000f0: 2bd8 00bf 59d5 8dbc 4eb2 72be c558 f0be
00000100: 7c3f 01bf c7b1 aabe 1d4e 01bf 9290 84be
00000110: 8832 fabe 732d dabe c0e3 aebe f6e8 e3be
00000120: 81f5 923e ecf9 cabe ac0c 91be e339 14bf
00000130: 0f6e 1dbe d83b 01bf 2ae1 8bbe 05bc 12bf
00000140: 1d01 30be d56f 39bf 86ab 58be d2b1 c5be
00000150: da05 61bf 62c0 edbe 772f c6be c924 c7be
00000160: fdcf ccbd cb03 15bf cec3 09bf 75b7 67be
00000170: 8d3a 50be 04b4 e8be 4f89 6bbe 1043 d0be
00000180: 5215 20bf 4030 cebe 9349 74be e84d e7bd
00000190: dff5 0bbe 73ab febd 62d2 0fbd 555e d13d
000001a0: 7f82 ed3c d44a ba3d 1997 f8bc e8f8 d5bd
000001b0: e7de 94bd 23a1 0bbd c172 03bc 8cec b43c
000001c0: c585 9c3d f9d0 163d c7e9 093e 3e98 853d
000001d0: 752d 1d3e d462 eebd a199 ef3c c7f5 233d
000001e0: 4bcb 79bd a400 ccbd 141a adbb e1fd 64bd
000001f0: f916 f83c 9a75 4a3d 0cf3 033d ff40 81bd
00000200: 6a58 6dbc a2dd 723e 9d74 e23d 36b7 c2be
00000210: e7e7 e7bc d138 fb3c 4f50 ac3e f2ef 92bc
00000220: c6c4 853d b73c 1abe fa01 96bd a7e4 c5bd
00000230: d82e 163c a855 7c3c 06f7 2cbd 2bce 32be
00000240: 5e60 763b 3118 413d 84df 8dba fe05 9bbc
00000250: 00cb ea3d 900a b83d 52d4 95bd cd7a 87be
00000260: ffef bfbe 7cd1 91be b62b 05be f8eb 703b
00000270: fe5a 16bf 91fb 00be 064b 87be a1a6 6dbd
00000280: e8d7 0fbf fd79 05be 410b 16be 61c4 98be
00000290: 948d 32be 4e92 80be 13d6 dcbe 8c35 32be
000002a0: d9a9 073d 1cb4 02bf b935 95be b4da 94be
000002b0: 38c0 b5be 81bd ce3d 1afd 593d 7a55 e7be
000002c0: 7ce8 e5bd 6457 a6be 8915 9bbe d183 92be
000002d0: b2b7 8cbe 64c6 93be 7131 b0be c6fb edbd
000002e0: d273 ebbe 7bc9 2ebe 9573 0ebe 3dd1 9ebe
000002f0: ee67 c7be 57d7 b5be a10c edbe ac25 babe
00000300: 0ae5 e6bd 0070 33be e1ef 8bbe a3c9 0bbe
00000310: 51dd debc 6099 4fbe a78f 99bd 85f6 eabe

lstm.weight_ih_l2 f4 [200, 50]
0.36235014 0.10526838 -0.23198251 -0.043575395 -0.2542624 -0.4609371 0.043859508 -0.014983337
0.20520371 0.15042406 0.1186699 0.40743178 0.07290619 -0.039610825 -0.19997507 0.020332348
-0.44959888 0.21770017 -0.32353762 -0.05807975 -0.38845125 0.33820358 0.1971052 0.41550073
-0.314732 -0.35035285 -0.089684166 -0.06970988 0.15856574 -0.21642236 0.035693083 0.39132836
-0.33756882 -0.47677144 -0.94335604 -0.37252954 -0.09030829 0.11395745 0.065545306 0.3475869
0.07356624 -0.13287021 -0.3806887 0.44837642 0.12193487 0.13944514 0.05145229 -0.29705817
-0.19958591 -0.29958633 -0.097329505 0.04337959 -0.37286106 -0.3006224 -0.49003997 -0.0066502094
0.10262014 0.31654257 -0.27467996 0.47084647 0.2075928 -0.13041906 0.043738052 -0.3831648
0.05553574 -0.08014535 -0.090718776 0.5165546 -0.55593103 -0.11096299 -0.4609392 0.22075114
-0.056488506 -0.22542024 -0.63117534 -0.08990401 0.020260146 0.35590297 -0.3094426 -0.48645023
-0.21053378 0.04549209 0.19794202 -0.30184597 -0.28313717 -0.15251818 -0.5402818 0.34033275
0.5263576 0.73758674 -0.34850293 0.25197193 -0.13156717 0.58594984 -0.85608816 0.5041603
0.485259 -1.0244114 -0.21411137 -0.34031385 0.100776896 0.0961651 -0.40936488 -0.1224689
0.25094432 0.2587893 0.3907398 0.13773395 0.36735392 0.05090708 0.46902463 -0.4882268
0.013460772 0.41582158 -0.16774322 -0.3066316 -0.041906927 -0.00995545 0.14932668 -0.48294428
-0.015551835 -0.3399648 0.07423561 -0.8077753 0.3129662 0.53105295 0.082018144 0.13418421
-0.5943605 0.14424758 -0.35101005 -0.2860412 0.22311373 0.375008 0.23882361 -0.013405036
-0.1359817 0.07611477 0.18474387 0.31296456 0.09248163 0.24203114 0.25812435 -0.0026745491
-0.20225617 -0.0032593077 0.18838297 -0.0665228 0.06419269 0.055402037 0.13436098 -0.06458911
-0.13349909 0.148208 -0.007956324 -0.48665377 0.08078947 -0.070846476 0.2375881 -0.09527918
0.06941792 -0.06891916 -0.024140762 0.07517081 0.5320074 -0.12677516 0.06903824 -0.052030656
0.29985815 0.17955092 0.028721703 -0.4796723 0.18176071 0.0036459093 0.8141013 0.29490247
0.13406503 -0.062734425 0.10631678 0.26318532 -0.042168085 -0.4294534 0.045550782 0.64952767
0.5185666 0.52368736 0.085206114 -0.04743696 0.32091296 -0.22132303 0.52879065 -0.039153107
0.5165977 -0.061357066 -0.11400903 -0.0151728075 -0.08644627 0.05110985 0.47907913 -0.050795425
0.16835159 -0.115890056 -0.089973606 0.06336233 -0.393039 -0.18387565 0.04607398 0.101102166
-0.062338967 -0.18401429 0.19561878 -0.15085228 0.21099469 -0.019550271 0.0018228465 0.030756842
-0.11785885 0.0927472 -0.10479768 0.036020722 -0.04241809 0.11149567 0.05982979 0.06775977
-0.3548095 -0.31896594 -0.0691903 -0.061267585 0.0030853346 -0.25632983 -0.03441896 -0.024476975
0.01041754 -0.007847659 -0.38909656 -0.09582503 0.2113482 -0.04144714 0.028392477 -0.116197675
0.19606386 0.09598493 -0.22594184 -0.020450361 0.004479424 0.121975824 -0.039965242 0.21967368
-0.2531354 0.08337709 0.27393746 0.15885065 0.09120426 0.04127565 0.28342095 -0.046472333
00000000: f585 b93e f396 d73d d38c 6dbe 1d7c 32bd
00000010: ae2e 82be f3ff ebbe 07a6 333d ac7c 75bc
00000020: ec20 523e c408 1a3e 3409 f33d e69a d03e
00000030: d74f 953d f63e 22bd 44c6 4cbe 0690 a63c
00000040: d331 e6be cbec 5e3e b9a6 a5be 08e5 6dbd
00000050: 15e3 c6be 0529 ad3e f2d5 493e 83bc d43e
00000060: 8d24 a1be 7361 b3be 55ac b7bd 0ec4 8ebd
00000070: 0f5f 223e d39d 5dbe e932 123d 315c c83e
00000080: d2d5 acbe 631b f4be c87f 71bf 31bc bebe
00000090: 8ef3 b8bd 8662 e93d 9e3c 863d e9f6 b13e
000000a0: e6a9 963d 210f 08be a1e9 c2be 9891 e53e
000000b0: fdb8 f93d b5ca 0e3e a3bf 523d 0218 98be
000000c0: 4060 4cbe 6163 99be b154 c7bd ccae 313d
000000d0: a5e7 bebe 2eeb 99be 85e6 fabe 00ea d9bb
000000e0: 822a d23d de11 a23e daa2 8cbe ca12 f13e
000000f0: 3593 543e 938c 05be ac26 333d 2d2e c4be
00000100: 7279 633d 3f23 a4bd c4ca b9bd ec3c 043f
00000110: 7f51 0ebf 9040 e3bd 3900 ecbe 960c 623e
00000120: 7e60 67bd 90d4 66be b594 21bf 981f b8bd
00000130: 9bf8 a53c ea38 b63e 436f 9ebe 0110 f9be
00000140: 2b96 57be ea55 3a3d 50b1 4a3e 8e8b 9abe
00000150: 5bf7 90be ba2d 1cbe e84f 0abf 1840 ae3e
00000160: 5fbf 063f 7cd2 3c3f fa6e b2be 7702 813e
00000170: 8bb9 06be cf00 163f 9828 5bbf a610 013f
00000180: de73 f83e ea1f 83bf 0340 5bbe 9e3d aebe
00000190: 1e64 ce3d 35f2 c43d 4698 d1be fad0 fabd
000001a0: c67b 803e 0880 843e 0c0f c83e 210a 0d3e
000001b0: d015 bc3e f183 503d ff23 f03e ddf8 f9be
000001c0: 928a 5c3c 91e6 d43e e1c4 2bbe d1fe 9cbe
000001d0: 99a6 2bbd 2f1c 23bc 18e9 183e 7944 f7be
000001e0: 20cd 7ebc de0f aebe d708 983d 5dca 4ebf
000001f0: 1b3d a03e 16f3 073f 21f9 a73d 9667 093e
00000200: 0228 18bf a3b5 133e 97b7 b3be fe73 92be
00000210: ed77 643e 0c01 c03e 2d8e 743e cca0 5bbc
00000220: c93e 0bbe 0fe2 9b3d 7f2d 3d3e e43c a03e
00000230: 0267 bd3d 03d7 773e e028 843e 7d47 2fbb
00000240: 3e1c 4fbe 1c9a 55bb 77e7 403e 1b3d 88bd
00000250: 7577 833d 3fed 623d ed95 093e 4c47 84bd
00000260: fcb3 08be d7c3 173e 3e5b 02bc af2a f9be
00000270: f374 a53d f517 91bd 4b4a 733e bb21 c3bd
00000280: fc2a 8e3d 7d25 8dbd d9c2 c5bc 27f3 993d
00000290: a331 083f 59d1 01be ec63 8d3d 191e 55bd
000002a0: 0287 993e 32dc 373e c749 eb3c 9c97 f5be
000002b0: 7b1f 3a3e 35f0 6e3b f168 503f 75fd 963e
000002c0: 5848 093e e87a 80bd 9dbc d93d 3ac0 863e
000002d0: 71b8 2cbd 51e1 dbbe 7593 3a3d 7247 263f
000002e0: c8c0 043f 6010 063f 8b80 ae3d 424d 42bd
000002f0: b44e a43e 81a2 62be d35e 073f 025f 20bd
00000300: bf3f 043f 8c51 7bbd 917d e9bd 5e97 78bc
00000310: be0a b1bd 9058 513d dc49 f53e dd0e 50bd
00000320: 5c64 2c3e c457 edbd 1544 b8bd 1cc4 813d
00000330: 683c c9be e649 3cbe 12b8 3c3d a70e cf3d
00000340: 2557 7fbd 3e6e 3cbe 4a50 483e 0579 1abe
00000350: fe0e 583e e427 a0bc 94ec ee3a c6f5 fb3c
00000360: fb5f f1bd 3ef2 bd3d 2ba0 d6bd 778a 133d
00000370: 97be 2dbd d857 e43d 1510 753d a2c5 8a3d
00000380: 97a9 b5be 814f a3be a5b3 8dbd b8f3 7abd
00000390: 5333 4a3b aa3d 83be e5fa 0cbd f083 c8bc
000003a0: 54ae 2a3c 7893 00bc aa37 c7be ea3f c4bd
000003b0: aa6b 583e 7ac4 29bd 5797 e83c 0cf9 edbd
000003c0: f7c4 483e bf93 c43d 4c5d 67be 8487 a7bc
000003d0: 22c8 923b 76ce f93d 98b2 23bd 23f2 603e
000003e0: f79a 81be 9cc1 aa3d 8841 8c3e bfa9 223e
000003f0: 4dc9 ba3d a810 293d 8d1c 913e c659 3ebd
