models/lstm/consumption/saved_model/consumption_lstm_house_4.pth (torch, 293334 bytes, 17 tensors)

lstm.weight_ih_l0 f4 [200, 1]
0	0xbe01e900	-0.12686539
1	0xbe5d7804	-0.21627814
2	0x3c75bc04	0.01499844
3	0xbfa24aaa	-1.2679036
4	0x3ea621b5	0.3244759
5	0xbfa7247d	-1.305801
6	0xbf14f8c4	-0.58192086
7	0xbec27156	-0.37977093
8	0xbeb451ae	-0.35218567
9	0x3ea48b40	0.3213749
10	0xbe3cec75	-0.18449576
11	0xbd658034	-0.056030467
12	0xbf1d700f	-0.6149911
13	0xbea19964	-0.3156234
14	0xbf027a3c	-0.50967765
15	0xbd022ee7	-0.03178301
16	0xbf66513a	-0.8996769
17	0xbe1df76f	-0.1542642
18	0xbe84cd83	-0.25938043
19	0x3ef82394	0.48464644
20	0xbe19f1ce	-0.15033647
21	0xbf7a49c6	-0.9776882
22	0xbeb1d9a8	-0.3473637
23	0x3e25e232	0.16199568
24	0xbe721df0	-0.23644233
25	0xbe6fbbd0	-0.23411489
26	0xbf7ba23a	-0.98294413
27	0x3ea1920d	0.3155674
28	0xbfb50ea8	-1.4145098
29	0x3f4b4f24	0.79417634
30	0xbe8db4df	-0.27677056
31	0xbec65372	-0.3873554
32	0x3f096d92	0.53682816
33	0xbf4a58bb	-0.7904164
34	0xbf5c170d	-0.8597267
35	0xbf15fd30	-0.5858946
36	0xbe9286d2	-0.28618485
37	0xbec720de	-0.38892263
38	0xbf1c9eb3	-0.61179656
39	0xbfa4dff1	-1.2880841
40	0xbe2ff851	-0.17184569
41	0xbf26c1bf	-0.65139383
42	0xbe86ca3b	-0.26326165
43	0xbf9e4692	-1.2365286
44	0x3e79789d	0.24362417
45	0xbf2cfe05	-0.67575103
46	0xbef00ffc	-0.46887195
47	0xbedbef36	-0.4295594
48	0xbf283178	-0.65700483
49	0xbe3b4faf	-0.18292116
50	0x3e638264	0.22217709
51	0x3daef1c4	0.08542207
52	0xbe519c8e	-0.20469877
53	0xbf30c9fd	-0.6905821
54	0x3ef77e09	0.48338345
55	0xbf6ec9ef	-0.93276876
56	0xbf346312	-0.7046367
57	0xbe5511d4	-0.20807582
58	0xbdfd7a93	-0.12376895
59	0x3efb6275	0.49098554
60	0x3ded0b75	0.11574451
61	0x3e7095e8	0.23494685
62	0xbf013903	-0.5047762
63	0x3dee651b	0.11640378
64	0xbeac9180	-0.33704758
65	0xbeea1450	-0.45718622
66	0xbf526cdc	-0.82197356
67	0x3e791847	0.24325667
68	0xbda36a47	-0.07979255
69	0x3f1da54f	0.61580366
70	0x3eb0a638	0.34501815
71	0xbf109610	-0.5647898
72	0xbd8af339	-0.06784672
73	0x3e6042f6	0.21900544
74	0xbe349e13	-0.17638426
75	0xbe9981ad	-0.29981747
76	0xbf0bf4b6	-0.54670274
77	0x3f08f1f3	0.53494185
78	0xbf611a46	-0.87930715
79	0x3f277fc0	0.65429306
80	0x3eb2ba19	0.34907606
81	0xbe8515e1	-0.25993255
82	0x3eb63a25	0.35591236
83	0x3d9980d3	0.074952744
84	0xbee84171	-0.45362428
85	0xbe8aa58c	-0.27079427
86	0xbea19284	-0.31557095
87	0x3e1a25e9	0.15053524
88	0xbee62845	-0.44952598
89	0xbf1e5e5a	-0.6186272
90	0x3d4c5b68	0.04989186
91	0xbf000f68	-0.5002351
92	0xbe8a2f04	-0.26988995
93	0xbf5e6c1e	-0.86883724
94	0x3e1674c0	0.14692974
95	0xbf837126	-1.0268905
96	0xbf0c117b	-0.54714173
97	0xbc30aa0f	-0.010782733
98	0x3e0bb964	0.1364494
99	0xbdd0bf0e	-0.10192691
100	0x3fa4af89	1.2866069
101	0xbfe20467	-1.7657593
102	0x3fb9216e	1.4463327
103	0x3fdd7b26	1.7303207
104	0x3fa62ccb	1.298242
105	0xc00b452c	-2.176097
106	0xbf815e36	-1.0106876
107	0x3fa0b8a1	1.2556344
108	0x3f36920c	0.713166
109	0xbf856df1	-1.0424176
110	0x3f9f0bea	1.2425511
111	0x3f89f0a6	1.0776565
112	0xbec7519c	-0.3892945
113	0x3fa10edc	1.258266
114	0xbf71c458	-0.9444022
115	0x3ecfa521	0.4055567
116	0x3d5d4856	0.054024063
117	0xbfb519a5	-1.4148451
118	0xbfb2d4bc	-1.3971171
119	0x3f82dd8a	1.0223858
120	0xbf423986	-0.75869024
121	0xbedbfb2e	-0.42965072
122	0xbf4e6930	-0.80629253
123	0x3fa47a9a	1.2849915
124	0xbf54676f	-0.8297033
125	0xbf6c9cbe	-0.9242667
126	0xbea32bc0	-0.31869316
127	0xbf32638b	-0.6968314
128	0xbf8c6b75	-1.0970293
129	0x3fa62f4a	1.2983181
130	0x3fea2009	1.8291026
131	0xbf974247	-1.1817101
132	0xbf77782c	-0.9666774
133	0xbfb802cb	-1.4375852
134	0xbe96fba7	-0.2948887
135	0x3f09ebf1	0.53875643
136	0x3f9581fd	1.1680294
137	0xbfd74dbb	-1.6820596
138	0xbf9c2b32	-1.2200682
139	0xbf84de95	-1.0380427
140	0xbef904c6	-0.48636454
141	0x3ebf2953	0.37336215
142	0xbfd78686	-1.6837928
143	0x3f222af8	0.63346815
144	0x3f58533d	0.8450201
145	0x3fc2b2c7	1.5210809
146	0x3f1287db	0.5723855
147	0xbfb751c2	-1.4321826
148	0xbf740409	-0.9531866
149	0x3ecb1718	0.39666057
150	0x3e2449c6	0.16043767
151	0xbd9a6d2d	-0.07540355
152	0x3e2819d9	0.1641611
153	0xbf8faf04	-1.1225286
154	0x3ed43b64	0.4145156
155	0xbf8de500	-1.108551
156	0xbf6a802e	-0.91601837
157	0xbe98bb5d	-0.29830447
158	0xbd85d59d	-0.06534884
159	0x3f1ba433	0.60797423
160	0xbd634c55	-0.055492718
161	0xbd43b209	-0.04777721
162	0xbf2c5a77	-0.6732554
163	0xbe0f6bee	-0.14006016
164	0xbec4c222	-0.38429362
165	0xbe1657df	-0.14681958
166	0xbf40f9af	-0.75380987
167	0x3e82420f	0.25441024
168	0xbdc86d3e	-0.09786461
169	0x3f08559f	0.5325565
170	0x3ddafb8a	0.106925085
171	0xbf7a73c9	-0.97832924
172	0xbe996153	-0.29957065
173	0x3ea65269	0.3248475
174	0xbd2f7235	-0.042833526
175	0xbe29d105	-0.16583641
176	0xbf59af21	-0.8503285
177	0x3e79a903	0.24380879
178	0xbfa61d8f	-1.297777
179	0x3f81b18e	1.013231
180	0xbd4b5396	-0.04964026
181	0xbe974ab8	-0.29549193
182	0x3f1a9012	0.60376084
183	0xbef09f4a	-0.46996528
184	0xbf5ded8b	-0.86690587
185	0xbf8aa5e2	-1.0831873
186	0xbe2d48c5	-0.1692229
187	0xbdfaaa84	-0.122395545
188	0xbee5229f	-0.44752976
189	0xbfb5525f	-1.4165763
190	0xbe6053ff	-0.21907042
191	0xbf4018df	-0.7503795
192	0xbe0ac0b4	-0.13550073
193	0xbfb3b110	-1.403841
194	0x3d150f16	0.03639134
195	0xbf36f915	-0.7147382
196	0xbf1b0261	-0.60550505
197	0xbe65b43c	-0.22432035
198	0xbe814fb3	-0.25256118
199	0xbea0709e	-0.3133592

lstm.weight_hh_l0 f4 [200, 50]
0	0xbe3ab2f2	-0.18232325
1	0x3d8f5101	0.06997872
2	0xbd86409c	-0.06555292
3	0xbf12b569	-0.5730806
4	0x3e044e2e	0.12920448
5	0x3f15f844	0.5858195
6	0x3ea2505c	0.31701934
7	0xbe4fbe1d	-0.20287366
8	0x3e02f7c1	0.12789823
9	0xbe591d64	-0.21202618
10	0xbe2a23a1	-0.16615154
11	0x3d94d2b3	0.0726675
12	0x3e1089af	0.14115022
13	0x3e804aae	0.25056976
14	0xbe5dbc72	-0.21653917
15	0xbe51d9db	-0.20493262
16	0xbda68b45	-0.08132032
17	0x3eadce7a	0.33946592
18	0x3dcde83e	0.10054062
19	0x3ed3cb6c	0.41366136
20	0xbee0a0e6	-0.43872756
21	0x3dd07ea7	0.10180407
22	0xbc59ebe3	-0.013300869
23	0xbe0cf76f	-0.13766263
24	0xbe8fbeae	-0.28075165
25	0x3d35bba2	0.044368394
26	0x3e000b69	0.12504353
27	0xbdfb7409	-0.12277991
28	0x3e8cca54	0.27498114
29	0x3d2e07a8	0.04248777
30	0xbce930a1	-0.02846557
31	0x3d6e9cb7	0.058254924
32	0x3dc5024a	0.09619577
33	0xbd41d522	-0.0473224
34	0xbd9764b3	-0.07392254
35	0xbe8a58a2	-0.27020746
36	0xbe8e4aaf	-0.27791354
37	0x3e93baae	0.28853363
38	0x3ccb1c2c	0.024793707
39	0xb9f3000c	-0.00046348607
40	0x3e0739c6	0.13205633
41	0xbe780f62	-0.24224618
42	0xbe0270da	-0.12738362
43	0xbe913df9	-0.28367594
44	0xbe101da5	-0.14073808
45	0xbe9dcaea	-0.30818874
46	0xbda039cb	-0.07823523
47	0x3ec49505	0.38394943
48	0xbecfb1ea	-0.40565425
49	0xbdde54a1	-0.108559854
50	0x3e5d43f4	0.21607953
51	0xbd9f952d	-0.07792125
52	0x3e22c4c4	0.15895373
53	0xbef8de37	-0.48607036
54	0x3e4f0427	0.20216428
55	0x3e894657	0.26811478
56	0xbe4dd216	-0.20099673
57	0x3ddcbbe2	0.10778023
58	0x3c5b841c	0.013398197
59	0xbe3296d0	-0.17440343
60	0x3eb0dd76	0.3454396
61	0x3da9f070	0.08297813
62	0x3e60e747	0.21963225
63	0x3f2f973d	0.68590146
64	0xbe6a2909	-0.22867216
65	0xbd109d66	-0.035306357
66	0xbec145e4	-0.37748635
67	0xbe26c623	-0.1628652
68	0xbe3b15be	-0.18270013
69	0x3e9aa607	0.30204794
70	0xbd6b0cb1	-0.05738515
71	0x3e19d00c	0.1502077
72	0x3e5f4fd3	0.21807794
73	0x3e90f62f	0.28312823
74	0xbe86025a	-0.2617367
75	0x3b6787f2	0.0035328832
76	0xbd68bad6	-0.056818806
77	0x3dd60e3a	0.10451932
78	0x3e8174c2	0.25284392
79	0x3e74bba1	0.238997
80	0x3eb63f6e	0.35595268
81	0xbea7750f	-0.32706496
82	0xbd3b4c06	-0.0457268
83	0xbdf401cb	-0.119144045
84	0xbca447c9	-0.020053761
85	0xbebf7982	-0.3739739
86	0xbe0c93ed	-0.13728304
87	0xbea2b123	-0.3177577
88	0x3d9f94c1	0.077920444
89	0x3e061a6d	0.13096018
90	0xbe3e732f	-0.18598627
91	0xbddb9425	-0.10721616
92	0xbf1518fc	-0.5824125
93	0xbe40ea7f	-0.18839453
94	0xbd608a0e	-0.05481916
95	0xbdeeb296	-0.11655156
96	0x3e345728	0.17611372
97	0x3df80329	0.12109978
98	0xbecc66b3	-0.39922103
99	0x3e962d60	0.29331493
100	0xbd46d91f	-0.048546907
101	0xbd23475f	-0.039862987
102	0x3d7c5384	0.061603084
103	0xbf2f270c	-0.68418956
104	0x3e719c5f	0.23594807
105	0x3f57165c	0.8401849
106	0x3e21f7f7	0.15817247
107	0x3e5d5c71	0.21617295
108	0xbd684020	-0.05670178
109	0xbe143a0d	-0.1447527
110	0x3c5c970b	0.013463746
111	0x3adf6006	0.0017042167
112	0x3e3439e3	0.17600207
113	0x3f382e46	0.7194561
114	0x3cc8fed3	0.024535572
115	0xbdf8c3ff	-0.12146758
116	0xbe5b89b6	-0.21439251
117	0xbe5f54d5	-0.21809705
118	0xbe6215fd	-0.220787
119	0x3e971be4	0.29513466
120	0xbe69a219	-0.22815742
121	0x3e8c347c	0.27383792
122	0x3d711fa2	0.058868058
123	0x3e5a943e	0.21345612
124	0xbf126dc6	-0.5719875
125	0xbd57cb38	-0.05268404
126	0x3e504887	0.20340167
127	0xbe0e0439	-0.13868798
128	0x3ece5255	0.4029719
129	0x3e53b692	0.20675114
130	0x3f13a642	0.57675564
131	0xbe38839d	-0.18018956
132	0xbc79915f	-0.015232413
133	0x3e071a7b	0.13193695
134	0x3b580167	0.003295982
135	0xbeec3fbc	-0.46142375
136	0xbe04f743	-0.12984948
137	0xbde07f0d	-0.10961733
138	0xbe6e87cf	-0.23293994
139	0x3e977858	0.29584002
140	0x3de68000	0.11254883
141	0xbe202e5e	-0.15642688
142	0xbf1fdae1	-0.6244336
143	0xbebd01e6	-0.3691551
144	0xbc9f6b33	-0.019460296
145	0xbe255db6	-0.16149029
146	0xbdd155c2	-0.10221435
147	0xbd9c4338	-0.076300085
148	0xbe9bbda7	-0.3041813
149	0xbd8b828c	-0.06812009
150	0xbf1c2492	-0.609933
151	0x3f3b9c20	0.732851
152	0xbe9de6b0	-0.30840063
153	0xbe85bc5e	-0.26120275
154	0xbd900608	-0.070324
155	0x3f2a239a	0.66460574
156	0xbe1ae6ed	-0.15127154
157	0x3d9da477	0.07697385
158	0xbe2bbb05	-0.16770561
159	0x3f4e0e55	0.8049062
160	0xbedd448a	-0.43216354
161	0xbee43bba	-0.44576818
162	0x3f02fe3b	0.51169175
163	0xbf89dc72	-1.07704
164	0x3e7bd93b	0.24594586
165	0x3e7a7e81	0.2446232
166	0xbf200e30	-0.6252165
167	0x3f09f40e	0.5388802
168	0x3e87e468	0.26541448
169	0xbf485db1	-0.7826796
170	0x3f3bb538	0.7332339
171	0x3ef572ab	0.47939047
172	0x3ddff810	0.10935986
173	0xbd54ef42	-0.051985987
174	0x3f11957a	0.5686871
175	0x3f2c16ae	0.67222106
176	0xbac2641e	-0.0014830863
177	0x3f66579b	0.89977425
178	0x3f269a1a	0.6507889
179	0xbe830297	-0.25587913
180	0xbf555b83	-0.8334276
181	0x3f5409ac	0.8282726
182	0x3ec22cc7	0.37924787
183	0x3f2f63cb	0.68511647
184	0x3c698333	0.014252472
185	0xbf2837e5	-0.6571029
186	0xbf2f2d30	-0.68428326
187	0x3d8ef611	0.06980527
188	0x3f2ca715	0.67442447
189	0x3e87be9e	0.26512617
190	0xbdb144c0	-0.08655691
191	0xbe852e76	-0.2601201
192	0x3ec1376d	0.377376
193	0xbf1bd8e1	-0.60877806
194	0xbe42feca	-0.19042507
195	0xbf65bcfc	-0.8974149
196	0x3e7bcb6a	0.24589315
197	0x3f1c6a67	0.6109986
198	0x3ebaf8f8	0.36518073
199	0xbda6e92a	-0.08149941
200	0x3e86f9a3	0.26362333
201	0xbeda4fbb	-0.42638955
202	0x3e70f441	0.23530675
203	0xbed7fdc2	-0.4218579
204	0x3e6fc746	0.2341586
205	0x3ef1de41	0.4723988
206	0x3f096db4	0.5368302
207	0x3e11e877	0.14248835
208	0x3deed0fb	0.116609536
209	0xbe97429d	-0.2954301
210	0x3e284117	0.1643108
211	0x3e4fc38c	0.20289439
212	0xbd08622d	-0.033296753
213	0x3f46dd40	0.7768135
214	0xbe037652	-0.12838104
215	0xbeb2f2e4	-0.34950936
216	0xbcdb89ef	-0.02679917
217	0x3e1c577c	0.15267748
218	0xbe870089	-0.26367596
219	0x3f1299e9	0.572661
220	0xbeb1ecb7	-0.34750912
221	0x3e089e6c	0.13341683
222	0x3dc9cec5	0.09853891
223	0x3ebd3193	0.36951885
224	0xbf0a807f	-0.5410232
225	0xbe731815	-0.23739655
226	0x3e26bf7e	0.16283986
227	0xbe88acf6	-0.2669446
228	0x3e512646	0.20424756
229	0x3eb217e6	0.34783858
230	0x3f0512ce	0.5198182
231	0xbe53a9c8	-0.20670235
232	0xbe8001be	-0.2500133
233	0xbe0b0fbe	-0.13580224
234	0x3d313bf5	0.04327007
235	0xbe29cc7b	-0.1658191
236	0x3e3673c9	0.17817606
237	0x3cc1f86d	0.023678029
238	0xbe465010	-0.19366479
239	0x3e9fc548	0.312052
240	0x3e6f8ec3	0.23394303
241	0x3df8c29b	0.12146493
242	0xbdf1b86b	-0.11802753
243	0x3d2856b6	0.04109832
244	0x3e566644	0.20937449
245	0x3e7789e8	0.24173701
246	0x3d6fc4cd	0.058537293
247	0xbd403db4	-0.046933845
248	0xbeeec740	-0.4663639
249	0xbc777171	-0.01510273
250	0xbf14bd97	-0.5810179
251	0x3f27d54f	0.6555986
252	0xbeb61949	-0.35566166
253	0xbd8bfeb2	-0.06835689
254	0x3ca0fb65	0.019651124
255	0x3eafe511	0.3435445

lstm.bias_ih_l0 f4 [200]
0	0xbda3c904	-0.07997325
1	0xbd03bdc4	-0.032163396
2	0xbbd6e874	-0.0065584723
3	0xbeb86d8d	-0.3602108
4	0xbd809023	-0.06277492
5	0x3e9c84a4	0.30569947
6	0xbe63fc4d	-0.22264214
7	0x3cae1335	0.021249393
8	0xbf41af71	-0.7565833
9	0xbdc68c4a	-0.09694727
10	0x3dfd6d81	0.12374402
11	0xbee5cabd	-0.4488124
12	0xbf25466e	-0.6456059
13	0xbd9e1d02	-0.077203766
14	0xbee15122	-0.44007212
15	0xbf11bd6b	-0.56929654
16	0xbf12d126	-0.57350385
17	0x3c0a6b63	0.008448455
18	0xbe1bdf54	-0.15221912
19	0xbe561023	-0.20904593
20	0xbf2eb8f6	-0.6825098
21	0xbf040bf7	-0.51580757
22	0xbef9bbe9	-0.48776177
23	0x3e00c40f	0.1257479
24	0xbf184ac8	-0.5948911
25	0xbeae6e59	-0.34068564
26	0xbf12c49a	-0.5733124
27	0xbdc1d5df	-0.09464621
28	0xbf13252c	-0.57478595
29	0x3e024a82	0.12723735
30	0x3cd1ed23	0.02562577
31	0xbda8503a	-0.08218427
32	0xbc185280	-0.009297013
33	0xbe6548b4	-0.22391015
34	0xbf380941	-0.7188912
35	0xbf0a940e	-0.54132164
36	0xbd60cdff	-0.054883953
37	0x3e133083	0.14373975
38	0xbec20772	-0.37896305
39	0xbef07035	-0.46960607
40	0xbee20cc7	-0.44150373
41	0xbf1979fe	-0.5995177
42	0xbe497404	-0.19673163
43	0xbf0c7382	-0.5486375
44	0xbe021e4e	-0.12706873
45	0xbdec5c41	-0.115410335
46	0xbef66b53	-0.48128757
47	0xbea69cb2	-0.32541424
48	0xbf2db22d	-0.6785
49	0xbf0a1c7e	-0.53949726
50	0xbefaa80b	-0.48956332
51	0xbf3fe88e	-0.74964225
52	0xbf32cda6	-0.69845045
53	0xbf77d2b3	-0.96805876
54	0xbf1b569d	-0.60679036
55	0xbf67e142	-0.9057809
56	0xbf28b916	-0.6590742
57	0xbeaae841	-0.3338032
58	0xbf1a5389	-0.60283715
59	0xbeb86c42	-0.36020094
60	0xbed61a34	-0.41816866
61	0xbf24fd5e	-0.6444911
62	0xbf0f5d40	-0.56001663
63	0xbf6f9508	-0.9358678
64	0xbed0d463	-0.40787038
65	0xbf02776f	-0.5096349
66	0xbee8d48a	-0.45474654
67	0xbf6c6c23	-0.92352504
68	0xbf3e12b6	-0.742473
69	0xbf07f32d	-0.5310543
70	0xbf1fc122	-0.6240407
71	0xbe8013b7	-0.2501504
72	0xbe7e86ed	-0.24856158
73	0xbe95982e	-0.29217666
74	0xbf834363	-1.025494
75	0xbf07649e	-0.52887905
76	0xbe6cb58f	-0.23116134
77	0xbcc767a0	-0.024341404
78	0xbf05517b	-0.52077454
79	0xbea4fbde	-0.3222341
80	0xbf851f08	-1.0400095
81	0xbf330ce9	-0.69941574
82	0xbed496f5	-0.4152142
83	0xbf0504fb	-0.51960725
84	0xbe933bfe	-0.28756708
85	0x3cc3d7ea	0.023906667
86	0xbf26a3e7	-0.65093845
87	0xbf28d5c9	-0.6595121
88	0xbf746216	-0.9546217
89	0xbf325c29	-0.69671875
90	0xbdd9860b	-0.1062127
91	0xbeb2e524	-0.34940445
92	0xbf939833	-1.1530823
93	0xbf2342cf	-0.63773817
94	0xbc00586c	-0.007833581
95	0xbf45d606	-0.772797
96	0xbf0ed60c	-0.5579536
97	0xbf7e8470	-0.99420834
98	0xbf3326cd	-0.6998108
99	0xbe8c10b7	-0.27356502
100	0xbd830e6f	-0.06399237
101	0x3e033e50	0.12816739
102	0xbd901b12	-0.07036413
103	0xbd9a51da	-0.07535143
104	0x3c991e4f	0.01869121
105	0x3d9fff9e	0.07812427
106	0xbcf4125a	-0.029793907
107	0xbdbcf057	-0.09225529
108	0xbe134f85	-0.14385803
109	0x3dd144d1	0.10218204
110	0xbda1cdd6	-0.07900588
111	0xbdcc256d	-0.09968076
112	0x3dde3ae0	0.10851073
113	0xbdbf1cea	-0.09331687
114	0x3dc4116e	0.09573637
115	0xbdb00ff2	-0.08596791
116	0xbdb951cc	-0.09048805
117	0x3e03c1c0	0.12866879
118	0x3d8a16a9	0.06742603
119	0xbc2ac1d4	-0.010422189
120	0x3e0e04c8	0.13869011
121	0xbd3c73a3	-0.046008717
122	0x3d199982	0.037499912
123	0xbd0af9da	-0.033929683
124	0x3e286095	0.16443093
125	0x3d130777	0.03589579
126	0xbbf3816a	-0.007431199
127	0x3a8fa59d	0.0010959391
128	0x3daa04f4	0.08301726
129	0xbd348957	-0.04407629
130	0xbdf4c3df	-0.11951422
131	0x3c9256a0	0.017863572
132	0x3d83699b	0.06416627
133	0x3df3188c	0.11869916
134	0x3d5d9767	0.054099467
135	0x3d55e5a0	0.05222094
136	0xbdb2d9ed	-0.08732972
137	0x3dbafb4e	0.09129964
138	0x3e24f509	0.16109098
139	0xbb3b98e6	-0.002862507
140	0xbd04b542	-0.032399423
141	0xbdd73d51	-0.10509742
142	0x3e21b30c	0.15790957
143	0xbdf885e5	-0.12134913
144	0xbe1288aa	-0.14309946
145	0xbde5bb1e	-0.112173304
146	0xbe24029e	-0.16016623
147	0x3d8d96a9	0.06913502
148	0x3e3b2d49	0.18278994
149	0x3cf90104	0.030395992
150	0x3e06ea38	0.13175285
151	0xbd1b06ba	-0.03784821
152	0xbe46f6ee	-0.19430134
153	0xbe89096b	-0.26764998
154	0xbd859ae7	-0.06523686
155	0x3e026e33	0.1273735
156	0xbeb36566	-0.35038298
157	0xbe36e61b	-0.17861216
158	0xbf2c14cc	-0.67219234
159	0xbe68e4a0	-0.22743464
160	0xbdfeb991	-0.12437738
161	0xbee7de79	-0.4528692
162	0xbf509853	-0.8148243
163	0xbea783eb	-0.32717833
164	0xbef59e27	-0.47972223
165	0xbefac946	-0.48981684
166	0xbf4b2c9c	-0.79364944
167	0xbddf5770	-0.10905349
168	0xbea7ad3b	-0.32749352
169	0xbe84ee03	-0.2596284
170	0xbf368324	-0.71293855
171	0xbf137d2b	-0.57612866
172	0xbf07f3f4	-0.5310662
173	0x3de3d6e3	0.11124971
174	0xbf39c5a0	-0.72567177
175	0xbef378ce	-0.47553104
176	0xbf0d2a32	-0.5514251
177	0xbe7d62ff	-0.24744795
178	0xbedbc459	-0.4292324
179	0x3db99bd8	0.09062928
180	0xbd021145	-0.03175475
181	0xbe42a71d	-0.19009061
182	0xbd40c2fb	-0.047060948
183	0xbd411b5d	-0.047145236
184	0xbf4b37a4	-0.79381776
185	0xbeede1f6	-0.46461457
186	0xbeb21bd7	-0.34786865
187	0x3ebe7687	0.37199804
188	0xbe983f82	-0.29735953
189	0xbefcb54a	-0.49357063
190	0xbecb4ca4	-0.3970691
191	0xbf0e5095	-0.5559171
192	0xbc153222	-0.009106191
193	0xbf3b1806	-0.7308353
194	0xbccde28d	-0.025132442
195	0xbd39601a	-0.045257665
196	0xbf225bda	-0.63421404
197	0xbec2d9f1	-0.380569
198	0xbf1e9c88	-0.619576
199	0xbece585d	-0.4030179

lstm.bias_hh_l0 f4 [200]
0	0xbda25cc0	-0.07927847
1	0xba3e4e5e	-0.00072596024
2	0x3b606864	0.003424191
3	0xbe5dfa05	-0.21677406
4	0x3db4c67a	0.08826919
5	0x3e8edb58	0.2790172
6	0xbec18894	-0.37799513
7	0xbddf7458	-0.10910863
8	0xbf32475e	-0.6964015
9	0x3ab329da	0.0013669089
10	0xbdc2df92	-0.09515299
11	0xbe3ff761	-0.18746711
12	0xbf554bce	-0.83318794
13	0xbd6dcebe	-0.058058493
14	0xbf065838	-0.5247836
15	0xbf0b8ab3	-0.54508513
16	0xbf1f141f	-0.6214008
17	0xbe309457	-0.17244087
18	0xbddc0a1e	-0.10744117
19	0xbe89c601	-0.26908877
20	0xbf1cfcac	-0.61323047
21	0xbf0c3421	-0.5476704
22	0xbf17b3c3	-0.5925867
23	0xbc3472c8	-0.011013694
24	0xbf53e724	-0.8277457
25	0xbebe8178	-0.37208152
26	0xbeb998f4	-0.36249506
27	0xbd99f104	-0.07516673
28	0xbebb0c93	-0.3653303
29	0x3e3e3c43	0.18577676
30	0x3d371541	0.044698004
31	0xbddbebe3	-0.10738351
32	0x3d94d85d	0.072678305
33	0xbdf3a9be	-0.1189761
34	0xbf09e449	-0.5386396
35	0xbf07a292	-0.5298244
36	0xbde38774	-0.1110982
37	0x3e6ac9f2	0.22928599
38	0xbef9b887	-0.48773596
39	0xbeafd142	-0.3433934
40	0xbef6e1c4	-0.4821912
41	0xbf2dae17	-0.67843765
42	0xbe9b1b74	-0.30294383
43	0xbf2b24aa	-0.6685282
44	0x3d902b65	0.07039527
45	0xbe171a22	-0.14756063
46	0xbf180ed2	-0.59397614
47	0xbe40c9a8	-0.18826926
48	0xbf22ac44	-0.63544106
49	0xbefcba03	-0.49360666
50	0xbeccc4e8	-0.39993978
51	0xbf3981f3	-0.7246391
52	0xbf2b2773	-0.6685707
53	0xbf48b049	-0.7839399
54	0xbf27792d	-0.65419275
55	0xbf5718a7	-0.8402199
56	0xbf37feea	-0.71873343
57	0xbf0d70c6	-0.55250204
58	0xbf056c67	-0.52118534
59	0xbec81f73	-0.39086494
60	0xbeb795ef	-0.35856578
61	0xbf04e3f7	-0.51910347
62	0xbf206a13	-0.62661856
63	0xbf381a24	-0.7191489
64	0xbed3b5cc	-0.41349638
65	0xbf06d08c	-0.5266197
66	0xbed1d693	-0.4098402
67	0xbf6e84f4	-0.9317162
68	0xbf3f411d	-0.7470873
69	0xbefc08a8	-0.49225354
70	0xbf1c521c	-0.6106279
71	0xbea3891f	-0.31940553
72	0xbebf00b1	-0.37305215
73	0xbf0baf6a	-0.54564536
74	0xbf782f7d	-0.9694746
75	0xbf15ffdc	-0.58593535
76	0xbe416b63	-0.18888621
77	0xbe65967f	-0.22420691
78	0xbf19dfee	-0.60107315
79	0xbe8c2297	-0.2737014
80	0xbf8c70c8	-1.0971918
81	0xbf1e9198	-0.6194091
82	0xbeb75145	-0.3580419
83	0xbefc3922	-0.4926234
84	0xbecaaa4a	-0.39583045
85	0xbdbb777b	-0.091536485
86	0xbf4c288d	-0.79749376
87	0xbf2d8393	-0.6777889
88	0xbf615367	-0.88017887
89	0xbf26985c	-0.6507623
90	0xbe122d68	-0.14275134
91	0xbe83d777	-0.25750324
92	0xbfa99f05	-1.3251654
93	0xbf0dd474	-0.554023
94	0xbdde07ab	-0.10841306
95	0xbf3945af	-0.72371954
96	0xbf03e5ce	-0.5152253
97	0xbf699052	-0.9123584
98	0xbf7875cc	-0.97054744
99	0xbe9151e7	-0.283828
100	0xbde31d3e	-0.11089562
101	0x3c5c563e	0.013448296
102	0xbd91af0f	-0.07113468
103	0xbe104593	-0.1408904
104	0xbe40c474	-0.18824941
105	0x3df95723	0.12174823
106	0x3e26d982	0.1629391
107	0xbd32307d	-0.043503273
108	0xbe01a520	-0.12660646
109	0x3d1c0d2e	0.038098507
110	0xbde73b13	-0.112905644
111	0xbe1fadb0	-0.155936
112	0x3af4c253	0.0018673636
113	0xbdc7f375	-0.097632326
114	0x3db92e69	0.09042055
115	0x3c8c4200	0.017121315
116	0x3dd42f2e	0.10360561
117	0x3d593a6c	0.05303423
118	0x3d863dfd	0.06554792
119	0xbdd182cd	-0.102300264
120	0x3db12757	0.086500816
121	0x3e124ea5	0.14287813
122	0x3d2ba37b	0.041903954
123	0xbe02b847	-0.12765609
124	0x3e73206d	0.23742838
125	0x3d63fee9	0.055663023
126	0x3d254bb8	0.040355414
127	0x3d665cf0	0.056240976
128	0xbda65881	-0.081223495
129	0xbe11f7d4	-0.14254695
130	0xbda03582	-0.07822706
131	0x3ddb10f8	0.10696596
132	0x3d3ece81	0.046583656
133	0xbcda9a02	-0.026684765
134	0xbd398489	-0.04529241
135	0xbe1552c9	-0.14582361
136	0xbb233668	-0.0024904255
137	0x3e130ae8	0.14359629
138	0x3dec53eb	0.115394436
139	0x3e031849	0.12802233
140	0x3da1e7b4	0.07905522
141	0xbcb49f6a	-0.02204867
142	0x3d10d68b	0.035360854
143	0x3d6a7dd3	0.0572489
144	0xbbcef88b	-0.0063162497
145	0xbdd46c23	-0.10372188
146	0xbd4b6c87	-0.049664047
147	0x3e16baae	0.1471965
148	0x3e4779a5	0.19479997
149	0xbdecc2d7	-0.115606
150	0x3da923b0	0.0825876
151	0xbca4dea2	-0.02012569
152	0xbdd07075	-0.101776995
153	0xbdc280e8	-0.09497243
154	0xbd41a944	-0.047280565
155	0x3e422867	0.18960725
156	0xbedf4cc2	-0.4361325
157	0xbdcb88fd	-0.09938238
158	0xbf3be873	-0.73401564
159	0xbd4844c2	-0.048893698
160	0x3de53353	0.1119143
161	0xbe5bde58	-0.21471536
162	0xbf3bfa98	-0.7342925
163	0xbe67a19f	-0.22620247
164	0xbee51edd	-0.4475011
165	0xbf045284	-0.5168841
166	0xbf0a10f6	-0.5393213
167	0x3d7b12cb	0.06129722
168	0xbeab4f10	-0.33458757
169	0xbe7fa32f	-0.24964593
170	0xbf024ad8	-0.5089545
171	0xbefb1829	-0.4904187
172	0xbef0d0a1	-0.4703417
173	0x3d555a88	0.05208829
174	0xbf4da500	-0.80329895
175	0xbeea9c8e	-0.45822567
176	0xbf079daf	-0.5297498
177	0xbe4a575d	-0.19759889
178	0xbf1932ae	-0.59842956
179	0x3ccfca7c	0.025365107
180	0x3e1ca8ca	0.15298763
181	0xbd405274	-0.046953633
182	0xbbb4ea28	-0.0055210777
183	0xbe1403c1	-0.14454557
184	0xbf361160	-0.7112026
185	0xbf06f0a8	-0.5271096
186	0xbec08136	-0.3759858
187	0x3e9d23da	0.30691415
188	0xbea7a390	-0.32741976
189	0xbed814a7	-0.42203256
190	0xbea507c6	-0.32232493
191	0xbf1ee24c	-0.6206405
192	0xbdc17f05	-0.09448055
193	0xbf1dddb5	-0.61666423
194	0xbe2999bb	-0.1656255
195	0xbc838787	-0.016055835
196	0xbefa8093	-0.4892622
197	0xbe4dc0bd	-0.20093055
198	0xbf44a74c	-0.76817775
199	0xbef444c0	-0.47708702

lstm.weight_ih_l1 f4 [200, 50]
0	0xbda53080	-0.08065891
1	0x3ca98b26	0.020696234
2	0xbc1b7748	-0.009488888
3	0xbe85ed5b	-0.2615765
4	0xbe08b7d0	-0.13351369
5	0x3e1644a4	0.14674622
6	0x3d0f1bc8	0.034938604
7	0xbdf145b6	-0.117808744
8	0xbe5e8c59	-0.21733226
9	0x3e7e3b36	0.24827275
10	0xbe99a54f	-0.30008933
11	0xbcb1d0f2	-0.021706078
12	0x3e06d20d	0.13166066
13	0xbf29d007	-0.6633305
14	0xbb28d4d9	-0.0025761633
15	0xbe511aba	-0.20420352
16	0xbe4f2db5	-0.2023228
17	0x3f02cb00	0.51091003
18	0x3e25fa8a	0.16208854
19	0xbe9084c8	-0.28226304
20	0xbe83492c	-0.25641763
21	0x3de1c00c	0.11022958
22	0x3e9ef3f7	0.31045505
23	0xbe5ac273	-0.21363239
24	0x3e8790e4	0.2647773
25	0xbde068f6	-0.1095752
26	0x3d2cde0a	0.04220394
27	0x3e88addb	0.2669514
28	0x3d83ede4	0.064418584
29	0xbe47b10e	-0.19501135
30	0xbd8345d1	-0.06409801
31	0x3e85b75b	0.26116452
32	0x3cb36922	0.021900717
33	0x3ee3af5a	0.4446972
34	0x3e155030	0.1458137
35	0xbe4de602	-0.20107272
36	0xbeb8d51a	-0.36100084
37	0x3f5fd46d	0.8743351
38	0x3eace003	0.33764657
39	0x3ec7b67b	0.3900641
40	0x3f00b01c	0.5026872
41	0xbc30a88d	-0.010782373
42	0x3f168450	0.5879564
43	0xbea275c6	-0.3173048
44	0xbbca26ff	-0.0061691995
45	0xbf057156	-0.5212606
46	0x3de57c01	0.112052925
47	0x3eb10c83	0.34579858
48	0x3e3ae520	0.18251467
49	0xbe89d3e1	-0.26919463
50	0x3ed5955d	0.41715518
51	0xbeaa893d	-0.3330783
52	0x3f2b05ec	0.6680591
53	0xbd7478d9	-0.05968556
54	0x3f3bee0e	0.7341012
55	0x3e6a0df9	0.22856893
56	0x3d8075d3	0.06272473
57	0x3cb0201c	0.021499686
58	0x3eb90e4f	0.3614373
59	0xbf4c999e	-0.799219
60	0x3e9dc29c	0.30812538
61	0x3f1c2628	0.6099572
62	0xbea8a898	-0.32941127
63	0x3ea41358	0.32046008
64	0xbecc1bd6	-0.39864987
65	0x3efed528	0.49772
66	0xbe26797f	-0.16257285
67	0xbf2945a7	-0.66121906
68	0xbf422fa5	-0.7585395
69	0x3f37b7ec	0.7176502
70	0xbf2d21c8	-0.6762967
71	0xbe200938	-0.15628517
72	0xbe9a628f	-0.3015332
73	0x3f552738	0.8326297
74	0xbf15c152	-0.5849811
75	0xbd7d7bf3	-0.061885785
76	0x3c4932c3	0.012280169
77	0x3e50c4e4	0.20387608
78	0xbe9b4d3b	-0.3033236
79	0x3f9dd520	1.2330666
80	0x3e8e4409	0.27786282
81	0xbe0649c3	-0.13114075
82	0xbf32b2c9	-0.69804054
83	0xbeebad00	-0.46030426
84	0x3e3ce781	0.18447687
85	0xbc76fb51	-0.015074567
86	0x3f26372f	0.64927953
87	0xbe9f67c1	-0.31133845
88	0xbe56d6b2	-0.20980337
89	0x3db4c501	0.08826638
90	0xbf2be86f	-0.6715154
91	0x3eae07ab	0.33990225
92	0xbef31b2a	-0.47481662
93	0x3e86ff0e	0.26366466
94	0x3f23b568	0.6394868
95	0x3f02731a	0.5095688
96	0x3e901cca	0.28146964
97	0xbec4db8e	-0.38448757
98	0x3ca8c771	0.020602914
99	0x3efc34b7	0.49258968
100	0x3e1f9e38	0.155877
101	0xbf2a43be	-0.66509616
102	0x3f018c5c	0.50604796
103	0xbcce3248	-0.02517046
104	0x3e9fd1db	0.31214795
105	0xbeaa14b5	-0.33218923
106	0xbec47989	-0.38373974
107	0x3e109b72	0.14121798
108	0x3f26338f	0.6492242
109	0x3ced69c6	0.0289811
110	0x3ebf27a4	0.3733493
111	0x3ecd70e6	0.40125197
112	0xbe3cb8cc	-0.1842987
113	0x3de1f02c	0.11032137
114	0xbda3649e	-0.079781756
115	0x3e5b41e2	0.21411851
116	0x3c3bbf30	0.011459157
117	0xbeb818f8	-0.3595655
118	0xbee87ca8	-0.45407605
119	0x3ee8f257	0.4549739
120	0xbd003bb5	-0.03130694
121	0xbd91b76e	-0.071150646
122	0xbe50f519	-0.20405997
123	0x3f20b5e4	0.62777543
124	0xbeb2a717	-0.34893104
125	0x3d220b63	0.03956164
126	0xbd8e513d	-0.06949089
127	0xbe783ee5	-0.24242742
128	0x3d58b13e	0.052903406
129	0x3f07eafe	0.53092945
130	0x3eb60eb0	0.3555808
131	0xbeb9b57b	-0.3627127
132	0xbee25d0c	-0.44211614
133	0xbdc97797	-0.09837263
134	0x3e520603	0.20510106
135	0xbecaffba	-0.3964823
136	0x3dd5f537	0.10447162
137	0xbd15e73f	-0.036597487
138	0x3d2ed08e	0.042679362
139	0xbcce5997	-0.025189204
140	0xbedca358	-0.4309337
141	0x3cc010ec	0.023445569
142	0xbeddbe44	-0.43309224
143	0xbd188fec	-0.03724663
144	0x3dff3e9b	0.12463113
145	0x3e905680	0.28190994
146	0x3e4b392c	0.19846028
147	0xbf22ca25	-0.635897
148	0xbda8254a	-0.08210237
149	0x3ec264bf	0.37967488
150	0x3dd70996	0.10499875
151	0x3d29dfd9	0.041473243
152	0xbdeeb359	-0.116553016
153	0x3eb04bef	0.34432933
154	0x3df66d60	0.120325804
155	0xbeac0d24	-0.33603776
156	0xbe84ece2	-0.25961977
157	0xbca4291e	-0.020039137
158	0x3d7d79e2	0.061883815
159	0x3d9cc6c1	0.07655097
160	0x3d8fb2cc	0.07016525
161	0x3e1176f5	0.14205535
162	0x3d50b679	0.05095527
163	0xbbc44362	-0.005989478
164	0xbdc9e5e8	-0.09858304
165	0x3d98b3ff	0.074562065
166	0xbd271f7e	-0.040801518
167	0x3d5b83c5	0.053592462
168	0xbcc80fcb	-0.024421593
169	0x3dc98595	0.09839932
170	0xbe3d7ed0	-0.18505406
171	0x3c5966c7	0.013269133
172	0x3e253f9b	0.16137545
173	0x3d2e73b6	0.04259082
174	0x3c6f3380	0.014599681
175	0xbe3d6b5f	-0.1849799
176	0xbc8b6477	-0.017015679
177	0x3ee14425	0.43997303
178	0x3e3220f3	0.17395382
179	0x3c830d57	0.015997572
180	0x3e74ea0c	0.23917407
181	0xbe46137c	-0.1934337
182	0x3e50e851	0.20401122
183	0xbd91d7f5	-0.07121269
184	0xbe15a29f	-0.14612816
185	0xbd2a24f6	-0.041539155
186	0x3e355a7c	0.17710298
187	0x3d238b92	0.039928026
188	0xbe63fadc	-0.22263664
189	0xbd8c5b6e	-0.06853376
190	0x3e312692	0.1729987
191	0x3dfcd7da	0.12345858
192	0xbdbbfc0c	-0.091789335
193	0xbce04102	-0.027374748
194	0xbdab506a	-0.08364947
195	0x3de63d60	0.11242175
196	0x3e83f1d7	0.25770447
197	0xbd4b4f7c	-0.04963635
198	0xbdad4308	-0.08460051
199	0xbbee3d0f	-0.0072704623
200	0xbdc17dc7	-0.09447818
201	0x3d03015b	0.031983715
202	0x3c9ba78e	0.019000795
203	0xbe740820	-0.23831224
204	0xbdb8710d	-0.09005938
205	0xbd0f66ca	-0.035010137
206	0xbe365464	-0.1780563
207	0xbe091678	-0.13387477
208	0x3e8168fd	0.25275412
209	0x3c8c3af9	0.017117964
210	0xbdb96457	-0.090523414
211	0xbd38e786	-0.045142673
212	0x3d9812d7	0.074254684
213	0xbcbaa0ed	-0.022781814
214	0xbe2890ec	-0.16461533
215	0xbdda709a	-0.10666008
216	0x3caca80a	0.021076221
217	0x3e0ed97e	0.13950154
218	0x3e1c9153	0.15289812
219	0x3d6aeefb	0.057356816
220	0xbd33d4fc	-0.04390429
221	0xbd850c4e	-0.064964876
222	0x3e2fdd30	0.1717422
223	0x3d8567b6	0.06513922
224	0xbe9d902a	-0.3077405
225	0xbe382139	-0.17981423
226	0x3ca0c79f	0.019626437
227	0xbaf9173e	-0.0019004119
228	0x3e070dc7	0.1318885
229	0xbd9992b1	-0.07498682
230	0xbe0b2bbd	-0.13590904
231	0x3ee1e0be	0.44116777
232	0xbc12547f	-0.008931278
233	0xbd2ffaa4	-0.04296364
234	0xbda4ed1d	-0.08053038
235	0x3d523d06	0.051327728
236	0xbe4884b2	-0.19581869
237	0x3e8dbcf2	0.27683216
238	0x3c912c51	0.017721327
239	0x3d27069f	0.0407778
240	0x3ea5a9fb	0.32356247
241	0x3e75bdbc	0.23998159
242	0x3e119371	0.142164
243	0xbe3044bc	-0.1721372
244	0x3e0fe546	0.14052305
245	0xbdeaf59a	-0.11472626
246	0xbc8b3593	-0.01699332
247	0xbd1e044b	-0.038578313
248	0xbea2fc3c	-0.31833065
249	0x3ca026d0	0.019549757
250	0x3e4e5949	0.20151247
251	0x3d017e4f	0.031614598
252	0xbdb8c336	-0.090216085
253	0xbf52f4d5	-0.82404834
254	0x3e9b8c79	0.3038061
255	0x3ef50901	0.47858432

lstm.weight_hh_l1 f4 [200, 50]
0	0xbddedfb9	-0.108825155
1	0xbee2b651	-0.4427972
2	0x3dd8362c	0.105572075
3	0xbe92a1b4	-0.28638995
4	0xbe6be88a	-0.23037925
5	0x3f07c55c	0.5303552
6	0xbf036e22	-0.51339924
7	0xbd9c8755	-0.07643
8	0x3f0d1e94	0.55124784
9	0xbeafd351	-0.3434091
10	0xbe68b3aa	-0.22724786
11	0x3e37d2b6	0.17951474
12	0xbe9c9eff	-0.30590054
13	0x3e34e659	0.17665996
14	0x3eadc57c	0.3393973
15	0xbdfa4d35	-0.12221757
16	0x3e416852	0.18887451
17	0xbddaf75e	-0.10691713
18	0xbe283cd4	-0.16429454
19	0xbf36c6ff	-0.71397394
20	0x3c6e8f9e	0.014560608
21	0x3bd162a3	0.0063899322
22	0x3df89c8a	0.121392325
23	0xbd35622d	-0.04428308
24	0xbdc3c80d	-0.09559641
25	0xbe907f9d	-0.2822236
26	0x3c542224	0.012947593
27	0xbe7f48bb	-0.24930088
28	0xbe154c6e	-0.14579937
29	0x3daa9117	0.08328455
30	0x3e475224	0.19464928
31	0xbded9260	-0.116001844
32	0xbe4259d8	-0.18979585
33	0x3f11a5d3	0.5689365
34	0xbf6b6132	-0.91945183
35	0x3e8add08	0.27121758
36	0x3d8bfb20	0.06835008
37	0xbe835068	-0.25647283
38	0x3df89f29	0.121397324
39	0xbed48188	-0.41505075
40	0xbe0bcd83	-0.13652615
41	0xbebf2e64	-0.3734008
42	0xbea5a6dd	-0.3235387
43	0x3e5c0043	0.21484475
44	0xbdf5823f	-0.11987733
45	0x3e411bc6	0.18858251
46	0xbeaf37af	-0.3422217
47	0xbe9054ab	-0.28189597
48	0x3da02e6d	0.07821355
49	0xbe8ee5d2	-0.27909714
50	0xbdbd9f01	-0.09258843
51	0x3ecea7c9	0.40362385
52	0xbd3025c4	-0.043004766
53	0xbdbd981e	-0.0925753
54	0x3e0ca6d6	0.13735518
55	0x3eb32ac2	0.3499356
56	0xbe9f9568	-0.31168675
57	0x3f11e5fa	0.5699154
58	0xbac4af05	-0.0015005773
59	0xbece8b25	-0.40340534
60	0x3ed03590	0.40665865
61	0xbd85da97	-0.06535833
62	0xbe6cbb04	-0.23118216
63	0x3e9679ab	0.293897
64	0x3f2ba30d	0.6704567
65	0xbed99f5b	-0.4250439
66	0x3ea5251e	0.3225488
67	0xbe6af957	-0.22946678
68	0xbd412524	-0.04715456
69	0xbeea7751	-0.45794156
70	0x3ddeca19	0.10878391
71	0xbed65679	-0.41862848
72	0xbee25b5f	-0.44210336
73	0x3e9f4432	0.31106716
74	0xbd46af07	-0.048506763
75	0x3dd3653a	0.10322042
76	0xbf31c34c	-0.69438624
77	0x3ddb63fe	0.10712431
78	0xbd1f2cb6	-0.038861
79	0xbed80658	-0.4219234
80	0x3e5252ce	0.205394
81	0x3f37ee42	0.7184793
82	0xbee57038	-0.4481218
83	0x3f3960a1	0.7241307
84	0xbda8f891	-0.08250535
85	0x3ed5e474	0.41775858
86	0x3c84d646	0.016215455
87	0xbff20e44	-1.8910604
88	0x3ec21fd9	0.37914923
89	0x3d08c60d	0.033392
90	0x3f4b2cea	0.7936541
91	0xbeafe9d0	-0.34358072
92	0xbe15ee63	-0.14641719
93	0x3dae9317	0.08524149
94	0xbeb52eb2	-0.35387188
95	0xbf27d955	-0.65566
96	0xb9086b40	-0.00013009924
97	0xbc5ea8fc	-0.013590094
98	0x3ebff785	0.3749353
99	0xbf47da6b	-0.78067654
100	0x3e28ac0b	0.16471879
101	0xbf37781f	-0.71667665
102	0x3cc36b9f	0.023855029
103	0xbd87b9b9	-0.06627221
104	0xbdc65efc	-0.096860856
105	0x3ef1e220	0.47242832
106	0xbe8633a3	-0.2621127
107	0xbe48c6c2	-0.1960707
108	0x3ec89350	0.3917489
109	0x3e1edb70	0.15513396
110	0xbdca5bda	-0.098808005
111	0x3e939ac8	0.28829026
112	0xbdae11d0	-0.08499491
113	0x3c98a47a	0.018633116
114	0xbe0cd57a	-0.1375331
115	0x3d21bad2	0.039484806
116	0x3eac90da	0.33704263
117	0xbddfe274	-0.109318644
118	0xbeb861bf	-0.36012074
119	0xbe033b4f	-0.12815593
120	0x3c11a124	0.008888517
121	0x3d0e8d70	0.034802854
122	0x3d5db804	0.05413057
123	0x3e48d37d	0.19611926
124	0x3e69d050	0.22833371
125	0xbe64c9f9	-0.22342671
126	0xbefd4125	-0.49463764
127	0x3e1da84c	0.15396231
128	0xbe3bf371	-0.18354584
129	0x3dd016bd	0.10160587
130	0x3ce303e2	0.027711812
131	0xbe30c7f6	-0.17263779
132	0xbe4aada6	-0.19792804
133	0xbe0a7f49	-0.13525118
134	0xbf1643e8	-0.58697367
135	0x3d1eb8a4	0.038750306
136	0xbd73e325	-0.059542794
137	0xbf3d5f61	-0.7397366
138	0xbcd8258a	-0.026385088
139	0xbe8a24a7	-0.2698109
140	0x3edbeed7	0.42955658
141	0xbece8b77	-0.40340778
142	0xbdbdc62a	-0.092663124
143	0xbee6fd78	-0.45115256
144	0x3e74d2fc	0.23908609
145	0x3c11e851	0.008905486
146	0x3ea2aee0	0.31774044
147	0xbe8fd331	-0.28090814
148	0x3d7055bc	0.058675513
149	0xbee5f21f	-0.44911286
150	0x3df9ab29	0.12190849
151	0xbf34c820	-0.70617867
152	0x3da0ffac	0.078612655
153	0x3e4b92a2	0.19880155
154	0xbd7b203d	-0.06131004
155	0x3ef8de9b	0.48607334
156	0x3e00b8dc	0.12570518
157	0x3e12f9de	0.1435313
158	0x3f08d030	0.5344267
159	0x3e2eafdf	0.17059277
160	0xbe4bbe57	-0.19896828
161	0x3db93545	0.090433635
162	0x3da3c13c	0.07995841
163	0xbe4ac889	-0.1980306
164	0xbd90637e	-0.07050227
165	0xbbbef303	-0.005827309
166	0xbd3da9d7	-0.04630455
167	0xbe87380e	-0.26409954
168	0xbf1636e8	-0.5867753
169	0xbe544cf9	-0.20732488
170	0x3e20cc95	0.15703042
171	0x3eb4ca2a	0.3531049
172	0x3de878c9	0.11351163
173	0x3d63523d	0.05549835
174	0xbc1b969a	-0.009496355
175	0xbec77883	-0.3895913
176	0x3daef086	0.0854197
177	0x3c2ed641	0.010671199
178	0xbe914af0	-0.28377485
179	0x3cdd3423	0.0270024
180	0xbc17b72e	-0.009259982
181	0x3d320927	0.04346576
182	0xbddbf0c5	-0.107392825
183	0xbe919e99	-0.28441313
184	0xbe3e23ba	-0.18568316
185	0xbda37ee3	-0.07983186
186	0xbc92f83c	-0.017940633
187	0xbe63be25	-0.22240503
188	0x3e2dd424	0.16975456
189	0xbd9f9143	-0.07791378
190	0x3e91cf22	0.28478342
191	0x3de05e6c	0.109555095
192	0xbe1493f4	-0.14509565
193	0x3eb5e395	0.35525194
194	0x3ddd59a4	0.10808113
195	0x3e02a17a	0.12756911
196	0x3e795dfe	0.24352261
197	0xbe99274a	-0.29912788
198	0xbd1b7c10	-0.037960112
199	0xbdc86f8f	-0.09786903
200	0xbe53a8e9	-0.20669903
201	0x3e94608e	0.28979915
202	0x3e12296a	0.1427361
203	0xbd651244	-0.055925623
204	0xbdadebe7	-0.084922604
205	0x3edf40f9	0.43604258
206	0xbe5c1fdb	-0.21496527
207	0x3e2ad44e	0.1668255
208	0x3e219045	0.1577769
209	0xbe0f259c	-0.1397919
210	0xbdea3f17	-0.11437815
211	0x3e249798	0.16073453
212	0xbde6f253	-0.112766884
213	0x3ec10220	0.37696934
214	0x3d125817	0.03572854
215	0x3c37d4f8	0.011220209
216	0x3edb04de	0.4277715
217	0x3e14183c	0.1446237
218	0x3d336438	0.043796748
219	0xbe85a5e9	-0.26103142
220	0x3dee18ed	0.11625848
221	0xbea45fe3	-0.32104406
222	0x3ded2bb0	0.11580598
223	0xbee1dacb	-0.44112238
224	0xbd866b82	-0.06563474
225	0x3a29bd20	0.000647502
226	0xbe8a9bd0	-0.27072
227	0xbe3d2dce	-0.18474504
228	0x3d1f5781	0.03890181
229	0x3cdf3c0c	0.027250312
230	0xbe19e745	-0.15029629
231	0x3e3c7244	0.18402964
232	0xbe813ab9	-0.25240114
233	0x3e3f199c	0.18662113
234	0xbe39ac01	-0.1813202
235	0x3dbcc4e5	0.09217242
236	0x3df38adc	0.1189172
237	0xbeac0f52	-0.33605438
238	0x3e6ddff7	0.23229967
239	0xbe3210cd	-0.17389221
240	0x3e1eeb15	0.15519364
241	0xbe4252dc	-0.18976921
242	0xbe3dbcb8	-0.18529022
243	0xbe147069	-0.14496006
244	0x3db397fb	0.08769222
245	0x3d51f187	0.05125573
246	0xbed1dca3	-0.40988645
247	0xbd6ae7de	-0.057350032
248	0x3e57daff	0.21079634
249	0xbead77d2	-0.33880478
250	0xbe9bdfaa	-0.3044408
251	0xbee0bc0c	-0.43893468
252	0x3d405093	0.04695184
253	0xbce94745	-0.028476367
254	0x3da9ed6c	0.08297238
255	0x3ec3b4de	0.38223928

lstm.bias_ih_l1 f4 [200]
0	0xbe8f47aa	-0.27984363
1	0xbeb33d8f	-0.35007903
2	0xbeb40950	-0.35163355
3	0xbec63f84	-0.38720334
4	0xbecc5948	-0.39911866
5	0xbf0c7098	-0.54859304
6	0xbed75598	-0.4205749
7	0xbf056a75	-0.52115566
8	0xbec27a1f	-0.37983796
9	0xbeea4ebd	-0.45763198
10	0xbeb0758a	-0.34464675
11	0xbf125c98	-0.57172537
12	0xbf1619bc	-0.5863302
13	0xbdba911a	-0.09109707
14	0xbee6d232	-0.4508224
15	0xbee0d9ab	-0.43916067
16	0x3e05bab0	0.13059497
17	0xbeaa36d2	-0.3324495
18	0xbe695314	-0.22785598
19	0xbeb0ee81	-0.34556964
20	0xbecfcd11	-0.4058614
21	0xbf4fbec6	-0.8115047
22	0xbf096e02	-0.53683484
23	0xbe6001d3	-0.21875696
24	0xbe61a15a	-0.22034207
25	0xbf0eaa24	-0.55728364
26	0xbf3b1ee7	-0.7309403
27	0xbf49d377	-0.78838295
28	0xbf1c258c	-0.6099479
29	0xbeb431b9	-0.35194185
30	0xbf4562d9	-0.77103955
31	0xbef3a98c	-0.47590292
32	0xbdc4b580	-0.09604931
33	0xbf20a852	-0.62756836
34	0xbeaedf18	-0.34154582
35	0xbf002c07	-0.5006718
36	0xbda65994	-0.081225544
37	0x3f0006f8	0.50010633
38	0xbedc59be	-0.43037218
39	0xbef94f0d	-0.48693123
40	0xbf1fc259	-0.62405926
41	0xbc1a6a80	-0.009424806
42	0xbf17f251	-0.5935412
43	0xbe5d5d58	-0.21617639
44	0xbee66977	-0.45002338
45	0xbf50647f	-0.81403345
46	0xbf320443	-0.6953775
47	0xbe977313	-0.29579982
48	0xbf21c08d	-0.63184434
49	0xbdc73c00	-0.09728241
50	0xbf0f5aad	-0.55997735
51	0xbee5acfc	-0.4485854
52	0xbe8fbed3	-0.28075275
53	0xbecd86f6	-0.4014203
54	0xbe13e7c5	-0.14443882
55	0x3f807b6d	1.0037667
56	0xbefbaff8	-0.4915769
57	0x3f59f779	0.8514324
58	0xbeb55b39	-0.3542116
59	0x3d3b6870	0.045753896
60	0xbeb44e7d	-0.35216132
61	0xbf2a7931	-0.66591173
62	0xbeb66712	-0.3562551
63	0xbf2e6586	-0.6812366
64	0xbeba76cb	-0.36418757
65	0xbd81ad95	-0.06331936
66	0xbf3a65fb	-0.7281186
67	0xbf1a624d	-0.60306245
68	0xbe67e30f	-0.2264521
69	0x3ea39430	0.31948996
70	0xbebf1098	-0.37317348
71	0xbf0e0e45	-0.55490524
72	0xbebb364c	-0.36564863
73	0x3df1f068	0.11813432
74	0xbef07f59	-0.4697216
75	0xbeac3ce9	-0.3364022
76	0xbe5ec4b0	-0.21754718
77	0xbe464506	-0.19362268
78	0xbeecf2e5	-0.46279064
79	0x3e9bf4ac	0.30460107
80	0xbe96104e	-0.29309314
81	0x3d1fc8bc	0.039009795
82	0xbf4eb59d	-0.8074587
83	0xbf0fbd22	-0.5614797
84	0xbe804459	-0.25052145
85	0xbf06481a	-0.5245377
86	0xbf40c241	-0.7529641
87	0xbf26b359	-0.6511741
88	0x3b2261b3	0.0024777472
89	0x3edd4064	0.4321319
90	0x3ca3b031	0.019981476
91	0xbf7aa849	-0.9791303
92	0xbf29a2d9	-0.6626411
93	0xbf316f6e	-0.69310653
94	0xbeb707f2	-0.3574825
95	0xbf243a66	-0.6415161
96	0xbe9b5a7b	-0.3034247
97	0xbee3191a	-0.44355088
98	0xbed074d2	-0.40714127
99	0xbf8a656b	-1.08122
100	0x3caf6b87	0.021413578
101	0xbe4dc94c	-0.2009632
102	0xbce46203	-0.027878767
103	0x3b4ff4a7	0.0031731518
104	0x3d68aca9	0.056805287
105	0xbe0a5aae	-0.13511154
106	0xbd67654a	-0.05649308
107	0x3b5ff510	0.0034173168
108	0x3bfe2ac4	0.007756563
109	0x3e2591b8	0.16168869
110	0xbdf83860	-0.12120128
111	0x3da935c1	0.08262206
112	0x3dbd083a	0.09230085
113	0xbdf56553	-0.11982217
114	0x3c6340b0	0.013870403
115	0x3da7ba5d	0.08189843
116	0x3d6ba61c	0.05753146
117	0xbd2a5aed	-0.04159062
118	0xbcd4de8e	-0.025985029
119	0xbe144096	-0.14477763
120	0x3ce0884c	0.027408741
121	0x3e8a9fff	0.27075192
122	0x3e3f52ae	0.18683884
123	0x3ce52535	0.027971843
124	0x3d8e6f12	0.06954779
125	0xbe0547b0	-0.13015628
126	0xbd20ff82	-0.03930617
127	0x3d0f278a	0.034949817
128	0xbc093651	-0.008374766
129	0x3e4e4526	0.20143566
130	0xbd530041	-0.051513914
131	0xbcfc54e5	-0.0308022
132	0x3dc3ac87	0.09554391
133	0xbdababcf	-0.08382379
134	0xbdf66260	-0.12030482
135	0x3cad4d40	0.021155
136	0xbd88f867	-0.06688004
137	0x3e2b0552	0.16701248
138	0xbb5c770a	-0.0033640289
139	0xbd9b96f4	-0.075971514
140	0xbe4ca5c8	-0.19985116
141	0x3d0595cb	0.032613557
142	0x3d7708e9	0.06031123
143	0xbd381e6f	-0.0449509
144	0xbd0a271a	-0.033728696
145	0x3e48e94e	0.19620249
146	0x3d05a205	0.032625217
147	0xbd11b424	-0.035572186
148	0xbd4f229a	-0.050570108
149	0x3e243767	0.1603676
150	0xbe8ba0a5	-0.27271
151	0xbedc5bd8	-0.4303882
152	0xbe86878a	-0.26275283
153	0xbf308c2b	-0.6896388
154	0xbf1231fd	-0.57107526
155	0x3c5572c2	0.013027849
156	0xbe7c175f	-0.2461829
157	0xbe0b43ab	-0.13600032
158	0xbec61a16	-0.38691777
159	0xbf60b80e	-0.87780845
160	0xbedb77af	-0.4286475
161	0xbed02f87	-0.4066126
162	0xbf0b7a19	-0.5448318
163	0x3bd1e3c8	0.0064053275
164	0xbec9ebd7	-0.39437744
165	0xbe877bf8	-0.26461768
166	0x3e596ed4	0.21233684
167	0xbe87fb97	-0.26559135
168	0x3cd4ffd4	0.026000895
169	0xbf2fcb7e	-0.6866988
170	0xbee1cfbb	-0.44103798
171	0xbf353b2e	-0.70793426
172	0xbf03d7de	-0.5150126
173	0xbe68a7b9	-0.22720231
174	0xbee3bae5	-0.44478527
175	0xbec852a6	-0.39125556
176	0xbf230fbf	-0.636959
177	0xbed24856	-0.41070813
178	0xbf23adfe	-0.63937366
179	0xbf01e66d	-0.50742227
180	0xbf2b305f	-0.66870683
181	0xbe7002e5	-0.23438604
182	0xbd3bdfcd	-0.04586773
183	0xbf19728f	-0.5994043
184	0xbed01493	-0.40640697
185	0xbe370ef4	-0.17876798
186	0x3df19999	0.117968746
187	0x3f1883a0	0.59575844
188	0xbebe0c2f	-0.3711867
189	0xbee96f48	-0.45592713
190	0xbf17bd8b	-0.59273595
191	0xbde06c99	-0.10958213
192	0xbf166405	-0.5874637
193	0xbe0f31df	-0.13983868
194	0xbebe5b68	-0.37179112
195	0xbf3c9e44	-0.73678994
196	0xbf2a03aa	-0.6641184
197	0xbef5ea34	-0.48030245
198	0xbf343300	-0.7039032
199	0xbe872dfa	-0.26402265

lstm.bias_hh_l1 f4 [200]
0	0xbee030e3	-0.43787298
1	0xbec36d18	-0.3816917
2	0xbe77b8de	-0.24191615
3	0xbf2134d6	-0.62971246
4	0xbed1c4c2	-0.40970427
5	0xbeea15f8	-0.45719886
6	0xbeb3d551	-0.35123685
7	0xbed6ed88	-0.41978097
8	0xbec11479	-0.37710932
9	0xbf08abb3	-0.5338699
10	0xbe98b935	-0.29828802
11	0xbee65cd9	-0.44992712
12	0xbf06cb5e	-0.52654064
13	0x3d13d2b2	0.036089607
14	0xbedcebda	-0.4314869
15	0xbeecf37e	-0.4627952
16	0x3e0b0915	0.13577683
17	0xbeea30d7	-0.45740387
18	0x3bae3cb8	0.005317297
19	0xbec0b0e9	-0.37634972
20	0xbf249f07	-0.64305156
21	0xbf415687	-0.75522655
22	0xbf227582	-0.6346055
23	0xbee61f55	-0.4494578
24	0xbef85ecb	-0.4850982
25	0xbef6d8e8	-0.4821236
26	0xbf111e67	-0.56687015
27	0xbf4482e5	-0.7676223
28	0xbf1d60d7	-0.6147589
29	0xbef0c905	-0.47028366
30	0xbf2aaca4	-0.6666968
31	0xbee4ae0b	-0.44664034
32	0x3d902abd	0.07039402
33	0xbf1badb2	-0.60811913
34	0xbf0140ae	-0.5048932
35	0xbe897343	-0.2684575
36	0x3dad479b	0.08460923
37	0x3f1dbd39	0.61616856
38	0xbee5aa2f	-0.44856402
39	0xbec1c821	-0.37848
40	0xbed11ce5	-0.40842357
41	0xbdb631bd	-0.088962056
42	0xbeb370f9	-0.3504713
43	0xbe32ccd0	-0.17460942
44	0xbeb460fb	-0.3523024
45	0xbf1e1dcc	-0.61764216
46	0xbf0fa77c	-0.56114936
47	0xbe85d0f9	-0.26135996
48	0xbf0c8ea9	-0.5490518
49	0xbcf851f8	-0.030312523
50	0xbf143113	-0.5788738
51	0xbef92e91	-0.4866834
52	0xbeee9de8	-0.46604848
53	0xbe87c4d3	-0.26517352
54	0x3c722c7c	0.014781114
55	0x3f8832ac	1.0640464
56	0xbf1499e5	-0.58047324
57	0x3f57201a	0.8403336
58	0xbed47d59	-0.41501883
59	0x3d7f1448	0.0622752
60	0xbec97dd0	-0.393538
61	0xbf085c49	-0.53265816
62	0xbe960304	-0.29299176
63	0xbf3e0aaa	-0.7423502
64	0xbee71134	-0.45130312
65	0xbd8e90ed	-0.06961236
66	0xbf044b54	-0.5167744
67	0xbec563d0	-0.38552713
68	0xbe213284	-0.15741926
69	0x3e90b8e2	0.28266054
70	0xbefb5cdf	-0.49094293
71	0xbeefb829	-0.4682019
72	0xbed07984	-0.4071771
73	0x3de92aa3	0.113850854
74	0xbee7a737	-0.45244762
75	0xbe09e866	-0.13467559
76	0xbd7f0d65	-0.062268633
77	0xbe1ea3b2	-0.15492132
78	0xbeaa4031	-0.332521
79	0x3ebed165	0.3726913
80	0xbe935d7c	-0.2878226
81	0xbc5c6924	-0.013452802
82	0xbf702f7e	-0.9382247
83	0xbed893b5	-0.42300192
84	0xbef3c24d	-0.47609177
85	0xbecc69e3	-0.39924535
86	0xbf400243	-0.7500345
87	0xbf3443b6	-0.7041582
88	0x3d37b0d9	0.04484639
89	0x3ebde58d	0.37089196
90	0xbd148245	-0.036257047
91	0xbf772548	-0.9654126
92	0xbf0bd371	-0.5461951
93	0xbf3fcad6	-0.7491888
94	0xbecfe597	-0.4060485
95	0xbf4a5893	-0.79041404
96	0xbe7fa319	-0.2496456
97	0xbe749c9a	-0.23887864
98	0xbefad7e9	-0.4899285
99	0xbf94c137	-1.1621464
100	0x3bafc456	0.0053639812
101	0xbdcd5c3d	-0.10027359
102	0x3e7b9d1d	0.24571653
103	0xbcd2f2ad	-0.025750482
104	0xbd5caa37	-0.053873267
105	0xbc0ca478	-0.008584134
106	0x3c772d74	0.01508652
107	0x3db50292	0.08838381
108	0x3e8fd4a9	0.28091934
109	0x3e39b4fe	0.1813545
110	0xbd6e364e	-0.058157258
111	0x3dd53058	0.104096115
112	0xbddc4a93	-0.107564114
113	0xbcd23b95	-0.025663177
114	0xbe31304f	-0.17303585
115	0x3d2884be	0.041142218
116	0xbdc3cd7c	-0.095606774
117	0x3d9e64d2	0.07734074
118	0xbb15bff0	-0.002285
119	0x3da1361f	0.07871651
120	0x3dd75146	0.105135486
121	0x3e6885e5	0.22707327
122	0x3d9c080e	0.07618724
123	0x3d56058e	0.05225139
124	0xbdf25d55	-0.11834208
125	0xbc418bc3	-0.011813107
126	0xbd31931f	-0.043353196
127	0xbdeb3fdb	-0.11486789
128	0xbc4ddd21	-0.012564928
129	0x3dd76655	0.10517565
130	0x3c6e8535	0.014558126
131	0xbdddb3fa	-0.108253434
132	0x3dc34db6	0.095363066
133	0x3d9bf8aa	0.07615788
134	0xbd6bb1d0	-0.057542622
135	0x3d985538	0.07438129
136	0xbd2aa928	-0.041665226
137	0xbdb61164	-0.08890036
138	0x3b173fce	0.0023078802
139	0xbd908f9c	-0.07058641
140	0x3d8dac66	0.06917648
141	0xbd415296	-0.0471979
142	0x3c817315	0.015801946
143	0xbe1f6597	-0.15566097
144	0x3dbbb5e2	0.09165551
145	0x3e8d5187	0.27601263
146	0x3df96fc0	0.12179518
147	0xbdc89c5b	-0.097954474
148	0x3db3231d	0.08746932
149	0x3dc2b906	0.09507947
150	0xbedb8cb7	-0.42880794
151	0xbe8a0272	-0.2695499
152	0xbec9ef8a	-0.39440566
153	0xbf14848d	-0.58014756
154	0xbf04d427	-0.5188622
155	0xbe044d79	-0.12920178
156	0xbe87c61f	-0.26518342
157	0xbe878e4e	-0.26475757
158	0xbef18439	-0.4717119
159	0xbf81576f	-1.0104808
160	0xbef85227	-0.48500177
161	0xbee25d56	-0.44211835
162	0xbee80575	-0.45316663
163	0x3e01b8b2	0.12668112
164	0xbee053fa	-0.4381407
165	0xbeb454c9	-0.35220936
166	0x3e0bfa9d	0.1366982
167	0xbe39a323	-0.18128638
168	0x3e662730	0.22475886
169	0xbf0e5ae7	-0.55607456
170	0xbf01d581	-0.50716406
171	0xbf4b2f64	-0.7936919
172	0xbebbf10d	-0.36707345
173	0xbe947cdb	-0.29001507
174	0xbec896c2	-0.3917752
175	0xbf0a9c3f	-0.5414466
176	0xbf118562	-0.5684415
177	0xbedfa9df	-0.4368429
178	0xbf185fd9	-0.5952125
179	0xbf04e227	-0.5190758
180	0xbf0f4f13	-0.5598003
181	0xbe036194	-0.12830192
182	0xbdad446a	-0.084603146
183	0xbf256fc6	-0.6462368
184	0xbe7fa88b	-0.24966638
185	0xbec5fc41	-0.38669017
186	0x3db4aeb4	0.088223845
187	0x3f226f21	0.6345082
188	0xbe8418cb	-0.25800166
189	0xbf1991b7	-0.5998797
190	0xbf0efa9e	-0.5585116
191	0x3b9474de	0.004530533
192	0xbef4952c	-0.4777006
193	0x3db496c2	0.08817817
194	0xbecc8075	-0.39941755
195	0xbf0ee811	-0.55822855
196	0xbf055131	-0.52077013
197	0xbf044c05	-0.51678497
198	0xbef28c68	-0.47372746
199	0xbddd8c47	-0.108177714
