models/lstm/consumption/saved_model/consumption_lstm_house_3.pth (torch, 293334 bytes, 17 tensors)

lstm.weight_ih_l0 f4 [200, 1]
0.034966785 0.043261487 0.053485136 0.011406827 -0.15326206 0.0964436 -0.052589104 -0.10315199
-0.08372633 0.051372074 -0.061179582 -0.09358881 0.0062497826 -0.0714827 0.06818409 -0.10739099
0.050153513 -0.07979704 0.04160657 -0.0659611 0.056733035 0.12690482 -0.15521425 -0.07013001
0.11656094 0.08352176 0.046017844 0.06361175 -0.0060950075 0.060881663 0.09268467 -0.0390637
-0.067126885 -0.022379735 0.0016703611 -0.031870116 -0.11905293 -0.12086896 0.011312834 0.0145510165
-0.15706289 -0.07480158 -0.13441728 -0.071014225 -0.14252634 0.029821448 0.029551381 0.079737835
-0.0921487 0.05744679 -0.15965085 0.031521536 -0.11972933 -0.05266917 0.007224711 0.07341434
-0.029973648 0.0032284185 -0.15200938 -0.055309176 -0.19499934 -0.09175013 0.052719165 -0.03822414
0.09472199 0.019119916 -0.032965243 0.020860117 -0.14294648 0.0027818172 0.0492595 -0.116729505
-0.16519079 -0.05922479 0.07338278 -0.19947161 -0.09531088 -0.023095421 0.065401584 -0.019719617
0.07138284 -0.09894992 -0.0601367 -0.055398077 0.14413145 -0.06119251 0.012803623 -0.1108024
-0.02803353 0.02983564 -0.19444527 0.074352145 -0.059835102 -0.022814648 -0.054319218 0.0069714487
-0.033235487 0.106381185 -0.08506295 -0.041804943 -0.09654332 -0.08952994 0.07063033 0.118431434
0.016213704 -0.08378639 0.11430408 0.00066940405 -0.081791475 -0.0841241 0.008951716 -0.10826313
-0.016663358 0.073976465 0.10673244 0.064502954 0.17228594 -0.017968008 0.033460647 0.018791618
-0.028114138 -0.13899341 0.025990903 0.08149772 -0.04410126 -0.0071204747 0.039730534 0.042546313
-0.039670955 -0.15692402 -0.0073305117 0.10160484 0.098932706 0.17017978 0.05878968 0.055737864
0.01920146 -0.10012167 -0.022674209 -0.06798453 0.057117898 -0.06973059 0.016672375 -0.15478772
-0.1263288 0.11941601 -0.06427237 0.062349886 0.025180135 -0.14420263 0.04231392 -0.033875834
-0.17775239 -0.1274328 -0.15608944 -0.13927533 0.086093135 0.08933043 -0.17821197 0.02237284
0.03315292 0.051702578 0.03250186 -0.10975575 -0.008216953 -0.10565031 -0.0022376257 -0.09546979
-0.012076995 -0.031927023 0.1099258 -0.027095709 0.045929305 -0.09052024 -0.05324242 -0.010452949
-0.03263551 0.046362583 -0.12860392 -0.007926158 0.078563176 0.0813085 -0.11644951 0.08754355
-0.021422409 0.06124192 0.041044064 -0.06459792 0.05047371 0.05344604 -0.13897854 -0.050498173
-0.11091391 0.031746853 0.020223202 0.0897619 0.0876576 -0.1504538 -0.11568541 0.12374345
00000000: 5539 0f3d f532 313d 3b13 5b3d b3e3 3a3c
00000010: bbf0 1cbe 3984 c53d ac67 57bd 5a41 d3bd
00000020: b678 abbd 866b 523d 7197 7abd 7dab bfbd
00000030: faca cc3b 8665 92bd 1aa4 8b3d cfef dbbd
00000040: c56d 4d3d a16c a3bd a76b 2a3d 9d16 87bd
00000050: e660 683d 56f3 013e 7cf0 1ebe 53a0 8fbd
00000060: 81b7 ee3d 750d ab3d 357d 3c3d e146 823d
00000070: a1b8 c7bb 0d5f 793d 76d1 bd3d 4201 20bd
00000080: d279 89bd b555 b7bc 05f0 da3a 3d8a 02bd
00000090: 06d2 f3bd 258a f7bd 7759 393c 6367 6e3c
000000a0: 18d5 20be 9231 99bd afa4 09be e86f 91bd
000000b0: 6df2 11be 1c4c f43c bd15 f23c 974d a33d
000000c0: 75b8 bcbd 534d 6b3d 837b 23be ba1c 013d
000000d0: a734 f5bd a1bb 57bd 45bd ec3b 425a 963d
000000e0: 4c8b f5bc e093 533b 59a8 1bbe e08b 62bd
000000f0: e8ad 47be 7ee7 bbbd 0df0 573d ea90 1cbd
00000100: 9afd c13d 5fa1 9c3c 9006 07bd d6e2 aa3c
00000110: 9060 12be 264f 363b 54c4 493d e10f efbd
00000120: c627 29be b295 72bd b649 963d 4942 4cbe
00000130: 5a32 c3bd 9c32 bdbc 44f1 853d 098b a1bc
00000140: 2b31 923d 41a6 cabd e651 76bd 18e9 62bd
00000150: 3297 133e ffa4 7abd 4ac6 513c 5eec e2bd
00000160: 93a6 e5bc df69 f43c a91c 47be f045 983d
00000170: a715 75bd c9e5 babc d47d 5ebd c070 e43b
00000180: ef21 08bd 61de d93d 7c35 aebd a93b 2bbd
00000190: 81b8 c5bd 795b b7bd a2a6 903d 2e8c f23d
000001a0: 9ad2 843c 3398 abbd 4218 ea3d f27a 2f3a
000001b0: 4a82 a7bd 4249 acbd 38aa 123c 0fb9 ddbd
000001c0: 9881 88bc f980 973d 8a96 da3d 201a 843d
000001d0: ba6b 303e a531 93bc 080e 093d e1f0 993c
000001e0: 9f4f e6bc 4a54 0ebe e0ea d43c 47e8 a63d
000001f0: 86a3 34bd df52 e9bb 7cbc 223d 0b45 2e3d
00000200: 037e 22bd b1b0 20be ca34 f0bb 3316 d03d
00000210: 3b9d ca3d 9c43 2e3e 73cd 703d 634d 643d
00000220: 614c 9d3c 970c cdbd 43bf b9bc 793b 8bbd
00000230: 75f4 693d e9ce 8ebd 8194 883c ac80 1ebe
00000240: 565c 01be 6290 f43d 3ba1 83bd 9862 7f3d
00000250: 9246 ce3c dba9 13be 5c51 2d3d 63c1 0abd
00000260: b904 36be be7d 02be e9d5 1fbe 319e 0ebe
00000270: 9951 b03d dff2 b63d 337d 36be 3f47 b73c
00000280: 5bcb 073d 15c6 533d ac20 053d 9fc7 e0bd
00000290: 66a0 06bc 315f d8bd 21a5 12bb aa85 c3bd
000002a0: 97de 45bc e9c5 02bd c720 e13d d2f7 ddbc
000002b0: 5e20 3c3d ad62 b9bd b914 5abd d942 2bbc
000002c0: d0ac 05bd b1e6 3d3d bfb0 03be b7dc 01bc
000002d0: bbe5 a03d 1285 a63d 157d eebd 084a b33d
000002e0: 0c7e afbc cfd8 7a3d d21d 283d ea4b 84bd
000002f0: 85bd 4e3d 3cea 5a3d 6450 0ebe 2cd7 4ebd
00000300: d526 e3bd fd08 023d 21ab a53c 16d5 b73d
00000310: d485 b33d 9010 1abe 79ec ecbd 356d fd3d

lstm.weight_hh_l0 f4 [200, 50]
0.0020063492 -0.08574247 -0.09343505 -0.1358183 0.0052305083 -0.031508572 -0.1416999 0.010421105
-0.014693556 -0.058617968 -0.15812308 0.13344938 0.12519166 0.16273588 -0.024798684 -0.135857
0.039659183 0.11788194 0.05538837 0.17041443 -0.041490965 0.112780765 -0.056476988 0.052637585
0.18934147 0.048326492 -0.062161706 0.018536618 -0.014600439 0.18988998 0.007257788 -0.1366008
-0.067880966 -0.17286435 -0.10859747 0.1659455 0.006222222 0.17719024 0.008217545 -0.066525325
-0.043665446 -0.07725763 0.017609594 0.1345955 0.07481414 -0.021609664 -0.12724863 -0.13433921
-0.16322702 0.104119286 -0.09839412 0.07429255 -0.091339536 -0.1933124 0.026797645 -0.21375003
-0.023551242 -0.14854744 0.012175517 -0.20976985 -0.021438831 -0.017382096 0.118548915 0.17471237
-0.014462349 0.054500118 -0.08833051 0.03117493 -0.034198478 0.18827681 -0.04861502 0.1603768
0.05135472 0.17354238 -0.09029542 0.09372358 0.1693989 0.008853969 -0.00431448 -0.060800787
-0.007925959 -0.051790956 0.0647375 -0.17012359 -0.1132636 0.029795099 0.0044529648 0.04738355
-0.0044274633 -0.03731102 -0.10385732 -0.1964124 0.008660901 0.009609891 -0.028464109 -0.1470164
-0.16845794 -0.12301831 -0.0658388 0.03929424 0.10393323 0.11034946 -0.04765528 -0.17284356
-0.103498824 -0.21353747 -0.10897298 -0.15922114 -0.044909798 -0.025489936 0.027465992 0.12163203
-0.024927272 0.14601143 -0.15544266 -0.18211354 0.044204995 0.18438573 -0.15446647 -0.080209024
-0.17596343 0.07903239 -0.14008352 0.124606386 -0.09540373 0.29711354 -0.172427 0.054518316
-0.12111855 0.0048082136 0.00014826382 -0.09573608 0.03562676 0.039059956 -0.077844195 0.10580675
-0.07024431 0.08148197 0.08699737 -0.073594116 0.112697996 -0.196557 -0.07701599 0.03932348
0.0046590194 -0.028980192 -0.12352456 -0.089177795 0.093289465 -0.01057741 -0.04891147 0.030682663
-0.026494564 0.11913249 0.034199122 -0.10999583 0.09154242 0.01171071 -0.05946385 0.012842948
0.04708246 0.13694765 -0.14978263 -0.051388998 0.1126696 0.09801067 0.10789826 0.11423404
0.13491467 -0.0074417354 -0.09175588 -0.0019674979 0.05306871 -0.03065281 0.24557531 0.054917455
0.033350658 0.09660392 0.0655827 0.1359451 0.03637221 -0.08310985 0.030837338 0.041628256
-0.12807098 -0.096991695 0.03442186 0.06118995 -0.056540374 -0.11718755 -0.15423487 -0.11871728
0.07903921 -0.121877685 -0.033399962 -0.15013994 -0.06710936 0.016716084 -0.1417082 0.14843792
-0.046453413 0.07509169 0.009977115 -0.027821392 -0.030701336 -0.16707714 -0.002294436 -0.0057745497
0.06333576 -0.047869984 -0.08001419 -0.042242985 -0.07172096 0.06030328 0.0048808986 -0.11305474
0.023098709 0.12955795 -0.1338575 -0.08390871 0.043658014 -0.041072536 0.09540046 0.1539581
0.15983607 0.11493978 -0.06141216 0.15674676 -0.16040526 -0.027185354 -0.10631631 -0.04564745
0.028035598 -0.09707963 0.071597055 0.023894852 -0.06135377 -0.035141416 -0.13238387 0.09269678
0.02621007 -0.041357346 0.12081329 0.09314865 -0.06974237 -0.10427817 -0.067868054 -0.018907806
-0.18716341 0.005143708 0.105250895 -0.041541103 -0.07672451 -0.16220866 -0.11152524 0.08808243
00000000: f47c 033b c099 afbd e05a bfbd f413 0bbe
00000010: af64 ab3b 220f 01bd c719 11be 48bd 2a3c
00000020: 3ebd 70bc 6519 70bd 04eb 21be f4a6 083e
00000030: 3e32 003e 3ca4 263e 9c26 cbbc 191e 0bbe
00000040: ab71 223d 166c f13d eade 623d 1f81 2e3e
00000050: 6ef2 29bd 9af9 e63d 6a54 67bd 829a 573d
00000060: bbe2 413e 00f2 453d 469d 7ebd 1bda 973c
00000070: ae36 6fbc 8572 423e bdd2 ed3b 15e1 0bbe
00000080: 2d05 8bbd 5a03 31be 5a68 debd 9eed 293e
00000090: c8e3 cb3b 5c71 353e e2a2 063c 6e3e 88bd
000000a0: 8ada 32bd 4039 9ebd ff41 903c 67d3 093e
000000b0: 2838 993d c006 b1bc 774d 02be 3890 09be
000000c0: fc24 27be 7e3c d53d db82 c9bd b126 983d
000000d0: 3910 bbbd b0f3 45be bc86 db3c 4ae1 5abe
000000e0: 89ee c0bc d21c 18be d27b 473c e8cd 56be
000000f0: 7da0 afbc e664 8ebc c6c9 f23d cde7 323e
00000100: 7df3 6cbc 843b 5f3d a0e6 b4bd 9162 ff3c
00000110: b413 0cbd a3cb 403e 8b20 47bd d139 243e
00000120: 5459 523d 18b5 313e ceec b8bd 26f2 bf3d
00000130: e876 2d3e 3d10 113c 7b60 8dbb 3f0a 79bd
00000140: e2db 01bc c122 54bd 1895 843d e134 2ebe
00000150: bff6 e7bd da14 f43c 2dea 913b 4115 423d
00000160: 4114 91bb 71d3 18bd 26b3 d4bd 5520 49be
00000170: 74e6 0d3c ce72 1d3c 902d e9bc 788b 16be
00000180: 3d80 2cbe 06f1 fbbd 7ed6 86bd fff2 203d
00000190: f2da d43d e6fe e13d 2f32 43bd e7fd 30be
000001a0: 31f7 d3bd 91a9 5abe 3a2d dfbd de0a 23be
000001b0: 56f3 37bd 45d0 d0bc 5c00 e13c 371a f93d
000001c0: 4734 ccbc 0584 153e 5c2c 1fbe f97b 3abe
000001d0: 4c10 353d 9dcf 3c3e 752c 1ebe a144 a4bd
000001e0: c22f 34be bcdb a13d 0e72 0fbe a231 ff3d
000001f0: 0863 c3bd 441f 983e b490 30be 994e 5f3d
00000200: 010d f8bd 388e 9d3b 4477 1b39 4711 c4bd
00000210: 5eed 113d 55fd 1f3d c76c 9fbd 36b1 d83d
00000220: 40dc 8fbd 05e0 a63d ad2b b23d 83b8 96bd
00000230: 35ce e63d 3d46 49be 8fba 9dbd a811 213d
00000240: b0aa 983b de67 edbc 72fa fcbd d9a2 b6bd
00000250: 8c0e bf3d e04c 2dbc 6557 48bd 355a fb3c
00000260: 210b d9bc bcfb f33d 6114 0c3d 7e45 e1bd
00000270: 987a bb3d 47de 3f3c 5e90 73bd 3a6b 523c
00000280: 8ad9 403d 013c 0c3e 9e60 19be 457d 52bd
00000290: 52bf e63d d1b9 c83d c3f9 dc3d 89f3 e93d
000002a0: 1227 0a3e cdd9 f3bb 82ea bbbd 23f1 00bb
000002b0: 935e 593d 9a1b fbbc 1878 7b3e 20f1 603d
000002c0: b39a 083d 47d8 c53d 3950 863d 3135 0b3e
000002d0: 07fb 143d 7f35 aabd 969e fc3c 6482 2a3d
000002e0: 0a25 03be 95a3 c6bd f0fd 0c3d 50a2 7a3d
000002f0: e196 67bd 0700 f0bd bfef 1dbe 0c22 f3bd
00000300: 4fdf a13d 029b f9bd 66ce 08bd 49be 19be
00000310: a270 89bd 2bf0 883c f41b 11be 1c00 183e
00000320: ef45 3ebd acc9 993d 0e77 233c b0e9 e3bc
00000330: 5e81 fbbc 4516 2bbe 405e 16bb 6f38 bdbb
00000340: 2eb6 813d 5113 44bd 7bde a3bd fb06 2dbd
00000350: 70e2 92bd 9200 773d f2ef 9f3b 3e89 e7bd
00000360: 8139 bd3c d7aa 043e f111 09be 54d8 abbd
00000370: bfd2 323d ad3b 28bd 5161 c33d 31a7 1d3e
00000380: 11ac 233e 8c65 eb3d 518b 7bbd 3982 203e
00000390: 4741 24be d2b3 debc 5ebc d9bd d2f8 3abd
000003a0: e9aa e53c afd1 c6bd 7aa1 923d 23bf c33c
000003b0: 174e 7bbd 72f0 0fbd a38f 07be cfd7 bd3d
000003c0: 80b6 d63c 5266 29bd f56c f73d b8c4 be3d
000003d0: 16d5 8ebd cb8f d5bd 68fe 8abd 8be4 9abc
000003e0: c4a7 3fbe 8d8c a83b c88d d73d 0127 2abd
000003f0: bd21 9dbd 071a 26be 5867 e4bd 9064 b43d

lstm.bias_ih_l0 f4 [200]
0.09377925 0.014429925 0.071580835 0.116398014 -0.15097865 -0.03417756 -0.015970843 0.00853891
-0.020060938 0.015478014 -0.07536306 -0.14656265 -0.17165169 -0.07715609 -0.052095246 0.022442779
0.106585555 0.028852277 -0.0346508 -0.16830973 0.07750534 -0.1288759 -0.16330472 -0.13754337
0.001262629 -0.008502701 0.10264537 -0.0058643776 -0.20414454 0.0059391162 0.023639051 0.050067388
0.015628973 0.025643481 0.13426521 0.007975002 -0.068891205 -0.14373733 0.10643214 0.053426553
-0.16250551 0.04375532 0.05409232 0.140542 -0.11849356 -0.044714123 -0.059286553 -0.09354968
-0.05227126 -0.011520762 0.007705296 -0.015963202 -0.15580113 0.06744422 -0.022983063 0.03940684
-0.004569559 -0.017282983 0.07553838 0.06823944 -0.15479015 -0.13562284 0.05578878 -0.008417975
-0.07941636 -0.021698108 -0.092233144 -0.027837286 -0.130259 -0.17608096 0.02783627 -0.07946822
0.031117115 -0.1371198 -0.0411657 -0.024694456 -0.19016185 -0.015118588 0.048781276 -0.12736955
-0.014695438 -0.08902305 0.08033021 0.105755724 -0.009270432 0.036530763 -0.007324744 -0.11797827
0.04003424 -0.055157423 0.027841413 -0.12646404 0.09596987 -0.027893867 -0.021647718 0.13456944
0.04170087 -0.012998394 -0.14629798 0.025215497 0.09266503 -0.097996265 0.03328152 0.16895814
0.11252182 0.119807415 0.010405263 -0.04231017 0.05684049 -0.032850076 -0.0787299 0.076716706
0.06267799 -0.004124515 0.010144552 0.12902208 0.16176325 -0.09647258 0.12123546 -0.019737108
-0.04005092 -0.031321507 -0.11521661 -0.119160324 -0.039708268 -0.13010904 0.11645631 0.017254828
-0.003786913 -0.08461564 -0.013249982 -0.046060096 0.02975596 -0.09284818 0.081047304 0.0208304
0.14279279 -0.06316081 0.09693808 -0.059999503 -0.0333703 0.075345255 0.02768878 -0.079724886
0.007135894 -0.0038764137 0.083906986 0.037131276 -0.004519907 0.010380516 -0.14374264 0.028382089
-0.044011686 0.051968124 -0.12291328 -0.1450507 0.01185117 0.07498693 -0.0042425673 0.07885565
-0.21731274 -0.10798949 0.014810023 -0.14146656 -0.031909067 -0.045054346 -0.11505391 -0.15854122
0.039348267 0.09831423 -0.09639305 -0.104468286 0.0070332466 0.051130336 0.019918 -0.0041759023
0.006822398 0.042647343 -0.08381133 0.025071217 -0.11370803 0.055205315 -0.005725482 0.09881904
-0.07466628 0.0799901 -0.1527299 -0.15169692 -0.11547767 -0.12340202 -0.060057927 -0.055087686
-0.0124605205 -0.025319682 0.01502958 0.039887745 -0.119970016 -0.13867873 0.1101411 -0.10936992
00000000: 560f c03d 7e6b 6c3c f998 923d 1562 ee3d
00000010: 269a 1abe c5fd 0bbd 49d5 82bc c9e6 0b3c
00000020: d656 a4bc 7f97 7d3c f357 9abd 8514 16be
00000030: 76c5 2fbe 0304 9ebd d361 55bd ebd9 b73c
00000040: 8749 da3d 9c5b ec3c ffed 0dbd 6359 2cbe
00000050: 1fbb 9e3d 0bf8 03be 5a39 27be 2bd8 0cbe
00000060: cd7e a53a ea4e 0bbc bc37 d23d f729 c0bb
00000070: 440b 51be eb9c c23b afa6 c13c 7613 4d3d
00000080: 5508 803c 4712 d23c d27c 093e 95a9 023c
00000090: d516 8dbd e12f 13be 18f9 d93d cdd5 5a3d
000000a0: d867 26be c738 333d e98f 5d3d 3eea 0f3e
000000b0: c0ac f2bd 2826 37bd 75d6 72bd fa96 bfbd
000000c0: 641a 56bd 94c1 3cbc b57c fc3b 43c5 82bc
000000d0: 558a 1fbe 3220 8a3d fa46 bcbc 1169 213d
000000e0: 3dbc 95bb 0b95 8dbc deb3 9a3d 1fc1 8b3d
000000f0: 4f81 1ebe b7e0 0abe c782 643d 8ceb 09bc
00000100: 0ba5 a2bd 3bc0 b1bc bbe4 bcbd 050b e4bc
00000110: 9e62 05be 914e 34be e408 e43c 3cc0 a2bd
00000120: 52e9 fe3c 2269 0cbe 5d9d 28bd 074c cabc
00000130: cab9 42be f4b3 77bc e0ce 473d 2a6d 02be
00000140: 22c5 70bc b851 b6bd 2a84 a43d 7596 d83d
00000150: 03e3 17bc 48a1 153d 6804 f0bb 979e f1bd
00000160: f1fa 233d c0ec 61bd ad13 e43c ca7f 01be
00000170: da8b c43d ae81 e4bc 8e56 b1bc 92cc 093e
00000180: 88ce 2a3d 37f7 54bc 23cf 15be bb90 ce3c
00000190: 2ac7 bd3d 44b2 c8bd 3452 083d 5d03 2d3e
000001a0: d771 e63d 975d f53d d67a 2a3c 6e4d 2dbd
000001b0: 93d1 683d cd8d 06bd 243d a1bd a61d 9d3d
000001c0: 515d 803d f126 87bb 5635 263c 5d1e 043e
000001d0: 44a5 253e 6b93 c5bd 4c4a f83d b7af a1bc
000001e0: 6f0c 24bd fb4a 00bd b0f6 ebbd 540a f4bd
000001f0: 23a5 22bd 4e3b 05be a580 ee3d ff59 8d3c
00000200: db2d 78bb f74a adbd 7416 59bc 83a9 3cbd
00000210: c5c2 f33c 3027 bebd 21fc a53d 84a4 aa3c
00000220: 4638 123e 745a 81bd 7987 c63d 0ac2 75bd
00000230: 4caf 08bd 9d4e 9a3d 95d3 e23c cd46 a3bd
00000240: 38d4 e93b 6e0b 7ebb 6dd7 ab3d f716 183d
00000250: ba1b 94bb 0a13 2a3c 4531 13be 8e81 e83c
00000260: 9945 34bd 87dc 543d f5b9 fbbd 2c88 14be
00000270: 692b 423c bf92 993d 3c05 8bbb 127f a13d
00000280: 3b87 5ebe 9829 ddbd bda5 723c 9cdc 10be
00000290: 15b3 02bd e88a 38bd 62a1 ebbd a158 22be
000002a0: a62b 213d f958 c93d b869 c5bd 78f3 d5bd
000002b0: 2677 e63b 0b6e 513d 132b a33c 02d6 88bb
000002c0: 6c8e df3b fbae 2e3d 46a5 abbd 2762 cd3c
000002d0: c1df e8bd f81e 623d d39c bbbb a361 ca3d
000002e0: a2ea 98bd d9d1 a33d 3a65 1cbe 7056 1bbe
000002f0: 8f7f ecbd 33ba fcbd 4dff 75bd a0a3 61bd
00000300: 3627 4cbc 396b cfbc a13e 763c 5561 233d
00000310: d7b2 f5bd cc01 0ebe a891 e13d 56fd dfbd

lstm.bias_hh_l0 f4 [200]
0.010945175 -0.14305727 -0.008944446 0.035670247 -0.015462229 -0.16325678 -0.048049357 0.015285094
-0.03947872 -0.09055246 -0.1317673 0.036108483 -0.17941588 -0.10603627 0.006112027 -0.12365262
0.046428926 -0.14790183 -0.100140624 -0.09588089 0.038363714 -0.112103865 0.05289303 -0.09448864
0.17229773 -0.022675045 -0.13896497 -0.045496155 0.052452873 -0.044848535 0.08501132 -0.12090191
-0.12866233 0.117734544 0.03161779 -0.070332766 0.034655515 -0.17258595 -0.0031761676 0.0044094105
-0.00562876 0.050920296 0.052282732 -0.1298181 -0.110314354 0.15832321 0.045218993 -0.13882892
-0.027101796 0.13800971 -0.0047318754 -0.047001395 0.025171459 -0.026471136 0.05360102 -0.05450192
0.015468001 -0.10010486 -0.06673938 -0.17621651 -0.0024375475 -0.17093538 -0.20454921 -0.123284034
-0.040474337 -0.106824614 -0.0015301497 -0.13241412 -0.05096954 0.09383897 -0.085400425 -0.08143624
-0.1807175 0.009695168 0.14796744 0.03360918 -0.048413627 0.031365138 0.042386528 0.04111493
0.023521718 -0.14269783 -0.12137756 0.13673969 -0.047680616 -0.106751144 0.06461747 0.088453695
0.058467396 0.031358693 -0.07077319 -0.015194678 -0.017479228 0.042006966 -0.14370507 0.11054722
0.0814661 0.095766075 0.06856219 0.054560076 -0.06088661 0.042815104 -0.016383732 0.09619874
-0.06726317 0.068754666 0.13784897 0.16842614 -0.013875401 0.068447195 0.03731124 -0.050134927
0.05631421 -0.08231192 0.12061177 0.08524866 0.1129341 0.02633134 -0.08586021 -0.063479
0.10215473 -0.06200939 0.07001745 0.118627846 -0.17726438 -0.010727724 -0.028335921 -0.06414878
0.050099373 0.080239 0.07907963 0.03962297 -0.023015317 0.027261315 0.12165949 0.024199305
-0.021414423 0.019904705 0.15430553 -0.0036193035 -0.15651108 0.11724855 -0.12133908 -0.012741398
-0.18355222 0.04691974 0.07141419 0.05062835 0.16122907 -0.09495554 0.028710943 0.008773752
-0.15817873 0.14327897 -0.09280786 0.02983035 -0.1111161 0.074396975 -0.13073687 -0.20248337
-0.17210677 0.025579225 -0.20885757 -0.08886533 -0.10030221 -0.058193706 0.06992719 -0.06481747
-0.02870333 -0.13336399 -0.01710319 -0.104156084 -0.09696515 -0.11014259 0.15389901 0.04500084
-0.03260878 0.01985344 0.0252302 -0.044573255 0.013017814 0.04469697 0.077175304 -0.0856049
0.067389876 -0.032923322 -0.06389935 -0.01580763 -0.020647712 0.08877247 0.01161968 -0.08578969
-0.09416293 -0.012703812 -0.072080724 -0.12435842 -0.14430356 -0.11198081 0.09531057 -0.0824362
00000000: 6453 333c 9b7d 12be ba8b 12bc f71a 123d
00000010: 4a55 7dbc c92c 27be 67cf 44bd 556e 7a3c
00000020: 70b4 21bd 9173 b9bd 02ee 06be 7de6 133d
00000030: ccb8 37be 8b29 d9bd 6647 c83b 963d fdbd
00000040: 422c 3e3d 9473 17be 8716 cdbd 335d c4bd
00000050: 4523 1d3d b696 e5bd 5da6 583d 4383 c1bd
00000060: d16e 303e 04c1 b9bc d54c 0ebe 2d5a 3abd
00000070: d3d8 563d 19b3 37bd 6a1a ae3d 6c9b f7bd
00000080: 0fc0 03be cf1e f13d a881 013d a00a 90bd
00000090: f1f2 0d3d 5fba 30be 4027 50bb d17c 903b
000000a0: 7671 b8bb cd91 503d 6b26 563d 09ef 04be
000000b0: 7eec e1bd 7b1f 223e 8d37 393d 2b29 0ebe
000000c0: 9604 debc 6b52 0d3e d90d 9bbb 8984 40bd
000000d0: 6034 ce3c ffd9 d8bc be8c 5b3d 683d 5fbd
000000e0: 806d 7d3c c703 cdbd a8ae 88bd 1a72 34be
000000f0: 43bf 1fbb af09 2fbe 5975 51be 577c fcbd
00000100: 6bc8 25bd ddc6 dabd 4e8f c8ba 9197 07be
00000110: 70c5 50bd a52e c03d 6be6 aebd 0bc8 a6bd
00000120: 020e 39be 7bd8 1e3c c784 173e c8a9 093d
00000130: 5e4d 46bd bb78 003d 7f9d 2d3d 2168 283d
00000140: 9eb0 c03c 611f 12be cc94 f8bd 7d05 0c3e
00000150: c04c 43bd 58a0 dabd 2a56 843d 3627 b53d
00000160: 827b 6f3d f971 003d 89f1 90bd 19f3 78bc
00000170: 9930 8fbc 7f0f 2c3d 6c27 13be 9566 e23d
00000180: b3d7 a63d 0121 c43d 556a 8c3d 637a 5f3d
00000190: 3d64 79bd e45e 2f3d 2d37 86bc d803 c53d
000001a0: 46c1 89bd 3fcf 8c3d 4828 0d3e e777 2c3e
000001b0: a655 63bc 0b2e 8c3d acd3 183d 485a 4dbd
000001c0: bba9 663d 2793 a8bd 4e03 f73d d996 ae3d
000001d0: fe49 e73d d3b4 d73c 7ad7 afbd 4701 82bd
000001e0: 8036 d13d 8ffd 7dbd 4f65 8f3d 28f3 f23d
000001f0: cb84 35be 56c3 2fbc bc20 e8bc 7060 83bd
00000200: 0035 4d3d 5854 a43d 80f4 a13d b24b 223d
00000210: 9e8a bcbc 1f53 df3c 9c28 f93d 9f3d c63c
00000220: 4d6d afbc 310f a33c 4502 1e3e d631 6dbb
00000230: 7144 20be 0220 f03d a080 f8bd 4cc1 50bc
00000240: 1df5 3bbe ea2e 403d 9a41 923d ac5f 4f3d
00000250: 3c19 253e 0d78 c2bd 3633 eb3c c8bf 0f3c
00000260: 9bf9 21be b9b7 123e 0c12 bebd c75e f43c
00000270: d690 e3bd 715d 983d e3df 05be cd57 4fbe
00000280: c23c 30be 868b d13c c2de 55be 07ff b5bd
00000290: 3f6b cdbd 865c 6ebd fd35 8f3d 06bf 84bd
000002a0: 3f23 ebbc 9290 08be fd1b 8cbc c94f d5bd
000002b0: aa95 c6bd 7092 e1bd b497 1d3e cd52 383d
000002c0: c990 05bd aea3 a23c 90af ce3c 7292 36bd
000002d0: ab48 553c 2c14 373d 160e 9e3d 9f51 afbd
000002e0: b403 8a3d 9bda 06bd aadd 82bd 017f 81bc
000002f0: 6425 a9bc 57ce b53d 7860 3e3c 81b2 afbd
00000300: 7fd8 c0bd a623 50bc 0f9f 93bd a1af febd
00000310: 50c4 13be 3256 e5bd 3032 c33d 4fd4 a8bd

lstm.weight_ih_l1 f4 [200, 50]
0.008458634 0.19803616 -0.11108256 -0.12354189 -0.09392846 -0.15987873 0.060224954 0.036782753
-0.1269238 0.0014323075 -0.13123222 -0.070547506 -0.06323335 0.01590152 -0.04383986 -0.14758548
-0.12800837 -0.016037587 -0.14996791 0.18181543 -0.032569874 0.13780664 -0.029978313 0.075040475
0.21951605 0.1487658 0.04043878 0.13157573 0.049565103 0.064655684 0.055097606 0.0018622101
-0.003058291 0.033714913 0.003681301 0.072756656 -0.041521545 0.0061463933 -0.043067165 0.14194478
-0.12984818 -0.14361039 0.044578046 0.015989088 -0.06617193 -0.10424705 -0.07989074 0.0903434
-0.17572786 0.14609651 -0.018308772 0.18472192 -0.094842985 0.0092162145 -0.01672 0.11709893
0.04355517 0.035560388 0.038127705 -0.06909652 0.15792283 -0.07205876 -0.03468173 -0.20543954
0.13232069 0.114706285 -0.012536859 -0.17700863 -0.012158029 -0.0154733 0.051834635 -0.14611937
-0.10326246 0.027408754 0.05582694 0.07507547 0.005061737 -0.025008624 0.057304084 -0.10872979
-0.104951486 0.04949556 -0.10656019 0.060903993 -0.0694266 0.055695374 0.0024138608 -0.17968684
-0.17578548 -0.10785935 0.033937152 -0.06477471 0.042136215 -0.0022170735 -0.018959714 -0.20203324
0.028325992 -0.0023066413 -0.18934007 0.01976106 0.13340709 -0.074104615 -0.16730927 -0.11228724
-0.110920765 -0.08047978 -0.15314731 -0.06436989 -0.08888892 0.03690906 -0.1648681 0.048686642
0.10374298 -0.036848016 -0.1446259 -0.017624665 0.059387684 0.1712065 0.0036141411 0.15604216
-0.015957896 0.17607021 0.037473146 -0.13178979 -0.16143832 -0.018054314 0.01376012 -0.041771132
-0.2049755 0.03711482 -0.039312568 -0.05718296 -0.15716767 -0.11737735 -0.21579336 0.15342844
-0.013813695 -0.052024458 0.092407994 0.19725437 -0.10711215 -0.17352773 0.12360685 0.034041088
0.04381184 -0.07976565 -0.18823534 -0.1637343 0.110643774 -0.032757923 -0.011414954 0.2141181
-0.040225327 0.02911505 0.025913842 0.0578309 -0.05102067 -0.048153706 -0.16342287 -0.12233284
-0.044220284 0.0043081506 -0.14620356 -0.0831977 -0.15732947 -0.026607892 0.00026800216 0.013084548
-0.12370879 -0.08926135 -0.0071463124 0.1673582 0.05267883 0.07135778 0.07195118 0.038838226
-0.09319637 0.011040736 0.07660236 0.08980764 -0.07683184 -0.014798813 -0.12415352 -0.1509633
-0.040191233 0.054190967 -0.03269344 0.06862314 -0.013609423 -0.05434125 -0.18632495 0.09223128
-0.09328574 0.0745172 -0.098705724 -0.04736886 -0.13557266 -0.14409578 0.0070764264 0.10549225
0.1713263 0.15028514 0.07903991 0.095160164 0.048858557 -0.09514055 -0.095692515 -0.014595006
-0.155838 0.17393441 0.16385214 -0.02327742 -0.033132575 -0.10505073 -0.01918116 -0.113559686
-0.012602684 -0.079652034 0.07650139 0.056627393 -0.09368542 -0.07197374 -0.03285872 0.09157034
0.10791112 0.19705206 -0.041687813 0.0990562 0.108587205 0.12187424 -0.12131754 -0.017667823
0.09342042 -0.12813406 -0.17276233 -0.050389186 0.027294815 -0.115661465 -0.060369767 0.10588428
0.05784952 -0.13319032 -0.029904183 0.10857847 0.057529867 -0.101766445 0.094889626 -0.13619292
-0.07506021 0.12842457 -0.06382095 -0.07322305 -0.17003402 0.046312302 -0.041605223 -0.14068635
00000000: 1596 0a3c fec9 4a3e 417f e3bd 8803 fdbd
00000010: 905d c0bd 40b7 23be 71ae 763d 83a9 163d
00000020: 50f8 01be 44bc bb3a bd61 06be 367b 90bd
00000030: 7d80 81bd e843 823c 6d91 33bd a620 17be
00000040: a014 03be 4261 83bc 3091 19be d32d 3a3e
00000050: fd67 05bd 2f1d 0d3e 1495 f5bc d2ae 993d
00000060: d1c8 603e 1056 183e 22a3 253d cabb 063e
00000070: c704 4b3d 336a 843d 07ae 613d 6715 f43a
00000080: 9c6d 48bb a618 0a3d fb41 713b 7101 953d
00000090: 7f12 2abd af67 c93b 3267 30bd f959 113e
000000a0: ecf6 04be 9a0e 13be 7897 363d 8cfb 823c
000000b0: 2685 87bd 7a7f d5bd c29d a3bd f605 b93d
000000c0: 01f2 33be 539a 153e 47fc 95bc be27 3d3e
000000d0: 0a3d c2bd 9bff 163c 62f8 88bc 90d1 ef3d
000000e0: e866 323d c5a7 113d cc2b 1c3d 7a82 8dbd
000000f0: 86b6 213e 8b93 93bd 6e0e 0ebd be5e 52be
00000100: 137f 073e 21eb ea3d 6667 4dbc c041 35be
00000110: 7832 47bc b983 7dbc 8e50 543d 51a0 15be
00000120: 457b d3bd 5388 e03c caaa 643d 2bc1 993d
00000130: eddc a53b e3de ccbc b0b7 6a3d b9ad debd
00000140: cef0 d6bd dbbb 4a3d 3b3c dabd 7776 793d
00000150: 892f 8ebd d520 643d dd31 1e3b d4ff 37be
00000160: 1c01 34be 5de5 dcbd af01 0b3d 9aa8 84bd
00000170: 0697 2c3d 524c 11bb 6751 9bbc cde1 4ebe
00000180: e90b e83c 052b 17bb 5de2 41be f2e1 a13c
00000190: de9b 083e 29c4 97bd 1f53 2bbe daf6 e5bd
000001a0: 6d2a e3bd 95d2 a4bd a6d2 1cbe 5cd4 83bd
000001b0: 650b b6bd f42d 173d 2fd3 28be a56b 473d
000001c0: 3377 d43d f2ed 16bd d018 14be 9a61 90bc
000001d0: 8040 733d c250 2f3e 3adb 6c3b 84c9 1f3e
000001e0: 22ba 82bc c04b 343e 717d 193d e7f3 06be
000001f0: 1650 25be a4e6 93bc 2072 613c 3518 2bbd
00000200: 19e5 51be b605 183d 3706 21bd ae38 6abd
00000210: 90f0 20be 8963 f0bd eff8 5cbe 581c 1d3e
00000220: d652 62bc 9917 55bd 6740 bd3d 0dfd 493e
00000230: 9d5d dbbd 41b1 31be 9725 fd3d ab6e 0b3d
00000240: 0b74 333d 2c5c a3bd c4c0 40be f7a9 27be
00000250: 3499 e23d 2c2d 06bd ca05 3bbc c641 5b3e
00000260: 50c3 24bd af82 ee3c 4449 d43c 18e0 6c3d
00000270: 0dfb 50bd d23c 45bd 5358 27be a489 fabd
00000280: 5420 35bd 632b 8d3b 63b6 15be 8e63 aabd
00000290: fa1a 21be cbf8 d9bc a482 8c39 9260 563c
000002a0: 095b fdbd a8ce b6bd 9d2b eabb f35f 2b3e
000002b0: c2c5 573d 0724 923d 245b 933d d514 1f3d
000002c0: bddd bebd 34e4 343c b3e1 9c3d 11ed b73d
000002d0: 035a 9dbd b876 72bc 3344 febd 2096 1abe
000002e0: 909f 24bd 59f7 5d3d 8ee9 05bd 4a8a 8c3d
000002f0: 0ffa 5ebc ee94 5ebd f8cb 3ebe c1e3 bc3d
00000300: 980c bfbd 799c 983d 3a26 cabd da05 42bd
00000310: 8fd3 0abe d88d 13be 5ee1 e73b 520c d83d
00000320: 2970 2f3e 59e4 193e addf a13d 55e3 c23d
00000330: e91f 483d 0cd9 c2bd 70fa c3bd e41f 6fbc
00000340: ff93 1fbe dd1b 323e dbc8 273e 4ab0 bebc
00000350: 06b6 07bd d624 d7bd cf21 9dbc fb91 e8bd
00000360: 7d7b 4ebc 9b20 a3bd c3ac 9c3d 20f2 673d
00000370: 24de bfbd f866 93bd dd96 06bd 3b89 bb3d
00000380: 8100 dd3d 04c8 493e d7c0 2abd fadd ca3d
00000390: f862 de3d 3499 f93d 5575 f8bd 1cbc 90bc
000003a0: 3553 bf3d 9335 03be 9ce8 30be e464 4ebd
000003b0: 6099 df3c ebdf ecbd 4a46 77bd dbd9 d83d
000003c0: 9ef3 6c3d 0b63 08be 9ef9 f4bc 645e de3d
000003d0: 70a4 6b3d ed6a d0bd 7e55 c23d 2876 0bbe
000003e0: 2bb9 99bd bb81 033e 8fb4 82bd f7f5 95bd
000003f0: 661d 2ebe f8b1 3d3d 3d6a 2abd 1510 10be

lstm.weight_hh_l1 f4 [200, 50]
-0.14934894 0.05400881 -0.09037409 0.0011213309 0.101015896 -0.04342001 -0.061325543 0.05001281
0.14924854 -0.07705256 -0.013804475 -0.039338794 0.076997176 0.056679595 0.03588513 -0.025125233
0.026546597 0.09451918 0.044978824 -0.07103387 0.07057432 -0.13845965 0.120928295 -0.011302821
0.08438733 0.038237073 -0.16126613 0.11931285 0.11679881 0.0382916 -0.17226218 -0.019281644
-0.11287719 0.1734542 0.06291982 0.13624561 0.072424926 0.09885025 -0.0034282727 -0.05830896
0.024990667 -0.02014688 -0.1204901 -0.14612754 -0.16446285 0.0051639006 -0.1597731 0.026300132
-0.027909905 -0.07511985 0.13006982 -0.051751807 0.1560566 -0.091139026 -0.022183422 -0.10589152
0.10133084 -0.13855185 0.093606144 -0.091961816 -0.09855279 -0.03871336 0.033162337 0.0077004805
-0.15533459 0.13520685 0.054804184 -0.11237503 0.123689465 -0.14965244 0.00013685382 0.14107995
0.028985275 -0.001825198 0.023811562 0.21105565 0.008792906 -0.10375358 0.13251364 0.103178784
0.093994685 -0.11744387 -0.041182157 -0.037555818 -0.112543136 -0.0070005995 0.058407553 -0.0877771
0.006943811 -0.15770587 -0.051065046 -0.09851963 -0.0680054 0.046494316 -0.0201712 0.06183232
0.14920495 -0.07982963 0.09028284 -0.22119936 -0.11881947 -0.028909644 -0.057176586 0.09510839
-0.0053539146 0.020910561 0.038452867 0.07585946 -0.012635956 0.04104391 -0.14474249 -0.08084281
0.1451696 -0.13654181 0.060321175 0.012410567 0.16934031 -0.11431218 0.05488024 -0.05505418
0.046881024 -0.19513904 0.016783021 -0.055131156 0.05786215 -0.01883075 0.009895655 -0.021221118
0.07665644 0.070573166 -0.008502494 -0.028197732 -0.049213246 0.07879666 -0.017836217 0.0046871197
-0.04838875 0.024512295 -0.11332133 0.056216005 -0.011282785 0.04803958 -0.08225559 0.061545506
0.010337952 -0.0111999195 0.065293446 -0.1360853 -0.051032268 -0.023595702 -0.09625972 -0.016499974
-0.030337235 0.12162624 0.051241387 -0.02621353 -0.04884278 -0.15935598 0.02144862 0.060696937
-0.22483064 -0.059702348 0.06504564 -0.11587314 -0.024047816 -0.042186167 0.006712504 -0.14873503
-0.08190076 -0.052896645 0.056821853 -0.099024266 0.16502571 -0.07771243 -0.04045061 -0.18915612
-0.05112866 -0.0042363275 -0.047610253 -0.09459668 -0.11783242 -0.10357146 -0.038861714 0.17069234
0.09243349 -0.09418127 0.04137845 0.038352847 0.019272594 0.059341192 0.0545667 0.050479848
0.021426493 -0.12054963 0.023840845 -0.13842124 0.028825132 0.07982171 0.045126542 -0.17707737
-0.094667055 0.07117346 0.05993329 -0.09937635 -0.05117809 -0.14537655 -0.13455772 -0.013020273
0.039006453 -0.034616854 -0.27038074 0.17774744 -0.029661365 -0.106928594 0.14636753 -0.09039974
0.170019 -0.14342166 -0.08934334 -0.09493145 0.13180189 -0.11183254 0.08195618 0.049627192
-0.14211574 0.07541187 0.02299602 0.13611592 -0.11165578 -0.07988837 -0.15264963 -0.08216035
-0.11436332 0.14732708 0.07214401 0.17654814 -0.031654406 0.016730595 0.07136941 -0.083647795
-0.03250617 -0.05288998 -0.034732204 -0.002856102 0.025762958 -0.21324882 -0.110006556 0.055876873
0.024060354 -0.13136002 -0.039548293 -0.06641596 -0.040291045 0.018291846 0.085187614 -0.08320969
00000000: eeee 18be 5838 5d3d 0d16 b9bd 9ff9 923a
00000010: 6ce1 ce3d 2ed9 31bd 7e30 7bbd 3bda 4c3d
00000020: 9cd4 183e bccd 9dbd 2a2c 62bc b721 21bd
00000030: b2b0 9d3d dd28 683d 49fc 123d 6fd3 cdbc
00000040: 4078 d93c 4693 c13d b73b 383d 357a 91bd
00000050: 4589 903d 5ec8 0dbe 41a9 f73d 782f 39bc
00000060: 44d3 ac3d 7a9e 1c3d f322 25be 4c5a f43d
00000070: 3734 ef3d a7d7 1c3d 7f65 30be 8af4 9dbc
00000080: 282c e7bd fa9d 313e 1bdc 803d f883 0b3e
00000090: 8553 943d 0072 ca3d dfac 60bb 60d5 6ebd
000000a0: 3ab9 cc3c 120b a5bc 83c3 f6bd 75a2 15be
000000b0: f368 28be f035 a93b 8f9b 23be 6073 d73c
000000c0: 50a3 e4bc 70d8 99bd 0631 053e b4f9 53bd
000000d0: 4dcd 1f3e 19a7 babd 02ba b5bc a7dd d8bd
000000e0: 8b86 cf3d 89e0 0dbe 94b4 bf3d 7a56 bcbd
000000f0: 0cd6 c9bd e691 1ebd 3bd5 073d 5054 fc3b
00000100: 0810 1fbe aa73 0a3e 5a7a 603d e124 e6bd
00000110: e750 fd3d 7d3e 19be 6b80 0f39 4377 103e
00000120: 8772 ed3c 7b3b efba 7710 c33c f91e 583e
00000130: 1f10 103c c27c d4bd a8b1 073e 664f d33d
00000140: 4980 c03d 6986 f0bd 9fae 28bd 21d4 19bd
00000150: 047d e6bd 4965 e5bb c23c 6f3d 7bc4 b3bd
00000160: e988 e33b a67d 21be 9529 51bd a9c4 c9bd
00000170: 6a46 8bbd d370 3e3d 133e a5bc e343 7d3d
00000180: 2fc9 183e b87d a3bd 36e6 b83d 1682 62be
00000190: 9f57 f3bd ebd3 ecbc ff31 6abd 30c8 c23d
000001a0: e46f afbb a04c ab3c c180 1d3d 345c 9b3d
000001b0: 0a07 4fbc a91d 283d 6037 14be ea90 a5bd
000001c0: 57a7 143e 9ed1 0bbe 5613 773d b155 4b3c
000001d0: 8c67 2d3e 811c eabd 1aca 603d 7e80 61bd
000001e0: 5106 403d 87d2 47be 8c7c 893c 35d1 61bd
000001f0: dd00 6d3d f242 9abc 6321 223c e9d7 adbc
00000200: 0dfe 9c3d aa88 903d 0b4e 0bbc eefe e6bc
00000210: d493 49bd 2560 a13d 421d 92bc 6996 993b
00000220: 4833 46bd 02ce c83c 0315 e8bd c142 663d
00000230: 6edb 38bc 27c5 443d 9e75 a8bd 2417 7c3d
00000240: 8360 293c de7f 37bc 92b8 853d f259 0bbe
00000250: 3607 51bd c64b c1bc d123 c5bd f42a 87bc
00000260: cb85 f8bc 2e17 f93d 7de2 513d c2bd d6bc
00000270: 5e0f 48bd 372e 23be 04b5 af3c 5a9d 783d
00000280: 013a 66be 738a 74bd a636 853d e64e edbd
00000290: edff c4bc 67cb 2cbd 91f4 db3b ff4d 18be
000002a0: 96bb a7bd 27aa 58bd 08be 683d 3ccd cabd
000002b0: 80fc 283e b227 9fbd 8aaf 25bd 24b2 41be
000002c0: 496c 51bd e4d0 8abb f802 43bd e7bb c1bd
000002d0: 2052 f1bd 461d d4bd 762d 1fbd f9c9 2e3e
000002e0: c54d bd3d 1ce2 c0bd 737c 293d e017 1d3d
000002f0: 8fe1 9d3c c00f 733d 5581 5f3d f5c3 4e3d
00000300: 9d86 af3c b9e2 f6bd e04d c33c 4cbe 0dbe
00000310: af22 ec3c 9179 a33d 9cd6 383d c553 35be
00000320: cde0 c1bd 64c3 913d 9c7c 753d d485 cbbd
00000330: 1ea0 51bd 97dd 14be 80c9 09be fc52 55bc
00000340: 3bc5 1f3d 67ca 0dbd 586f 8abe 6d03 363e
00000350: 64fc f2bc 61fd dabd 5fe1 153e 8023 b9bd
00000360: 7619 2e3e 21dd 12be a4f9 b6bd 6c6b c2bd
00000370: 13f7 063e 7508 e5bd a4d8 a73d e245 4b3d
00000380: ca86 11be 8a71 9a3d 2662 bc3c f961 0b3e
00000390: c9ab e4bd 849c a3bd 2f50 1cbe b043 a8bd
000003a0: 5137 eabd e9dc 163e 3dc0 933d 09c9 343e
000003b0: 0da8 01bd 9a0e 893c 202a 923d 894f abbd
000003c0: 3125 05bd 2aa3 58bd 5b43 0ebd 712d 3bbb
000003d0: d70c d33c e65d 5abe 1e4b e1bd 26df 643d
000003e0: 381a c53c 3e83 06be 64fd 21bd 1705 88bd
000003f0: 3908 25bd c8d8 953c d876 ae3d d869 aabd

lstm.bias_ih_l1 f4 [200]
-0.008638391 0.16795963 -0.068406284 -0.14083585 -0.011108928 0.0074712513 -0.015658697 -0.06349626
0.019567598 0.099111415 0.025234172 -0.050134923 0.10472715 0.025845444 -0.08379993 -0.17925565
-0.09735698 -0.024440495 -0.23499256 -0.05066883 -0.082218826 0.07340294 0.010557787 0.09271176
-0.0736419 0.016908126 0.022383893 0.04218571 -0.18209761 0.07351157 0.044022836 -0.12652504
-0.11864855 0.0684752 -0.13595292 -0.11131618 -0.06899272 0.04254456 0.13261166 -0.032426365
-0.22051376 -0.15498377 -0.056221902 -0.06449405 -0.047841825 -0.030495403 0.05900744 -0.20101437
-0.17581603 0.13596271 -0.13203493 -0.041933358 0.04053985 -0.103012845 -0.09010887 -0.1574628
-0.117770664 0.04046341 -0.083454214 0.107676595 0.059433583 -0.1472968 -0.004075635 -0.05951095
-0.14931722 -0.23453878 0.08847375 0.012388131 -0.05364933 0.025767393 0.11292055 -0.14908877
0.041116957 0.10349539 0.14708222 -0.014396163 -0.15441693 0.07851726 -0.24007301 -0.13744302
-0.11638468 0.03539414 0.032393903 -0.088721044 -0.09134431 -0.18681732 -0.006162972 -0.053807266
0.14022048 0.14518322 -0.051199514 -0.17245561 -0.19989802 0.13727501 0.045797564 -0.06335334
-0.09806819 0.006089079 0.009517302 -0.071982756 0.13013262 -0.06321091 0.009771787 -0.16363077
-0.16816011 -0.037577737 0.013239792 0.04575975 -0.07258186 0.15412918 0.04541103 0.00043250248
-0.020986974 0.0023484726 -0.14584428 0.015952678 -0.11817207 0.11752436 0.010113366 0.02459749
-0.1242778 0.07482708 -0.21061312 0.16815725 0.14339778 -0.0753239 0.08898358 -0.06251138
0.077885084 0.16897886 0.095140584 0.10949835 0.09736826 -0.16899869 -0.061712716 0.10304721
0.020493923 -0.05850164 0.19896975 -0.17680217 0.110175945 -0.057183288 0.029902408 0.18091604
0.17447564 0.1512224 0.11462714 -0.001964696 0.12870736 0.2041376 -0.11866857 -0.023212036
0.032133397 -0.037076518 -0.12484199 0.048788514 -0.048478916 0.042964935 -0.15065125 -0.08593549
-0.13820481 0.01569756 0.052029204 -0.109811306 -0.10728999 -0.0773007 -0.0037473096 -0.024640495
-0.12356395 0.024047645 -0.15613358 0.10872084 0.13469008 0.022507627 0.09271616 -0.16538493
-0.059504602 -0.119287126 -0.11836141 0.12101857 0.027012851 -0.067927994 -0.10587308 -0.058282964
-0.13725196 -0.23090737 -0.14115098 -0.1747826 -0.079167746 0.091745704 -0.10076602 -0.1984099
0.0155128585 0.0051301853 -0.09118979 -0.026378129 -0.021996755 -0.024390249 -0.18595374 -0.0009395693
00000000: 0a88 0dbc 9cfd 2b3e 9818 8cbd 4637 10be
00000010: 3902 36bc 66d1 f43b ab46 80bc 540a 82bd
00000020: 3a4c a03c edfa ca3d e5b7 ce3c 475a 4dbd
00000030: 307b d63d d3b9 d33c 4c9f abbd cb8e 37be
00000040: 1963 c7bd 6f37 c8bc e4a1 70be 1e8a 4fbd
00000050: 5862 a8bd 4854 963d 91fa 2c3c aadf bd3d
00000060: 91d1 96bd e982 8a3c 6d5e b73c ecca 2c3d
00000070: cc77 3abe 3c8d 963d 4a51 343d c88f 01be
00000080: 03fe f2bd ba3c 8c3d 3e37 0bbe bdf9 e3bd
00000090: 0e4c 8dbd 3443 2e3d 5acb 073e 82d1 04bd
000000a0: 5cce 61be 11b4 1ebe f048 66bd 7515 84bd
000000b0: caf5 43bd 7fd1 f9bc c9b1 713d b6d6 4dbe
000000c0: 1e09 34be cf39 0b3e 2a34 07be 50c2 2bbd
000000d0: 1d0d 263d 66f8 d2bd 008b b8bd ee3d 21be
000000e0: bf31 f1bd f6bc 253d 0bea aabd 8c85 dc3d
000000f0: a170 733d f9d4 16be e88c 85bb c1c1 73bd
00000100: 9de6 18be ef2a 70be ba31 b53d 96f7 4a3c
00000110: 66bf 5bbd 2416 d33c e442 e73d baaa 18be
00000120: 416a 283d 64f5 d33d b99c 163e e2dd 6bbc
00000130: 791f 1ebe a8cd a03d b3d5 75be ddbd 0cbe
00000140: 175b eebd 72f9 103d 78af 043d 61b3 b5bd
00000150: ba12 bbbd 0a4d 3fbe c2f2 c9bb 0265 5cbd
00000160: f595 0f3e e9aa 143e 95b6 51bd 3498 30be
00000170: 11b2 4cbe d291 0c3e 3a96 3b3d 65bf 81bd
00000180: fad7 c8bd e686 c73b 75ee 1b3c b26b 93bd
00000190: 7c41 053e b974 81bd d819 203c d38e 27be
000001a0: 2a32 2cbe 1deb 19bd b6eb 583c 936e 3b3d
000001b0: cca5 94bd 0ad4 1d3e eb00 3a3d 80c1 e239
000001c0: e0ec abbc d5e8 193b 3458 15be 31af 823c
000001d0: 3304 f2bd 9db0 f03d 88b2 253c ad80 c93c
000001e0: 5c85 febd f13e 993d f7aa 57be 6a31 2c3e
000001f0: ded6 123e 6b43 9abd 063d b63d f705 80bd
00000200: 3782 9f3d cb08 2d3e 11d9 c23d ac40 e03d
00000210: 0369 c73d fe0d 2dbe 79c6 7cbd 6a0a d33d
00000220: dfe2 a73c 6a9f 6fbd babe 4b3e a10b 35be
00000230: eda3 e13d 0639 6abd e5f5 f43c 0e42 393e
00000240: bea9 323e 0bda 1a3e a2c1 ea3d 21c2 00bb
00000250: ddcb 033e 7209 513e 8208 f3bd 2b27 bebc
00000260: 4f9e 033d 8cdd 17bd 28ad ffbd 77d6 473d
00000270: d491 46bd 00fc 2f3d 5244 1abe f2fe afbd
00000280: 9085 0dbe 2b98 803c 931c 553d c0e4 e0bd
00000290: dbba dbbd d44f 9ebd 6c95 75bb ddda c9bc
000002a0: 190f fdbd 91ff c43c 7be1 1fbe 08a9 de3d
000002b0: 32ec 093e ea61 b83c f8e1 bd3d ab5a 29be
000002c0: 19bb 73bd cf4c f4bd 7867 f2bd 96d8 f73d
000002d0: 0e4a dd3c d51d 8bbd fcd3 d8bd 1eba 6ebd
000002e0: c78b 0cbe fb72 6cbe e289 10be 36fa 32be
000002f0: b322 a2bd 2ce5 bb3d 6a5e cebd f72b 4bbe
00000300: a529 7e3c 1d1b a83b b6c1 babd f216 d8bc
00000310: 8a32 b4bc 0fce c7bc a86a 3ebe 6e4d 76ba

lstm.bias_hh_l1 f4 [200]
-0.13922259 0.09138302 0.008819167 -0.14508681 0.13126361 -0.18129165 -0.116005026 0.11363366
-0.20004934 -0.069534644 0.030449437 -0.0831903 -0.053126916 0.07218849 -0.0994462 -0.15909326
-0.08185112 -0.039401587 -0.12821805 -0.029308908 -0.0883371 0.1278456 0.049826764 -0.01999315
0.07746111 -0.14230625 -0.103434175 0.056823835 -0.18632671 -0.11516797 -0.063750744 -0.08754474
-0.1266464 0.024979325 -0.08368795 -0.0704541 -0.10447393 -0.20446107 0.16371475 -0.014644163
-0.1253283 -0.079251386 0.035101645 0.075529255 0.07192854 -0.10424917 0.002915379 -0.18427385
0.045073435 -0.035095166 -0.02881333 0.041492306 -0.07444739 -0.15452465 0.13924687 -0.020760056
-0.010207309 -0.1033221 -0.11376407 -0.023327501 -0.11329412 0.032627005 0.008934174 -0.017375113
0.058727004 -0.20185998 0.019046567 0.050592262 -0.17125814 0.08686178 0.011761573 0.042701736
0.17794232 0.12686168 0.13041732 -0.018175915 -0.18264756 -0.029694648 -0.11162136 0.03799292
-0.0768937 -0.10792199 -0.10094653 -0.04318484 0.053617086 -0.063245475 -0.06266505 0.04370622
0.03177025 -0.010718944 -0.2106374 -0.03102509 -0.09394032 0.13705692 0.10322484 -0.0083621
-0.035397828 -0.103023216 -0.1301593 -0.0043692174 0.06779449 -0.20765574 0.109826855 0.0019305558
-0.21421057 0.15570067 0.03533328 -0.03938005 0.04237696 0.11597502 -0.012871052 -0.045051247
-0.16867915 -0.04402375 -0.05149631 -0.06653386 -0.15727805 0.010767335 -0.05713985 -0.22392753
-0.1359056 0.065168865 -0.17813058 0.06280785 0.19776535 0.10667426 -0.060389247 -0.14700826
-0.15050496 0.0450403 0.06923496 -0.09274045 0.01734044 -0.09074865 -0.0037088383 -0.020644298
-0.1579098 0.17128423 0.118413694 -0.10871181 0.010956596 0.04717463 -0.13844779 0.08254568
0.02765992 -0.022980908 0.17209138 -0.024240015 -0.11347724 0.0020293489 -0.030203756 -0.10887156
-0.09197487 5.8735026e-05 0.12256849 -0.12728864 -0.25474194 0.045340694 0.040092733 0.021922937
0.03411881 -0.09799583 -0.16714689 -0.166903 0.017557159 -0.081167325 -0.095115215 0.010067413
-0.22416325 0.074581176 0.11387332 -0.024442252 -0.038485497 0.012149197 0.09664197 -0.12355724
-0.17174704 0.03421494 -0.03323179 -0.04078293 -0.0712795 -0.052831076 -0.17116058 0.0049044993
-0.07740315 -0.2531801 0.07160929 -0.035479758 -0.019793952 -0.03757255 -0.24445081 -0.008024785
-0.023285178 -0.028914131 -0.13820669 -0.031329505 -0.002989437 -0.19687565 -0.0030383547 -0.1684888
00000000: 5e90 0ebe 0527 bb3d 447e 103c a391 14be
00000010: f869 063e 85a4 39be 0b94 edbd c4b8 e83d
00000020: bcd9 4cbe 2e68 8ebd 1971 f93c ad5f aabd
00000030: 9c9b 59bd 8fd7 933d 73aa cbbd 58e9 22be
00000040: 8fa1 a7bd 8f63 21bd 984b 03be 3c19 f0bc
00000050: 15ea b4bd f5e9 023e 2617 4c3d adc8 a3bc
00000060: eea3 9e3d bbb8 11be 4cd5 d3bd 1cc0 683d
00000070: 6ecc 3ebe 2fdd ebbd c08f 82bd a84a b3bd
00000080: 98af 01be 71a1 cc3c 9764 abbd 3d4a 90bd
00000090: 6ef6 d5bd 3e5e 51be d7a4 273e 12ee 6fbc
000000a0: 1056 00be 8d4e a2bd bec6 0f3d 15af 9a3d
000000b0: 454f 933d 9780 d5bd f10f 3f3b 49b2 3cbe
000000c0: ec9e 383d f3bf 0fbd ef09 ecbc d6f3 293d
000000d0: e077 98bd b63b 1ebe bb96 0e3e fe10 aabc
000000e0: 8f3c 27bc 8a9a d3bd 23fd e8bd 5119 bfbc
000000f0: bf06 e8bd e5a3 053d a460 123c 4156 8ebc
00000100: ba8b 703d 62b4 4ebe 8c07 9c3c d539 4f3d
00000110: 4b5e 2fbe 97e4 b13d 9db3 403c 04e8 2e3d
00000120: 8336 363e 07e8 013e 1e8c 053e a8e5 94bc
00000130: f607 3bbe 3142 f3bc bd99 e4bd 779e 1b3d
00000140: 727a 9dbd 3406 ddbd 0ebd cebd 96e2 30bd
00000150: 979d 5b3d d886 81bd 8956 80bd 4b05 333d
00000160: 8621 023d 829e 2fbc 55b1 57be 5428 febc
00000170: c863 c0bd a658 0c3e 8b67 d33d 3101 09bc
00000180: 50fd 10bd d6fd d2bd 7b48 05be a72b 8fbb
00000190: d6d7 8a3d b5a3 54be e7ec e03d b40a fd3a
000001a0: 045a 5bbe ff6f 1f3e a1b9 103d fa4c 21bd
000001b0: 7793 2d3d 5084 ed3d 1be1 52bc a887 38bd
000001c0: 3aba 2cbe 3f52 34bd cbed 52bd e842 88bd
000001d0: 7f0d 21be 7a69 303c 7a0b 6abd 424d 65be
000001e0: d62a 0bbe 4177 853d dd67 36be 67a1 803d
000001f0: 0083 4a3e 0978 da3d b75a 77bd 5589 16be
00000200: f91d 1abe 2d7c 383d 0fcb 8d3d b4ee bdbd
00000210: 8a0d 8e3c 6eda b9bd fb0f 73bb 3b1e a9bc
00000220: 1bb3 21be 2265 2f3e e182 f23d 4ca4 debd
00000230: 4b83 333c 2f3a 413d 42c5 0dbe b60d a93d
00000240: 0e97 e23c 7542 bcbc b938 303e ff92 c6bc
00000250: c166 e8bd d3fe 043b de6d f7bc 0df8 debd
00000260: 525d bcbd 415a 7638 3005 fb3d f457 02be
00000270: 896d 82be 2ab7 393d 4738 243d bb97 b33c
00000280: 2ac0 0b3d 0ab2 c8bd 8e28 2bbe 9fe8 2abe
00000290: 08d4 8f3c 0e3b a6bd c4cb c2bd caf1 243c
000002a0: 0d8b 65be 04be 983d 6a36 e93d 1e3b c8bc
000002b0: f8a2 1dbd 6d0d 473c 3aec c53d 940b fdbd
000002c0: 75de 2fbe f724 0c3d 0f1e 08bd 000c 27bd
000002d0: fdfa 91bd 6665 58bd b844 2fbe ecb5 a03b
000002e0: 8b85 9ebd d2a0 81be e4a7 923d 3953 11bd
000002f0: ed26 a2bc ade5 19bd 5051 7abe 637a 03bc
00000300: 8fc0 bebc 54dd ecbc 0e86 0dbe 5e53 00bd
00000310: 6eea 43bb c599 49be 221f 47bb 5488 2cbe

lstm.weight_ih_l2 f4 [200, 50]
-0.005562877 -0.056316633 -0.05970237 -0.057162825 0.0143954065 0.03272238 0.088588744 -0.041109808
-0.028935362 -0.03566468 -0.23548394 0.11742887 0.110194944 0.054408215 0.055811994 -0.08806571
0.09556163 -0.1804175 -0.07148515 0.21113883 -0.025434913 0.079007275 -0.061299294 0.04048451
-0.20159274 -0.08001637 -0.19054854 -0.015930455 0.059897557 -0.039385714 -0.060899846 -0.10142572
0.031770244 0.18009147 0.18335265 0.0048092003 -0.036044214 -0.14985158 -0.17835557 0.025704434
-0.07158907 -0.20913194 -0.0068720463 0.030307088 -0.024494777 -0.19861856 -0.093131125 0.05795717
0.14407216 -0.15066516 -0.16567448 0.09391801 0.0651265 -0.07947813 -0.07227412 -0.16222015
-0.015767166 -0.009406039 0.024720099 -0.035901967 -0.1273137 0.063964166 0.0409082 0.11549755
-0.06681428 0.05048225 0.049807966 0.004901103 -0.14294572 0.07968034 0.050934907 -0.037923757
0.11718872 -0.012380383 0.08232907 -0.056551453 -0.010749865 -0.056257986 -0.022284992 -0.048435256
-0.1758728 -0.021387463 -0.04496874 0.075965405 0.054474782 0.032435615 0.16981046 -0.1770722
-0.15346913 0.0804716 0.10322382 -0.076058395 -0.07771928 -0.17110169 -0.045587435 -0.21107967
-0.054649066 -0.067900114 0.13178225 -0.1910454 -0.18669473 0.14499454 -0.18685874 0.15431799
0.041552033 -0.025240129 0.10514132 0.055020787 0.025720347 -0.15670736 -0.17613252 -0.0318436
0.091789454 0.037510056 0.12633692 0.15222521 0.098090604 -0.12814002 -0.060836047 0.19346322
0.10986667 -0.120708615 0.10236272 0.008494765 -0.08324387 0.094194286 0.020778354 0.05151497
0.09696832 -0.04513227 -0.08852554 -0.14079493 -0.17146811 0.18057287 -0.08841178 -0.16279691
-0.024255356 -0.1156748 0.04542328 0.03235262 0.1710768 -0.19054052 0.03097919 0.06939794
0.023327177 -0.02853718 -0.13691533 -0.029580005 -0.026726436 0.056006208 -0.07562745 0.15351796
0.11752207 0.032587618 0.12374801 -0.043591566 -0.06906584 -0.014201574 0.008200816 -0.09711523
0.01511319 -0.12812944 0.0117643485 0.17708863 -0.11178284 0.06689723 -0.05834615 -0.18839851
0.07986753 -0.014993088 -0.11709269 -0.11403422 0.1250808 -0.0725019 -0.1317034 -0.0026263804
0.07893381 -0.10556277 0.2795692 -0.042690534 0.01143537 0.2861135 -0.08258167 -0.10052494
-0.095996104 0.022493329 -0.016471438 -0.045900036 -0.13248454 0.03274474 0.08528134 0.031560943
0.020353502 0.005716248 -0.03628484 -0.19186696 0.099951945 -0.047724485 -0.04827426 -0.13465767
0.050239645 -0.05699538 -0.024780566 0.111272395 0.096696325 0.035569586 0.119509704 -0.16196604
-0.090508096 -0.10808382 -0.18506233 0.13254476 0.025130723 -0.10075475 0.16090186 -0.105136275
0.06790158 0.050034642 -0.1439396 0.086277485 0.07261909 -0.04548379 0.08762589 -0.15408139
-0.07795407 -0.10590784 -0.13094488 0.1279399 -0.14318857 -0.15423246 -0.10287869 -0.022492431
-0.13860708 -0.0869865 0.05749725 0.049099147 0.022785528 -0.066776894 -0.018290712 -0.08554593
-0.10038568 -0.008510828 0.008593433 -0.041377034 -0.102924086 -0.07864479 -0.07758985 0.03202351
0.16428111 0.017415563 -0.1722057 0.13231857 -0.053339116 -0.055197302 0.18991211 0.032461885
00000000: cb48 b6bb 45ac 66bd 798a 74bd 9123 6abd
00000010: b6da 6b3c e707 063d 046e b53d c262 28bd
00000020: da09 edbc 2115 12bd b422 71be 8c7e f03d
00000030: e3ad e13d 26db 5e3d 1e9b 643d cc5b b4bd
00000040: d1b5 c33d 5dbf 38be ce66 92bd c734 583e
00000050: e15c d0bc 91ce a13d f814 7bbd 16d3 253d
00000060: 546e 4ebe 9fdf a3bd 281f 43be 9680 82bc
00000070: 2457 753d ea52 21bd 1e72 79bd 4ab8 cfbd
00000080: 8421 023d e669 383e ccc0 3b3e 7f96 9d3b
00000090: 19a3 13bd b172 19be d8a2 36be 1b92 d23c
000000a0: 4a9d 92bd af26 56be e72e e1bb 9246 f83c
000000b0: 45a9 c8bc aa62 4bbe 88bb bebd 7f64 6d3d
000000c0: a787 133e f847 1abe 92a6 29be 1658 c03d
000000d0: 0b61 853d 6ec5 a2bd 7404 94bd 0a1d 26be
000000e0: 252a 81bc c91b 1abc ce81 ca3c f10d 13bd
000000f0: 865e 02be a5ff 823d 5b8f 273d fb89 ec3d
00000100: edd5 88bd 7ac6 4e3d 7003 4c3d 6f99 a03b
00000110: 5d60 12be 722f a33d 1fa1 503d f155 1bbd
00000120: a400 f03d 17d7 4abc 259c a83d 7fa2 67bd
00000130: 3420 30bc c66e 66bd 048f b6bc 0c64 46bd
00000140: 0018 34be c334 afbc 2431 38bd c093 9b3d
00000150: f320 5f3d 35db 043d cbe2 2d3e 6a52 35be
00000160: 0327 1dbe 4bce a43d 0367 d33d 81c4 9bbd
00000170: 492b 9fbd 4835 2fbe e4b9 3abd 4525 58be
00000180: b3d7 5fbd 370f 8bbd edf1 063e 68a1 43be
00000190: e72c 3fbe 7379 143e e657 3fbe 8905 1e3e
000001a0: 7732 2a3d 63c4 cebc 5554 d73d 7a5d 613d
000001b0: 7ab3 d23c e577 20be 155c 34be 6f6e 02bd
000001c0: 1cfc bb3d 25a4 193d 775e 013e ede0 1b3e
000001d0: bae3 c83d 2337 03be 382f 79bd 391b 463e
000001e0: c701 e13d 1436 f7bd 8ca3 d13d a02d 0b3c
000001f0: c37b aabd efe8 c03d 5e37 aa3c 5c01 533d
00000200: 5497 c63d 9ddc 38bd e14c b5bd 8c2c 10be
00000210: 5695 2fbe 18e8 383e 3c11 b5bd 3cb4 26be
00000220: 2bb3 c6bc e9e6 ecbd c30d 3a3d 2e84 043d
00000230: c22e 2f3e 0e1d 43be 12c8 fd3c 8220 8e3d
00000240: a318 bf3c cec6 e9bc 8833 0cbe c451 f2bc
00000250: 66f1 dabc c466 653d 91e2 9abd d033 1d3e
00000260: 69af f03d 987a 053d 996f fd3d 128d 32bd
00000270: 6472 8dbd b8ad 68bc b75c 063c 5ae4 c6bd
00000280: 509d 773c 5d34 03be 41bf 403c b956 353e
00000290: 67ee e4bd 6a01 893d 5ffc 6ebd 8aeb 40be
000002a0: 9691 a33d 92a5 75bc 4bce efbd c68a e9bd
000002b0: 2e15 003e e07b 94bd 42dd 06be 5a1f 2cbb
000002c0: 0da8 a13d 4b31 d8bd b223 8f3e 45dc 2ebd
000002d0: 6b5b 3b3c 787d 923e 9420 a9bd 05e0 cdbd
000002e0: 9b99 c4bd ee43 b83c 1cef 86bc ad01 3cbd
000002f0: 07aa 07be 591f 063d fca7 ae3d 0c46 013d
00000300: 63bc a63c 5d4f bb3b 6a9f 14bd c678 44be
00000310: 9bb3 cc3d c07a 43bd 3bbb 45bd b3e3 09be
00000320: 16c8 4d3d fd73 69bd 9d00 cbbc c8e2 e33d
00000330: b908 c63d 6ab1 113d 81c1 f43d 6dda 25be
00000340: 4f5c b9bd 0d5b ddbd fb80 3dbe d0b9 073e
00000350: f2de cd3c 8258 cebd 75c3 243e b051 d7bd
00000360: fc0f 8b3d 20f1 4c3d e764 13be 40b2 b03d
00000370: 51b9 943d 364d 3abd 3475 b33d 83c7 1dbe
00000380: 62a6 9fbd 36e6 d8bd 6a16 06be ad02 033e
00000390: 06a0 12be 1def 1dbe 10b2 d2bd 0c42 b8bc
000003a0: 04ef 0dbe fa25 b2bd 3d82 6b3d 301c 493d
000003b0: b7a8 ba3c 53c2 88bd 67d6 95bc b432 afbd
000003c0: 0297 cdbd 0071 0bbc 78cb 0c3c f77a 29bd
000003d0: ddc9 d2bd 8510 a1bd 6de7 9ebd 162b 033d
000003e0: 4f39 283e 15ab 8e3c b156 30be 857e 073e
000003f0: 1e7a 5abd 9116 62bd 5278 423e c1f6 043d
