models/lstm/consumption/saved_model/consumption_lstm.pth (torch, 293094 bytes, 17 tensors)

lstm.weight_ih_l0 f4 [200, 1]
0	0x3d864f6b	0.065581165
1	0xbee77f79	-0.4521444
2	0xbe8726e2	-0.26396853
3	0xbfe30d3a	-1.7738411
4	0xbfef4257	-1.869212
5	0xbe59862f	-0.21242593
6	0x3e9ece7f	0.3101692
7	0x3ebf148a	0.37320358
8	0xbfa21d2b	-1.2665151
9	0xbddc1ed9	-0.10748071
10	0xbe28afe4	-0.16473347
11	0xbfa4b1d6	-1.2866771
12	0xbdc5ee43	-0.096645854
13	0xbdd34fd2	-0.10317959
14	0xbefc5bee	-0.49288887
15	0x3ed06d3a	0.40708333
16	0x3ea602ee	0.3242411
17	0xbee6232c	-0.4494871
18	0xbeb0599a	-0.3444336
19	0xbf73bb48	-0.95207644
20	0x3d45571f	0.04817879
21	0x3f31b687	0.6941914
22	0x3d533ee2	0.05157364
23	0xbf963a36	-1.1736515
24	0xbe84d5fd	-0.2594451
25	0xbf19b209	-0.60037285
26	0x3e839b69	0.25704506
27	0x3e36b0d6	0.17840895
28	0xbfe0bbad	-1.7557274
29	0xbeb9d4b9	-0.36295107
30	0x3f0ad8ae	0.54236877
31	0x3e5ec280	0.21753883
32	0xbe910001	-0.28320315
33	0xbe8b909f	-0.27258775
34	0xbd9936fa	-0.07481189
35	0x3e7b676b	0.2455117
36	0xbf5a4243	-0.8525736
37	0xbdb7bda9	-0.08971722
38	0xbf71a76e	-0.943961
39	0xbf0d7c43	-0.55267733
40	0xbf05c601	-0.52255255
41	0xbf8c7e11	-1.0975972
42	0xbe1cdf82	-0.15319636
43	0xbf16b6ed	-0.5887287
44	0xbf03177b	-0.51207703
45	0xbf78371d	-0.96959096
46	0x3e0e7986	0.13913545
47	0x3e123460	0.14277792
48	0xbd277c22	-0.040889867
49	0x3ea70078	0.32617545
50	0xbf2ea765	-0.68224174
51	0x3e811997	0.25214836
52	0xbf5c1cef	-0.8598165
53	0xbf5516d9	-0.8323799
54	0xbfb1b6ff	-1.3883971
55	0xbe5035bf	-0.20333003
56	0xbe269c50	-0.16270566
57	0x3e8bb262	0.27284533
58	0xbf7e8b89	-0.99431664
59	0xbe16b65b	-0.14718
60	0xbf2484af	-0.6426496
61	0xbf9c09d1	-1.2190496
62	0x3dbd9013	0.092559956
63	0xbede443d	-0.43411437
64	0xbf38547b	-0.72003907
65	0x3ef6b47f	0.48184583
66	0xbf10d76c	-0.5657871
67	0xbe57cf70	-0.21075225
68	0xbee38c34	-0.44442904
69	0xbf2c6083	-0.67334765
70	0x3e9024d1	0.2815309
71	0x3f083337	0.5320315
72	0x3ef3962f	0.47575518
73	0xbf6f25d1	-0.9341708
74	0xbeec5118	-0.4615562
75	0xbf09a537	-0.5376772
76	0x3d9f1ef9	0.077695794
77	0xbe5d9994	-0.21640617
78	0xbf93c219	-1.1543609
79	0xbe0cf9db	-0.13767187
80	0x3f06bcb9	0.5263172
81	0xbf26b2ec	-0.65116763
82	0xbeaaf159	-0.3338726
83	0xbedd4d64	-0.43223107
84	0xbe90486b	-0.2818025
85	0xbd0d5d9b	-0.034513097
86	0xbf548312	-0.830125
87	0x3de3ecc0	0.11129141
88	0xbfa2a29c	-1.2705874
89	0xbea608ad	-0.32428494
90	0xbe9067f3	-0.28204307
91	0xbfbfabd2	-1.497431
92	0xbe570fd0	-0.21002126
93	0xbe8d9ab7	-0.276571
94	0xbf05c44e	-0.5225266
95	0xbfabbc7e	-1.3416898
96	0x3cd30386	0.025758516
97	0x3f004b8e	0.5011529
98	0xbe9809c9	-0.29694965
99	0x3ee4d317	0.446923
100	0x3fa7f580	1.3121796
101	0xbfc8b1dd	-1.567928
102	0xbf7f24a2	-0.9966527
103	0x3fe2ba84	1.771317
104	0xc0474fa6	-3.1142364
105	0xbfd9e722	-1.7023661
106	0x3f5b78da	0.8573128
107	0x3faf9388	1.3716898
108	0x3f7fb43f	0.9988441
109	0xbf9e6e60	-1.2377434
110	0xbfaedced	-1.3661171
111	0x3fba0dfc	1.4535518
112	0xbf9f55ca	-1.2448056
113	0x3fa0d7ff	1.2565917
114	0x3f6a180a	0.9144293
115	0xbfa529b8	-1.2903357
116	0xbfc74154	-1.5566812
117	0x3f63bbdf	0.88958544
118	0x3fc21949	1.5163966
119	0x3f48c206	0.78421056
120	0xbf9d7ea1	-1.2304269
121	0xbf93b6e5	-1.154019
122	0x3fa6cfc0	1.303215
123	0x3fda1a6e	1.7039316
124	0xbf975897	-1.182391
125	0xbf62b79a	-0.88561404
126	0xbf7dfa14	-0.99209714
127	0x3fbc3787	1.4704446
128	0x40071ed8	2.1112576
129	0xbef0b533	-0.47013244
130	0x3f7c3770	0.9852209
131	0x3fbcc6ea	1.4748204
132	0x3f20ef38	0.6286502
133	0x3f6944dd	0.911207
134	0x3fa4e2d6	1.2881725
135	0xbf7052e6	-0.9387649
136	0xbf45ac6e	-0.7721623
137	0xbfa2ed5c	-1.2728686
138	0x3fcd9187	1.6060036
139	0xbfb28bbd	-1.3948895
140	0xbf2258d0	-0.6341677
141	0xc013035a	-2.2970796
142	0xbee409d9	-0.44538763
143	0x3f939afa	1.153167
144	0xbf0c2be5	-0.5475448
145	0x3fd13cee	1.6346719
146	0x3f8dddb6	1.1083286
147	0xbf9441c2	-1.1582568
148	0xbfa96597	-1.3234128
149	0x3f8c59b6	1.0964878
150	0xbcd0610a	-0.025436897
151	0xbeb592fd	-0.35463706
152	0xbe55c1ee	-0.2087476
153	0xbfb1f234	-1.390204
154	0xbfd6e845	-1.6789633
155	0x3c8079e9	0.015683131
156	0x3ec9f634	0.3944565
157	0x3f138784	0.57628655
158	0xbfb31462	-1.3990595
159	0x3e8120e5	0.2522041
160	0x3cc589e1	0.024113597
161	0xbf834d9c	-1.025806
162	0xbbb29224	-0.00544955
163	0x3d9b24fe	0.07575415
164	0xbe832fdc	-0.2562245
165	0x3f247201	0.64236456
166	0x3f14fe9d	0.5820101
167	0xbed71785	-0.4201013
168	0xbe678dd5	-0.22612698
169	0xbf568039	-0.837894
170	0x3e0678df	0.13132046
171	0x3f5e1c7b	0.8676221
172	0x3e6a2d29	0.2286879
173	0xbf9f4ec1	-1.2445909
174	0xbe3486a2	-0.17629483
175	0xbf163418	-0.5867324
176	0x3e005149	0.12531008
177	0x3e07a13b	0.13245098
178	0xbfce7141	-1.6128312
179	0xbe4dc53e	-0.20094773
180	0x3f37702e	0.7165555
181	0x3e6d826d	0.23194285
182	0xbe7ab9b4	-0.24484903
183	0x3aa52f17	0.0012602535
184	0x3e2f8d1e	0.17143676
185	0x3eb018c2	0.3439389
186	0xbf8ca3b4	-1.0987458
187	0x3e544a42	0.20731452
188	0xbf49bbd7	-0.78802246
189	0xbebe29c5	-0.37141243
190	0xbe803b56	-0.2504527
191	0xbf88937d	-1.067001
192	0xbe7c962d	-0.24666663
193	0xbe2b960d	-0.16756459
194	0xbf12da35	-0.5736421
195	0xbf4f7870	-0.8104315
196	0x3ecc15e2	0.39860445
197	0x3eeff697	0.4686782
198	0x3e25b669	0.16182865
199	0x3f0678ea	0.5252825

lstm.weight_hh_l0 f4 [200, 50]
0	0xbe6ab6a9	-0.22921242
1	0xbee5357e	-0.44767374
2	0xbea1dd12	-0.31613976
3	0xbe0ac386	-0.13551149
4	0x3f3fddfa	0.74948084
5	0x3e5865f3	0.2113264
6	0x3f40aca9	0.7526346
7	0x3e3bbefa	0.1833457
8	0x3d3f620f	0.046724375
9	0xbe6c93f6	-0.23103318
10	0xbe57639e	-0.21034095
11	0xbf0e1dbd	-0.55514127
12	0xbed4a324	-0.41530716
13	0x3e9fef32	0.3123718
14	0x3eb270cc	0.34851682
15	0xbe885f22	-0.2663508
16	0x3dab0b29	0.08351738
17	0x3d3ee24c	0.046602532
18	0xbe2af551	-0.16695143
19	0x3e27d1a4	0.16388565
20	0xbef7f8bc	-0.48431957
21	0xbedd8d26	-0.4327175
22	0x3d086dbc	0.033307776
23	0xbe0437bf	-0.1291189
24	0xbda9be98	-0.08288306
25	0xbe3d2f56	-0.18475088
26	0xbef51986	-0.47871035
27	0x3f01d0f6	0.50709474
28	0xbed1fb09	-0.41011837
29	0x3d646b3e	0.055766337
30	0x3f13352c	0.5750301
31	0x3e04ab5c	0.12955993
32	0x3ed36cd1	0.41293958
33	0x3ce42cb6	0.027853351
34	0x3ece5d15	0.4030539
35	0xbdcfc533	-0.10145035
36	0x3ee0a565	0.43876186
37	0xbeef9213	-0.46791133
38	0xbe7a8d77	-0.24468027
39	0xbd07fb68	-0.033198744
40	0xbe2f9a0a	-0.17148605
41	0x3eaa5c10	0.33273363
42	0xbe12cf0e	-0.14336798
43	0xbdc55c47	-0.09636741
44	0xbe1ae49e	-0.15126273
45	0xbf147dbe	-0.5800437
46	0x3ee5b70e	0.44866222
47	0xbdfc5785	-0.123213805
48	0xbd1a6e2b	-0.03770272
49	0x3f21c776	0.6319498
50	0xbd921940	-0.07133722
51	0x3e6442fe	0.2229118
52	0x3e654ed7	0.22393356
53	0xbd9e5e68	-0.0773285
54	0x3f6301fc	0.886749
55	0x3ed3c684	0.41362393
56	0x3ebd1387	0.3692896
57	0xbda5fa3c	-0.08104369
58	0xbf03f92b	-0.51552075
59	0x3dc745d1	0.09730113
60	0x3ed543e6	0.41653365
61	0xbf1376fe	-0.5760344
62	0xbec46f85	-0.38366333
63	0xbedf779c	-0.43645942
64	0xbeee3c60	-0.46530437
65	0x3b6766ae	0.0035309005
66	0x3ece94f2	0.4034801
67	0xbe052e82	-0.13006023
68	0xbe9789c4	-0.29597294
69	0x3c9a84cc	0.01886215
70	0x3a8daf51	0.0010809695
71	0xbe3058e5	-0.1722141
72	0xbd3b92ab	-0.04579417
73	0xbf1d3f60	-0.6142483
74	0x3f0e946b	0.5569522
75	0xbd6715e5	-0.056417365
76	0xbec05eae	-0.37572235
77	0x3e854aeb	0.2603372
78	0xbf6aa1a7	-0.9165291
79	0x3de4a4fd	0.111642815
80	0xbd82698b	-0.06367787
81	0xbf17c84a	-0.5928999
82	0x3e8d5d5f	0.276103
83	0xbe1fb76d	-0.15597315
84	0xbe579041	-0.21051122
85	0xbd9f00fd	-0.077638604
86	0x3e3094fc	0.17244333
87	0xbd2ca315	-0.042147715
88	0xbf067497	-0.5252165
89	0x3ebb3ecb	0.36571345
90	0x3e848ea1	0.25890067
91	0x3fab337a	1.3375084
92	0xbd343279	-0.043993447
93	0xbf3d108d	-0.7385338
94	0x3ddd0276	0.10791485
95	0xbf7b774d	-0.98228914
96	0xbd8ed7f4	-0.069747835
97	0x3db1d64e	0.086834535
98	0x3eb58ac3	0.3545743
99	0xbde2e2ea	-0.11078437
100	0x3e3377a7	0.17526112
101	0x3e2ebbb6	0.17063794
102	0x3d0dcc39	0.03461859
103	0xbeb1555a	-0.3463543
104	0x3f535357	0.8254904
105	0x3f2e3648	0.68051577
106	0xbda378e2	-0.07982041
107	0x3d87eef8	0.066373765
108	0xbe8fce06	-0.2808687
109	0x3f0be713	0.54649466
110	0xbe46b12c	-0.19403523
111	0xbeb95937	-0.36200878
112	0xbda682dd	-0.08130429
113	0x3d46cb21	0.048533563
114	0x3ce1d0fa	0.027565468
115	0x3ae58226	0.0017510101
116	0x3ecfe1d5	0.40601984
117	0x3e16e0e8	0.14734232
118	0x3e2239c8	0.15842354
119	0x3c25c71a	0.01011827
120	0x3ebed61c	0.37272727
121	0xba2a0574	-0.0006485798
122	0x3c9126f8	0.017718777
123	0xbd56f9ba	-0.05248425
124	0x3d9b6ae2	0.07588746
125	0x3dd2a1e2	0.10284783
126	0xbe70ee94	-0.2352851
127	0x3e5085da	0.2036356
128	0xbf1fdfaf	-0.6245069
129	0xbd185a6e	-0.037195615
130	0x3e6b0dcd	0.22954483
131	0xbcf5b2ad	-0.029992426
132	0x3dd6577c	0.10465905
133	0xbe76d2d4	-0.24103862
134	0x3d893faa	0.06701596
135	0x3ecc0f6b	0.39855513
136	0xbe718909	-0.23587431
137	0xbe1074c0	-0.14107037
138	0xbeb7b023	-0.3587657
139	0xbc91c1f1	-0.017792674
140	0x3f23ea3b	0.6402928
141	0x3ef1d621	0.4723368
142	0xbda3b661	-0.079937704
143	0xbf4ed336	-0.8079103
144	0x3d8620e9	0.06549246
145	0xbf0a22e7	-0.53959507
146	0xbe62b266	-0.22138366
147	0x3dfaff9d	0.122557856
148	0x3ea84947	0.32868406
149	0x3d8e6987	0.069537215
150	0x3ef36eda	0.4754551
151	0x3ea35c82	0.31906515
152	0x3f1b37bd	0.60631925
153	0x3ae16828	0.0017197179
154	0x3b890d1d	0.0041824714
155	0x3ebcef4d	0.36901322
156	0x3ebeddb1	0.37278512
157	0xbef4a633	-0.4778305
158	0x3e5af7cc	0.2138359
159	0x3ec6b2e6	0.38808364
160	0x3e93922c	0.28822458
161	0xbedb7e1a	-0.42869645
162	0x3dcb83f2	0.09937276
163	0xbd432c49	-0.047649655
164	0xbeb2cb34	-0.34920657
165	0xbd3fa335	-0.046786506
166	0xbd4729d6	-0.048623882
167	0xbd6a7229	-0.057237778
168	0xbeabdeba	-0.33568364
169	0xbe066b3f	-0.13126849
170	0x3f506c14	0.81414914
171	0xbdddab1a	-0.10823651
172	0xbd11c89c	-0.035591707
173	0xbec6f42f	-0.38858172
174	0x3ede36d4	0.43401206
175	0xbda7ed09	-0.08199508
176	0xbe85a6c1	-0.26103786
177	0xbe2fbc48	-0.17161667
178	0xbde749a7	-0.11293345
179	0x3e70403b	0.23462002
180	0xbe0f8c62	-0.14018396
181	0xbf0427f7	-0.5162348
182	0x3e9ec269	0.31007698
183	0xbf36e6ec	-0.7144611
184	0xbdcfde9a	-0.1014988
185	0x3eb60657	0.35551712
186	0xbf0f5c0c	-0.5599983
187	0x3f130e1f	0.5744342
188	0xbe6d3242	-0.23163703
189	0x3dea725e	0.11447595
190	0x3eca4650	0.3950677
191	0x3f1655ad	0.5872448
192	0xbe2b6c6e	-0.16740581
193	0xbf573d5f	-0.8407802
194	0xbe910e29	-0.28331116
195	0xbf94e3be	-1.1632001
196	0xbe593695	-0.21212228
197	0x3f552974	0.8326638
198	0x3eb54967	0.35407564
199	0xbde040e2	-0.109498754
200	0x3d1c4bf0	0.038158357
201	0x3f432b62	0.7623807
202	0x3fb019d0	1.3757877
203	0xbfb01475	-1.3756243
204	0x3e249115	0.1607097
205	0x3f9d9cde	1.2313497
206	0xbc017b96	-0.007903
207	0xbf0a9864	-0.5413878
208	0xbe82ae9d	-0.25523844
209	0x3fe07847	1.7536706
210	0x3e8a1161	0.26966384
211	0xbfa152b6	-1.2603366
212	0x3e88f6e9	0.26750877
213	0xbf29b31e	-0.66288936
214	0xbf0f2add	-0.5592478
215	0x3ed6a0bd	0.4191951
216	0x3e417324	0.18891579
217	0xbf10f72a	-0.5662714
218	0xbf63c4ef	-0.8897237
219	0xbed4abb0	-0.41537237
220	0x3f92a381	1.1456147
221	0x3ea4bc5f	0.32174966
222	0xbe90e6ed	-0.28301182
223	0xbf17c355	-0.5928243
224	0x3f8080ee	1.0039346
225	0x3ef88e97	0.48546287
226	0x3e4e31cb	0.20136182
227	0xbdd04fd8	-0.10171479
228	0xbf39640a	-0.7241827
229	0x3f986428	1.1905565
230	0xbf03b0dd	-0.51441747
231	0xbfe4f0ce	-1.7885988
232	0x3f129da8	0.57271814
233	0xbea13be8	-0.31491017
234	0xbf4a0ef5	-0.7892907
235	0x3fccb3fc	1.5992427
236	0xbf8a1eff	-1.0790709
237	0x3f1fd8b4	0.6244004
238	0xbfbfc7ab	-1.4982809
239	0x3e9fc9bd	0.31208602
240	0x3fabe4c3	1.3429188
241	0x3fe0b3f5	1.7554919
242	0xbdc2bbee	-0.09508501
243	0xbf62f1b8	-0.88650084
244	0xbe9674ac	-0.2938589
245	0xbff3414c	-1.9004302
246	0xbeb613d2	-0.35561997
247	0x3ff22426	1.8917282
248	0x4001dab9	2.0289748
249	0xbea7dbb1	-0.327848
250	0x3e86a164	0.26295006
251	0x3de39f6a	0.1111439
252	0x3f337299	0.7009674
253	0xbf08ed1a	-0.5348679
254	0x3edf7718	0.4364555
255	0x3eaef00d	0.3416752

lstm.bias_ih_l0 f4 [200]
0	0x3e0adf3d	0.13561721
1	0xbd020c75	-0.03175016
2	0xbf01664a	-0.50546706
3	0x3e44329f	0.19159935
4	0x3e6b700f	0.22991966
5	0xbe963494	-0.2933699
6	0xbe422b75	-0.1896189
7	0xbc8940cd	-0.016754532
8	0xbf493fdf	-0.78613085
9	0xbee9810b	-0.45606264
10	0xbeeed9f9	-0.46650675
11	0xbf09d7d8	-0.53844976
12	0xbecbf1d7	-0.39832947
13	0xbeb5b532	-0.35489804
14	0xbf23dc02	-0.6400758
15	0x3d6b85bc	0.057500586
16	0xbe5ef987	-0.21774875
17	0xbf7b7836	-0.982303
18	0xbd66b90f	-0.05632883
19	0xbf7ee32b	-0.9956538
20	0xbe7a40a4	-0.24438721
21	0xbe11610c	-0.14197177
22	0xbe364b13	-0.17802076
23	0xbd445eee	-0.047942095
24	0xbf08d8ba	-0.534557
25	0xbef2147e	-0.4728126
26	0xbec4245b	-0.38308987
27	0x3c313d90	0.0108179
28	0x3e40979f	0.18807839
29	0xbefa0294	-0.48830092
30	0xbdd731ca	-0.105075434
31	0x3e3b1da0	0.1827302
32	0xbe7218b6	-0.23642239
33	0xbf48c914	-0.7843182
34	0xbed6b85a	-0.41937524
35	0xbf35ae76	-0.7096933
36	0xbf26c1ee	-0.65139663
37	0xbee0d671	-0.43913606
38	0xbe326102	-0.17419818
39	0x3d57a98f	0.052651938
40	0xbf6a56b3	-0.9153854
41	0xbe8cc6cc	-0.2749542
42	0xbf52b58d	-0.82308275
43	0xbed10a20	-0.40828037
44	0xbeeb14dd	-0.45914355
45	0xbe3da054	-0.18518192
46	0xbe8fd947	-0.28095457
47	0xbf20eb0a	-0.6285864
48	0xbf2ef2e2	-0.6833936
49	0xbdf476ee	-0.119367465
50	0xbeebe614	-0.46073973
51	0xbf621657	-0.8831534
52	0xbf5ba65b	-0.85800713
53	0xbf774260	-0.96585655
54	0xbf5865b4	-0.84530187
55	0xbf952cc0	-1.1654282
56	0xbe6c5b1f	-0.23081635
57	0xbf1c5509	-0.61067253
58	0xbebca0b9	-0.36841372
59	0xbf5ea62c	-0.8697231
60	0xbf8b8d60	-1.0902519
61	0xbf77381e	-0.96570003
62	0xbf645e58	-0.8920646
63	0xbe4df901	-0.20114519
64	0xbf21790d	-0.63075334
65	0xbf130353	-0.5742695
66	0xbf74bab2	-0.95597374
67	0xbf5b7236	-0.8572115
68	0xbf8ef7b5	-1.1169344
69	0xbf44427a	-0.76663935
70	0xbf3e8ca1	-0.7443333
71	0xbf27da25	-0.6556724
72	0xbf2ef03c	-0.6833532
73	0xbf544347	-0.8291516
74	0xbf283dfc	-0.6571958
75	0xbf02862b	-0.50985974
76	0xbf3a062d	-0.72665673
77	0xbf5ea3a6	-0.8696846
78	0xbf8841e1	-1.0645105
79	0xbeadaabd	-0.33919325
80	0xbefb057d	-0.49027625
81	0xbf4c0183	-0.79689807
82	0x3d5008f7	0.0507898
83	0xbf0fb5dd	-0.56136876
84	0xbf801b46	-1.0008323
85	0xbf5b8c66	-0.85761106
86	0xbf627fde	-0.8847636
87	0xbf8721d9	-1.0557204
88	0xbf9f28ef	-1.2434367
89	0xbf474702	-0.77842724
90	0xbf3e61de	-0.74368083
91	0xbf8e704b	-1.1128019
92	0xbebafb5c	-0.36519897
93	0xbf2bf591	-0.6717158
94	0xbe3f876b	-0.18704002
95	0xbf77db7e	-0.96819293
96	0xbf30a12f	-0.68995947
97	0xbf486931	-0.7828551
98	0xbf9a0a65	-1.2034422
99	0xbf2df83d	-0.67956907
100	0xbd0f7e2d	-0.03503244
101	0x3e1756f6	0.14779267
102	0xbbdb5be5	-0.0066943043
103	0xbe3f4b78	-0.18681133
104	0x3e7ca923	0.24673896
105	0xbd387af4	-0.045039132
106	0xbda84952	-0.0821711
107	0xbbc9ab4a	-0.0061544525
108	0x3d2fe63c	0.042944178
109	0xbd816a6e	-0.06319128
110	0x3e4d6cfb	0.20061104
111	0xbe419301	-0.18903734
112	0x3d1eadea	0.038740076
113	0xbe0aa823	-0.13540702
114	0xbd8bfb2a	-0.06835015
115	0x3d25305b	0.04032932
116	0x3e0ce80a	0.13760391
117	0x3ab17e27	0.0013541625
118	0xbdc20126	-0.09472875
119	0x3ca9bb1c	0.020719104
120	0x3d2fe62e	0.042944126
121	0xbaa89246	-0.0012860976
122	0xbdf3b1e2	-0.11899163
123	0xbcae8c39	-0.021307098
124	0x3e0763e4	0.13221699
125	0xbce4721b	-0.027886441
126	0x3e2fa969	0.17154469
127	0xbe5dccdf	-0.21660183
128	0xbe31fe3f	-0.17382143
129	0x3d8ec45c	0.06971046
130	0xbe351b4b	-0.17686193
131	0xbe3c3e31	-0.18383099
132	0xbcae977e	-0.021312471
133	0xbcfe85d7	-0.03106968
134	0xbd9f3d9e	-0.077754244
135	0x3de9df9e	0.11419605
136	0x3e0733ac	0.13203305
137	0x3d1c20a0	0.03811705
138	0xbd8317e4	-0.06401041
139	0x3e8e4d08	0.27793145
140	0xbe125e7d	-0.14293857
141	0x3d8f2629	0.069897
142	0xbc82024e	-0.01587024
143	0xbdff31f5	-0.124607004
144	0x3e0f4274	0.13990194
145	0xbd2a29b8	-0.041543692
146	0xbdd9a15a	-0.106264785
147	0x3e0ff5a5	0.1405855
148	0xbdc3e28e	-0.09564696
149	0x3b8f50d9	0.0043736515
150	0x3e0ac304	0.13550955
151	0xbd9c7b63	-0.07640722
152	0xbf0b96e8	-0.5452714
153	0x3e40d831	0.1883247
154	0x3e69b82a	0.2282416
155	0xbeee8c0f	-0.4659123
156	0xbdcad423	-0.09903743
157	0xbda31fbe	-0.07965039
158	0xbf2296d7	-0.63511413
159	0xbef0b2a7	-0.470113
160	0xbf16c635	-0.5889619
161	0xbf21010d	-0.6289223
162	0xbe651784	-0.22372252
163	0xbe79fb12	-0.24412182
164	0xbf1369a6	-0.5758308
165	0x3e4c2cfb	0.19939034
166	0xbe253808	-0.16134655
167	0xbf6bb08c	-0.92066264
168	0xbd247499	-0.04015026
169	0xbf712f7f	-0.942131
170	0xbdd08ab9	-0.10182709
171	0xbe2fc10c	-0.17163485
172	0xbdc675cb	-0.09690436
173	0xbdb8f89d	-0.09031794
174	0xbed623dc	-0.41824234
175	0xbed587e9	-0.41705254
176	0xbe5c2fc2	-0.21502593
177	0xbc833882	-0.016018156
178	0x3e0db9f6	0.1384047
179	0xbf07c321	-0.5303212
180	0xbeabd779	-0.3356283
181	0x3e09af59	0.13445796
182	0xbe862324	-0.26198685
183	0xbf4eeccf	-0.8083009
184	0xbea2af10	-0.31774187
185	0xbf02762e	-0.5096158
186	0xbf3bd3e1	-0.73370177
187	0xbee55b73	-0.44796333
188	0xbe679eb0	-0.22619128
189	0x3c94970a	0.018138427
190	0xbf4f4034	-0.8095734
191	0xbe9fc4e0	-0.3120489
192	0xbf41d703	-0.75718707
193	0xbeefe129	-0.4685147
194	0xbf19fe68	-0.6015382
195	0xbd8295bf	-0.06376218
196	0xbe534c0a	-0.20634475
197	0xbf0cde18	-0.5502639
198	0xbec22f77	-0.37926838
199	0x3c7abe61	0.015304179

lstm.bias_hh_l0 f4 [200]
0	0x3e866725	0.26250568
1	0x3e20ccd1	0.15703131
2	0xbf33265d	-0.6998041
3	0x3cad7e06	0.021178257
4	0x3e8c19fe	0.2736358
5	0xbee19e46	-0.44066066
6	0xbe090a68	-0.13382876
7	0x3bdc53a4	0.006723838
8	0xbf49d6e3	-0.78843516
9	0xbecb3004	-0.3968507
10	0xbf03c709	-0.5147558
11	0xbf2c69e6	-0.6734909
12	0xbef3302f	-0.474977
13	0xbf199dc4	-0.60006356
14	0xbf14f9c2	-0.581936
15	0xbd0d5e9a	-0.034514047
16	0x3ba63ddf	0.0050732936
17	0xbf58d4cb	-0.84699696
18	0xbbd1c69e	-0.006401851
19	0xbf4f1e2d	-0.8090542
20	0xbe321f53	-0.17394762
21	0xbdea8f54	-0.11453119
22	0xbda7fd71	-0.08202637
23	0xbe6b16ec	-0.22957963
24	0xbf1ccd57	-0.61250824
25	0xbf070a3c	-0.5274999
26	0xbe8396b1	-0.25700906
27	0x3d5a39ee	0.053277902
28	0x3e761187	0.24030124
29	0xbf302bc8	-0.68816805
30	0xbdab43e8	-0.083625615
31	0x3e5f721f	0.21820877
32	0xbe4a1503	-0.19734578
33	0xbf63c9a1	-0.88979536
34	0xbed37d23	-0.4130641
35	0xbf08da53	-0.53458136
36	0xbf3c8f03	-0.7365572
37	0xbee5026f	-0.4472842
38	0xbeadedc6	-0.3397047
39	0x397c80c0	0.00024080556
40	0xbf335276	-0.700477
41	0xbe5d0350	-0.21583295
42	0xbf207af6	-0.62687624
43	0xbf0760e7	-0.52882236
44	0xbede304c	-0.43396223
45	0xbe1bcc59	-0.15214671
46	0xbdfb133a	-0.122595266
47	0xbf22d647	-0.6360821
48	0xbf2650f3	-0.6496727
49	0x3d0621f2	0.032747217
50	0xbefcecc6	-0.49399394
51	0xbf766e5c	-0.96262145
52	0xbf4e63e1	-0.80621153
53	0xbf8039f8	-1.0017691
54	0xbf594ea6	-0.84885633
55	0xbf71fe54	-0.945287
56	0xbe73116f	-0.23737119
57	0xbf21627f	-0.6304092
58	0xbea2c508	-0.31790948
59	0xbf7cedd5	-0.988004
60	0xbf8661bb	-1.0498575
61	0xbf4d38d5	-0.80164844
62	0xbf3b35d0	-0.73128986
63	0xbe0e9a0a	-0.13925949
64	0xbf2c51ab	-0.67312115
65	0xbf33ef04	-0.70286584
66	0xbf433f8a	-0.7626883
67	0xbf4ade19	-0.79245144
68	0xbf74d31c	-0.9563463
69	0xbf324a75	-0.6964486
70	0xbf50822a	-0.81448615
71	0xbf592691	-0.8482447
72	0xbf0f96d4	-0.5608952
73	0xbf6715d0	-0.9026766
74	0xbf2daed8	-0.67844915
75	0xbecca7d2	-0.39971787
76	0xbf40260b	-0.7505805
77	0xbf54436c	-0.8291538
78	0xbf81ec95	-1.0150324
79	0xbe9bddf8	-0.30442786
80	0xbebd188d	-0.36932793
81	0xbf6561f4	-0.8960259
82	0x3ddafb5d	0.10692475
83	0xbf24ed2e	-0.6442441
84	0xbf87a528	-1.0597277
85	0xbf6fe2b4	-0.93705297
86	0xbf460338	-0.7734866
87	0xbf606460	-0.8765316
88	0xbf900139	-1.1250373
89	0xbf7f12ce	-0.9963807
90	0xbef906bc	-0.4863795
91	0xbf90df45	-1.1318136
92	0xbe8d839f	-0.2763948
93	0xbf368d2a	-0.7130915
94	0xbd5b44a6	-0.053532265
95	0xbf92cf0c	-1.1469436
96	0xbf287b1f	-0.6581287
97	0xbf6bb658	-0.9207511
98	0xbf83395d	-1.0251881
99	0xbf0eef22	-0.5583364
100	0xbe844822	-0.25836283
101	0x3d0e0f77	0.034682717
102	0x3c362211	0.0111165205
103	0xbdde3481	-0.10849858
104	0x3dc8e933	0.09810104
105	0xbd8b639d	-0.06806109
106	0xbdd87255	-0.10568682
107	0xbe865990	-0.26240206
108	0x3cd0e647	0.02550043
109	0xbd98e6b3	-0.074658774
110	0x3e57e41a	0.21083108
111	0xbe248f2e	-0.16070244
112	0x3e56f13f	0.20990466
113	0xbe2e9cd4	-0.17052013
114	0xbdf4da6b	-0.119557224
115	0x3de3ba73	0.11119547
116	0x3e7139b3	0.23557167
117	0x3cfcd0e4	0.030861326
118	0xbdc64428	-0.096809685
119	0x3c59fe99	0.01330533
120	0xbe0b7b22	-0.1362119
121	0x3e1f21e3	0.1554027
122	0xbe1d4d69	-0.15361561
123	0xbdea7688	-0.11448389
124	0xbd88604c	-0.06658992
125	0x3d8b7105	0.06808666
126	0x3bf8c301	0.0075916057
127	0xbd41a96f	-0.047280725
128	0x3bfcdf9a	0.007717085
129	0xbcb8bffc	-0.022552483
130	0xbd298775	-0.041388948
131	0x3b918d98	0.004441928
132	0xbe18d4f3	-0.14924984
133	0xbd07fb50	-0.033198655
134	0xbe771d08	-0.24132168
135	0xbde453fd	-0.11148832
136	0x3e8151ec	0.25257814
137	0x3d4cb565	0.04997768
138	0xbdc9187b	-0.098191224
139	0x3cb3f5f9	0.021967875
140	0xbd930d8d	-0.07180319
141	0x3dc31950	0.09526312
142	0xbcc43560	-0.023951232
143	0x3b0bb20a	0.0021315836
144	0xbcaf8d17	-0.021429582
145	0xbe27e80d	-0.16397114
146	0x3d81ee99	0.06344337
147	0xbd9d0fc1	-0.076690204
148	0xbcce7a51	-0.02520481
149	0xbe599b61	-0.21250679
150	0x3b8620cb	0.0040932647
151	0x3d06375b	0.032767635
152	0xbf280435	-0.6563142
153	0xbd2b7b34	-0.041865543
154	0x3ee8c133	0.454599
155	0xbe8e2242	-0.27760512
156	0xbe8c6a32	-0.2742477
157	0xbcc91d67	-0.024550153
158	0xbf184f66	-0.5949615
159	0xbf05077b	-0.5196454
160	0xbf2b4e9f	-0.6691684
161	0xbf234d5e	-0.6378993
162	0xbeec296f	-0.4612536
163	0xbea1415d	-0.3149518
164	0xbf4e8650	-0.80673695
165	0x3e73f4e7	0.23823892
166	0xbda0c4b5	-0.07850019
167	0xbf3d856f	-0.7403173
168	0x3d07ebb5	0.033183772
169	0xbf65c78c	-0.8975761
170	0x3be2081f	0.0068979408
171	0xbeae1b64	-0.34005272
172	0xbc59c7a1	-0.013292224
173	0xbe9350d1	-0.28772596
174	0xbef7dde5	-0.4841148
175	0xbeed5104	-0.46350873
176	0xbe3ee6b3	-0.18642692
177	0xbe36170f	-0.17782234
178	0x3d4fb736	0.050711833
179	0xbf1746a7	-0.5909218
180	0xbe279743	-0.16366296
181	0x3ec66063	0.38745412
182	0xbe5184c6	-0.20460805
183	0xbf6d9e81	-0.9281998
184	0xbe30a63f	-0.17250918
185	0xbf1ada9d	-0.6048983
186	0xbf4b79b8	-0.79482603
187	0xbeb7d449	-0.35904148
188	0xbe94bd82	-0.29050833
189	0x3e860204	0.26173413
190	0xbf4d4493	-0.8018276
191	0xbe8c9f8b	-0.27465472
192	0xbf26f349	-0.65214974
193	0xbf0c1279	-0.5471569
194	0xbeb94a0f	-0.36189315
195	0x3e066f03	0.13128285
196	0xbda8daa3	-0.08244827
197	0xbf18a8d3	-0.59632605
198	0xbece120c	-0.40248144
199	0xbd8fa531	-0.0701393

lstm.weight_ih_l1 f4 [200, 50]
0	0xbf0cc7ef	-0.54992574
1	0x3f0256be	0.5091361
2	0x3ead22c0	0.33815575
3	0x3d10a3e0	0.035312533
4	0x3f16ef38	0.5895877
5	0xbe4a21cf	-0.1973946
6	0xbf440d8d	-0.76583177
7	0xbe8f286c	-0.27960527
8	0xbf1cc9a7	-0.612452
9	0x3f26f8d8	0.65223455
10	0xbe359475	-0.17732413
11	0x3e8b862e	0.27250808
12	0x3df3e7e6	0.119094655
13	0xbf4fb213	-0.81131095
14	0x3dc92317	0.09821146
15	0xbd24c650	-0.040228188
16	0x3ec140bd	0.37744704
17	0x3e316d84	0.17326933
18	0xbf0d0b2c	-0.5509517
19	0x3c6af970	0.014341697
20	0x3f35e9b3	0.7105972
21	0x3f409c04	0.7523806
22	0xbf48174b	-0.7816054
23	0x3d1aece9	0.03782359
24	0x3e7ca8ae	0.24673721
25	0x3e597e4b	0.21239583
26	0x3dc9df65	0.09857062
27	0x3e1a239d	0.15052648
28	0xbe64c1a8	-0.22339499
29	0xbda1bb90	-0.07897103
30	0xbe7aa3b2	-0.24476507
31	0xbf07a0a7	-0.5297951
32	0xbf4e304d	-0.8054245
33	0xbe1499b1	-0.14511754
34	0xbe814f56	-0.2525584
35	0x3dd3b3fd	0.103370644
36	0xbe2f5181	-0.17120935
37	0x3e3dd129	0.1853682
38	0xbf03a966	-0.51430357
39	0x3f5a3978	0.8524394
40	0x3cc250c3	0.02372015
41	0xbf2615a7	-0.6487679
42	0x3e2d9fd8	0.16955507
43	0xbea3e179	-0.3200796
44	0x3e394764	0.1809364
45	0x3dd8c52f	0.10584485
46	0xbeb380a8	-0.35059094
47	0xbe294ba7	-0.16532765
48	0x3eb997be	0.36248583
49	0xbe9e8ddf	-0.30967614
50	0x3cfc6909	0.030811803
51	0x3e94eab6	0.2908532
52	0x3e0f8c92	0.14018467
53	0x3bf6a463	0.0075269206
54	0x3ec732d6	0.38905972
55	0x3c76ec62	0.0150710065
56	0x3ec65536	0.38736886
57	0xbe9b64a2	-0.30350214
58	0xbf26e307	-0.65190166
59	0x3ebc9824	0.36834824
60	0xbe7aa1d3	-0.24475794
61	0x3cded7d0	0.027202517
62	0xbe9e9c99	-0.3097885
63	0xbf43a94a	-0.7643019
64	0x3a4a4264	0.00077155815
65	0x3d91c497	0.07117575
66	0xbe325d04	-0.17418295
67	0x3d18191b	0.037133317
68	0xbd1bceb0	-0.03803891
69	0xbe127a9c	-0.14304584
70	0x3ee01de8	0.43772817
71	0xbe1b87dc	-0.15188545
72	0xbd9ef657	-0.07761829
73	0xbd04aa12	-0.032388754
74	0x3f28717e	0.65798175
75	0xbec871f4	-0.3914944
76	0xbeea672d	-0.45781842
77	0x3ea510cc	0.32239377
78	0xbea43117	-0.32068703
79	0x3e34339f	0.17597817
80	0xbe9d13e5	-0.3067924
81	0x3cf9a96d	0.030476296
82	0xbdace284	-0.08441642
83	0x3e7e7021	0.24847461
84	0xbd16416a	-0.036683477
85	0x3d3e6eae	0.04649227
86	0xbdf6ebaa	-0.12056668
87	0x3e7bfe85	0.2460881
88	0xbe89883b	-0.26861748
89	0x3dcfc1cb	0.10144385
90	0xbdfc85a0	-0.123301744
91	0x3e315ca3	0.17320494
92	0xbd57ec41	-0.052715544
93	0xbf32fb36	-0.6991457
94	0xbd52dcc5	-0.051480073
95	0xbf0954d9	-0.5364509
96	0xbe2af574	-0.16695195
97	0xbddb44db	-0.107064925
98	0x3e161a9b	0.14658587
99	0xbf19f295	-0.60135776
100	0x3d9dc3fa	0.07703395
101	0x3db2404b	0.08703669
102	0x3f080465	0.53131706
103	0xbec5f1bd	-0.38660994
104	0xbed95232	-0.42445523
105	0xbe227bb6	-0.15867504
106	0xbf911b02	-1.1336367
107	0xbf1d2304	-0.61381555
108	0x3dccdafa	0.10002704
109	0x3f13f354	0.57793164
110	0x3e70f339	0.23530282
111	0x3cd6aae4	0.026204534
112	0x3e8ea1c2	0.27857786
113	0xbe42eac8	-0.19034874
114	0x3e45dbfd	0.193222
115	0x3f5097e6	0.8148178
116	0xbe8c9a2a	-0.27461368
117	0x3e81fb59	0.25387076
118	0x3e91cdf9	0.28477457
119	0x3e523b4a	0.2053043
120	0x3e9dfc7b	0.3085669
121	0x3ea10f18	0.31456828
122	0xbecb3a0b	-0.3969272
123	0x3c373688	0.011182435
124	0xbe819def	-0.25315806
125	0x3ed27191	0.4110227
126	0xbd57fd73	-0.052731942
127	0xbebd89c6	-0.37019175
128	0x3e911461	0.2833586
129	0x3d8037d7	0.062606506
130	0xbdbf31ba	-0.093356565
131	0xbdfbf1a6	-0.1230195
132	0xbfa4c258	-1.2871809
133	0xbe9a9050	-0.30188227
134	0xbecafa84	-0.39644253
135	0x3c9f4d5c	0.019446068
136	0x3cdd7dd8	0.027037546
137	0x3f075255	0.52860004
138	0x3e1b3c08	0.15159619
139	0x3d92829d	0.07153819
140	0xbdf067dd	-0.1173856
141	0xbfb26c34	-1.3939271
142	0x3e3ad280	0.18244362
143	0xbe82e870	-0.2556796
144	0x3e976ff3	0.29577598
145	0x3f33806a	0.7011782
146	0xbede4be7	-0.43417284
147	0xbe32e5f2	-0.1747053
148	0xbdbe480c	-0.092910856
149	0xbe3ce3e4	-0.18446308
150	0x3ebd1449	0.3692954
151	0x3e00cc30	0.12577891
152	0xbea6c4be	-0.32571977
153	0xbeae826d	-0.34083882
154	0x3e7750bd	0.24151893
155	0xbe72edb4	-0.23723489
156	0x3e5a10f3	0.21295528
157	0x3e61d5ef	0.22054265
158	0xbe938115	-0.2880942
159	0xbe8d21f3	-0.27564964
160	0xbefbf879	-0.49213007
161	0xbe1e3cfe	-0.15452954
162	0x3d2eaeb1	0.042647067
163	0x3ea335c6	0.31876963
164	0x3e2d0e3e	0.16899964
165	0xbd4c6905	-0.049904842
166	0xbf6dfa8e	-0.9296044
167	0x3cbb0088	0.022827402
168	0x3e99040c	0.298859
169	0xbd3076d6	-0.04308208
170	0x3e15866d	0.1460206
171	0xbf42c44e	-0.7608079
172	0x3e77970e	0.24178717
173	0xbe628dbe	-0.22124383
174	0xba04937c	-0.0005057377
175	0xbe6a3a1e	-0.22873732
176	0xbf32e1b7	-0.69875664
177	0x3d90c0fb	0.07068058
178	0xbec507be	-0.3848247
179	0xbe337f78	-0.17529094
180	0x3ed2d642	0.4117909
181	0x3edc2622	0.42997843
182	0x3eed7cc7	0.4638426
183	0xbd4f0470	-0.05054134
184	0x3e449a14	0.19199401
185	0xbe620965	-0.22073896
186	0xbd57248f	-0.0525251
187	0xbe901c4a	-0.28146583
188	0x3d2f1b18	0.042750448
189	0x3dbfed17	0.09371393
190	0xbd13b438	-0.036060542
191	0xbe15d9b8	-0.14633834
192	0x3d38a2ac	0.04507701
193	0xbeb4e351	-0.3532968
194	0x3d11d4b5	0.035603244
195	0x3e48795e	0.19577548
196	0xbe033e3c	-0.1281671
197	0xbc55dc50	-0.013053015
198	0xbdaa95a2	-0.083293214
199	0x3ec09f2e	0.37621444
200	0x3eb92859	0.36163595
201	0xbd771732	-0.060324855
202	0xbea08a00	-0.31355286
203	0xbf3ba485	-0.7329791
204	0x3f6c722f	0.9236173
205	0x3e5ae614	0.2137683
206	0xbe31deba	-0.1737012
207	0x3e3bd808	0.18344128
208	0xbe8ffb91	-0.28121617
209	0x3e1328c2	0.14371017
210	0xbe5aae0f	-0.2135546
211	0xbe815db4	-0.25266802
212	0x3e1acb21	0.1511655
213	0xbe2cac80	-0.16862679
214	0x3e5b5d0e	0.21422216
215	0x3e8fad39	0.28061846
216	0x3c9eaf64	0.019370742
217	0x3e20161d	0.15633436
218	0x3ddc63f6	0.107612535
219	0xbe5fd884	-0.21859938
220	0x3e8568ee	0.26056617
221	0xbee4b1f0	-0.44667006
222	0xbd5499ed	-0.051904608
223	0x3d978754	0.07398859
224	0xbc279146	-0.010227507
225	0xbe9cc383	-0.30617914
226	0xbf07425f	-0.5283565
227	0x3e46308f	0.19354461
228	0xbea4bb01	-0.32173923
229	0x3e25fa85	0.16208847
230	0x3e683612	0.22676876
231	0x3e25f376	0.16206154
232	0xbc8ff5f9	-0.017573344
233	0xbe8b1155	-0.2716166
234	0x3ebc87b9	0.36822298
235	0x3d66d725	0.05635752
236	0xbeb47c90	-0.35251284
237	0x3ddca3f0	0.10773456
238	0xbf808fe7	-1.0043916
239	0xbd2fe19c	-0.042939767
240	0x3df25866	0.11833267
241	0x3e888d18	0.26670146
242	0x3dabbfdf	0.08386206
243	0x3e8c5e3d	0.27415648
244	0x3e6ee52c	0.2332961
245	0x3d8c827b	0.06860825
246	0x3e5229b7	0.20523725
247	0xbe91544d	-0.2838463
248	0xbd2ef651	-0.042715374
249	0x3e506e3f	0.20354556
250	0x3f3a0b10	0.7267313
251	0xbdf01a50	-0.11723769
252	0xbf5f1b09	-0.8715063
253	0xbdc7a099	-0.097474284
254	0x3ef52b7b	0.47884735
255	0xbd4d53b6	-0.05012866

lstm.weight_hh_l1 f4 [200, 50]
0	0xbe627ab8	-0.22117126
1	0x3d6c54d3	0.057698082
2	0x3e7d41f2	0.24732187
3	0xbf14a179	-0.5805889
4	0xbec50329	-0.38478974
5	0xbe8ffcce	-0.28122562
6	0xbe518875	-0.2046221
7	0xbe15e08f	-0.14636444
8	0xbc103899	-0.008802556
9	0xbeeb2af8	-0.4593122
10	0xbeb97243	-0.36219987
11	0x3ee41677	0.4454839
12	0x3f180d93	0.5939571
13	0xbec33172	-0.3812366
14	0x3f569d6f	0.83833975
15	0x3e15b1e9	0.14618649
16	0xbec49d59	-0.38401297
17	0xbe74bdd6	-0.23900542
18	0xbe7d1fc5	-0.2471915
19	0x3c5dc409	0.013535508
20	0x3edac716	0.42730016
21	0x3e2f3072	0.17108324
22	0x3d9035cb	0.0704151
23	0xbd324130	-0.0435192
24	0x3f253895	0.6453946
25	0xbef603a2	-0.48049647
26	0xbe82baee	-0.2553324
27	0x3ec336db	0.3812779
28	0xbe629d43	-0.22130303
29	0xbeabc38c	-0.33547628
30	0xbe89f3a3	-0.26943693
31	0xbd9ce233	-0.076603316
32	0x3c197980	0.009367347
33	0x3ce6dd41	0.028181674
34	0xbef58b75	-0.4795796
35	0xbe3a6603	-0.18202977
36	0x3e774411	0.24147059
37	0x3f72aa18	0.9479079
38	0x3e489e03	0.19591527
39	0x3eaad451	0.3336511
40	0xbf0569da	-0.5211464
41	0xbab3f9e8	-0.0013731094
42	0xbba0a9a3	-0.004903035
43	0x3ee29d6d	0.4426073
44	0x3dffd7f1	0.124923594
45	0x3eb40bf4	0.3516537
46	0xbcc5d9fc	-0.024151795
47	0xbf0ce5a5	-0.5503791
48	0xbeba5ee4	-0.3640052
49	0x3eb2cea6	0.34923285
50	0x3dae830b	0.08521088
51	0x3f35aa6e	0.7096318
52	0xbf3365e0	-0.70077324
53	0x3e3df343	0.18549828
54	0x3e548e09	0.20757307
55	0x3e1563e1	0.14588882
56	0xbdd0ac66	-0.101891324
57	0x3e70080c	0.2344057
58	0x3eced182	0.40394217
59	0x3d8b3c22	0.06798579
60	0xbe66e93d	-0.22549911
61	0xbeb6b3a1	-0.3568392
62	0xbeb52d8a	-0.35386306
63	0xbe486ddc	-0.19573158
64	0x3ccde92b	0.025135597
65	0xbe2c7100	-0.16839981
66	0x3ea4f9b9	0.32221773
67	0x3d1f516d	0.038896013
68	0x3ec81ba6	0.39083594
69	0xbf2da64e	-0.67831886
70	0xbe2995d1	-0.16561057
71	0xbe252dfb	-0.16130821
72	0xbf174b1a	-0.5909897
73	0x3ef49be1	0.47775176
74	0x3eb3ec8d	0.3514141
75	0x3df3f93f	0.11912774
76	0x3ea784bb	0.32718453
77	0xbe4f2c81	-0.2023182
78	0xbb259cce	-0.0025270465
79	0x3e88544d	0.26626816
80	0x3e493918	0.19650686
81	0xbd21a44b	-0.039463323
82	0xbe26515c	-0.16241974
83	0x3ec2d245	0.38051048
84	0x3e43227c	0.19056123
85	0xbd94c0fb	-0.072633706
86	0x3d1400b8	0.036133498
87	0xbe859e13	-0.26097164
88	0xbdf97c6f	-0.12181937
89	0x3e226f9e	0.15862891
90	0xbd0297dc	-0.031883106
91	0x3df614b5	0.12015668
92	0x3e3cf1c6	0.18451604
93	0x3de736ce	0.1128975
94	0x3f26754e	0.6502274
95	0xbe87da03	-0.26533517
96	0xbea3ecb2	-0.32016522
97	0x3f0e0132	0.55470574
98	0x3eaf169f	0.34196946
99	0x3ca2b157	0.019859953
100	0xbe9a5399	-0.30141905
101	0xbe6d495e	-0.23172519
102	0xbe8e76aa	-0.27824908
103	0x3f295f51	0.66161066
104	0x3d968095	0.07348744
105	0xbecd5314	-0.40102446
106	0x3ea0f850	0.31439447
107	0xbe696610	-0.2279284
108	0x3ee2375c	0.4418286
109	0x3e17d2f6	0.14826569
110	0x3db9a8c2	0.09065391
111	0x3d9f7b4a	0.077871874
112	0x3d6bbc06	0.05755236
113	0x3e2ab657	0.1667112
114	0x3d62e9c9	0.055398736
115	0x3eaa3de7	0.33250353
116	0xbe6f1983	-0.23349576
117	0x3de13ebd	0.109982945
118	0xbdc83d3d	-0.09777305
119	0x3e99bdb1	0.30027536
120	0xbd2ff238	-0.042955607
121	0xbe8a416b	-0.27003035
122	0xbeed0659	-0.46293905
123	0x3f1471b9	0.57986027
124	0xbe907bd1	-0.28219464
125	0x3e7b9eea	0.2457234
126	0xbe9d50ff	-0.30725858
127	0xbf02933b	-0.51005906
128	0x3d208326	0.039187573
129	0xbdf3d0a4	-0.119050294
130	0xbd52103f	-0.051285025
131	0xbeb4412a	-0.35205966
132	0x3d448d71	0.04798645
133	0x3dd540ad	0.104127266
134	0xbe831c0c	-0.25607336
135	0x3f22608b	0.6342856
136	0x3f019d4f	0.5063066
137	0x3e878270	0.26466703
138	0x3e4f4ac7	0.20243369
139	0xbe6a119e	-0.22858283
140	0x3f85bac2	1.0447619
141	0x3eacc4bb	0.33743843
142	0x3b50b629	0.0031846857
143	0xbf4bcc07	-0.79608196
144	0x3ecd97dd	0.40154925
145	0x3c2a03e0	0.0103769
146	0x3db8c846	0.09022574
147	0xbded9443	-0.11600544
148	0xbefdf76a	-0.49602824
149	0x3e6f8ad9	0.2339281
150	0xbf230c9c	-0.63691115
151	0xbda8ce1b	-0.082424365
152	0x3dd85e81	0.105649
153	0xbf2340e6	-0.637709
154	0xbed4b482	-0.41543967
155	0x3efac969	0.4898179
156	0xbf0c40d4	-0.5478642
157	0x3e023e93	0.12719183
158	0xbf04d215	-0.5188306
159	0x3e0632fa	0.13105384
160	0x3e0f5cec	0.1400029
161	0xbe6ed3bc	-0.23322958
162	0xbe528856	-0.2055982
163	0x3e410123	0.1884809
164	0xbe567455	-0.20942815
165	0xbe532a6e	-0.20621654
166	0xbe31e68b	-0.17373101
167	0xbe9f984c	-0.3117088
168	0xbdf5f1c4	-0.12009004
169	0x3e8b9900	0.27265167
170	0xbeec1da8	-0.46116376
171	0x3e63d137	0.22247778
172	0x3e8c6c13	0.27426204
173	0x3db5418a	0.08850391
174	0xbf216278	-0.63040876
175	0x3f055964	0.52089524
176	0xbe7948ec	-0.24344224
177	0xbef8f14d	-0.48621598
178	0x3dd3587f	0.10319614
179	0x3e3eae5c	0.186212
180	0xbe449db8	-0.1920079
181	0xbe5be539	-0.2147416
182	0xbeebd8da	-0.46063882
183	0x3df926cc	0.12165603
184	0x3f4db051	0.8034716
185	0x3ea6f534	0.3260895
186	0xbeb05771	-0.34441712
187	0x3d9eeafd	0.07759664
188	0xbf303be6	-0.688414
189	0xbf65e2fc	-0.89799476
190	0xbf02c7c7	-0.51086086
191	0xbf04cbb5	-0.5187333
192	0x3f21d972	0.6322242
193	0x3dac8c95	0.084252514
194	0x3f4a329b	0.7898347
195	0xbe645419	-0.22297706
196	0x3df82f62	0.121184126
197	0x3e722626	0.23647365
198	0x3ec56545	0.38553825
199	0x3d1bf717	0.03807744
200	0xbd87236e	-0.065985546
201	0x3e8360a4	0.25659668
202	0x3cc2797e	0.023739573
203	0xbec54d7e	-0.38535684
204	0xbe69a34f	-0.22816204
205	0x3f0041be	0.50100315
206	0xbeb1b835	-0.3471085
207	0x3decc558	0.11561078
208	0xbef66d86	-0.48130435
209	0xbe6a45a5	-0.2287813
210	0x3cb510f4	0.02210281
211	0xbe1dedf3	-0.15422802
212	0xbeded74b	-0.4352363
213	0x3e3c910f	0.1841471
214	0x3d16b691	0.036795203
215	0xbeb6b1ea	-0.35682613
216	0x3e419fd5	0.18908627
217	0xbd87c0ea	-0.06628592
218	0xbe8187a4	-0.25298798
219	0xbefdc91d	-0.495675
220	0xbefb1a47	-0.49043486
221	0xbea100f9	-0.31446055
222	0xbe09040a	-0.13380447
223	0x3ea79e78	0.3273809
224	0xbecbd9bf	-0.39814565
225	0xbdbfd8fd	-0.09367559
226	0xbe46ef6e	-0.19427273
227	0xbe0a1b2c	-0.13486928
228	0x3d7094d7	0.058735695
229	0xbde94cbf	-0.11391591
230	0xbe5f9beb	-0.21836822
231	0xbe9d93b9	-0.30776766
232	0xbdef378c	-0.116805166
233	0xbe0fdc19	-0.14048804
234	0x3d7fad43	0.062421095
235	0xbe9bfb70	-0.3046527
236	0xbedbde3e	-0.42942995
237	0xbf252f53	-0.64525336
238	0xbf0bb818	-0.5457778
239	0xbea69317	-0.32534096
240	0xbf0f320a	-0.5593573
241	0xbea07e2c	-0.31346262
242	0xbbbee27e	-0.00582534
243	0xbc21cebf	-0.009875952
244	0x3ec0168c	0.37517202
245	0xbda413bf	-0.08011579
246	0xbebe00ba	-0.3710993
247	0x3e5180c2	0.20459273
248	0x3e5e4047	0.21704207
249	0x3cb44919	0.022007512
250	0xbe5c4f8e	-0.21514723
251	0x3ec2e300	0.38063812
252	0xbf027365	-0.5095733
253	0xbea591b1	-0.32337716
254	0x3e811025	0.2520763
255	0xbe57354c	-0.21016425

lstm.bias_ih_l1 f4 [200]
0	0xbf19c929	-0.6007257
1	0xbedc70bb	-0.43054757
2	0xbe9c6027	-0.30542108
3	0xbec6c2c1	-0.3882046
4	0xbf181c57	-0.59418243
5	0xbf6b88e8	-0.9200578
6	0xbef30c14	-0.47470152
7	0xbe64d46c	-0.22346658
8	0xbf14b9c1	-0.5809594
9	0xbed323a3	-0.41238126
10	0xbf5813a9	-0.84405
11	0xbf589c7b	-0.8461377
12	0x3e1048e1	0.14090301
13	0xbe1f8e7d	-0.15581699
14	0xbd3bb2e7	-0.04582491
15	0xbf7f1aac	-0.99650073
16	0x3e568148	0.20947754
17	0xbf6cc521	-0.92488295
18	0xbf014799	-0.50499874
19	0xbe8d5639	-0.27604845
20	0xbd3e9ce8	-0.046536356
21	0xbf7895d7	-0.9710364
22	0xbeef67c9	-0.4675887
23	0xbf5f8caf	-0.8732404
24	0xbf70e13d	-0.94093686
25	0xbe6ce256	-0.23133215
26	0xbea6d2a1	-0.32582572
27	0xbf21c1e5	-0.63186485
28	0xbf45367e	-0.77036273
29	0x3ddc44c2	0.10755302
30	0xbd90b0fa	-0.070650056
31	0xbf627612	-0.8846141
32	0xbf1ec86f	-0.6202459
33	0xbedaad2b	-0.42710242
34	0xbf550845	-0.83215743
35	0x3e64842f	0.22316049
36	0xbf4e0208	-0.8047185
37	0xbe161478	-0.14656246
38	0xbf8c6a7d	-1.0969998
39	0xbf7bf1f1	-0.9841605
40	0xbf2c5f5f	-0.67333025
41	0xbe543540	-0.20723438
42	0xbf89110b	-1.0708326
43	0xbe6027f5	-0.21890242
44	0xbf6ec02a	-0.9326197
45	0xbe9f9bb7	-0.31173488
46	0xbf726bc1	-0.9469567
47	0xbe2d3376	-0.16914162
48	0xbea7acf2	-0.32749134
49	0xbf5ec82f	-0.87024206
50	0xbdf0f0b7	-0.11764663
51	0xbf67def3	-0.9057457
52	0xbf97eef6	-1.18698
53	0xbf3cf61c	-0.73813033
54	0xbf21343d	-0.62970334
55	0xbf489298	-0.78348684
56	0xbf0448c8	-0.51673555
57	0xbf3ddf6f	-0.7416906
58	0xbf2e9cb1	-0.6820784
59	0xbf4f28b7	-0.809215
60	0xbf7536f0	-0.9578695
61	0xbf30e411	-0.69098
62	0xbf27478e	-0.6534356
63	0xbf396bef	-0.7243032
64	0xbf2c61fe	-0.67337024
65	0xbf17a248	-0.59231997
66	0xbf428986	-0.75991094
67	0xbf4a0afe	-0.7892302
68	0xbebbe25b	-0.36696133
69	0xbf187529	-0.5955377
70	0xbf584a38	-0.8448825
71	0xbf1c2110	-0.6098795
72	0xbf14b509	-0.5808874
73	0xbf7a8fa9	-0.9787546
74	0xbe8c7221	-0.27430823
75	0xbf332d2b	-0.69990796
76	0xbf6ee5ab	-0.93319196
77	0xbf2a5e68	-0.665503
78	0xbf24de55	-0.6440175
79	0xbf3b1711	-0.7308207
80	0xbf16e438	-0.58941984
81	0xbf090cf5	-0.53535396
82	0xbf6aae6a	-0.91672385
83	0xbf10f168	-0.56618357
84	0xbf28bbca	-0.65911543
85	0xbeb50f96	-0.35363454
86	0xbf159555	-0.5843099
87	0xbf18494a	-0.5948683
88	0xbf3fcd18	-0.74922323
89	0xbf0ca5fc	-0.5494077
90	0xbfbd74d5	-1.4801279
91	0xbf55502a	-0.83325446
92	0xbf12920c	-0.572541
93	0xbf5ef7b1	-0.870967
94	0xbee1eade	-0.44124502
95	0xbf667e08	-0.9003606
96	0xbf6c3b70	-0.92278194
97	0xbf53a62d	-0.8267544
98	0xbf79d181	-0.975853
99	0xbf1a3356	-0.6023458
100	0xbe15d7de	-0.14633128
101	0xbd28f7e0	-0.041252017
102	0x3d4f67ca	0.05063609
103	0x3e4fb43a	0.20283595
104	0x3dd9d6ad	0.10636649
105	0xbda23f5f	-0.07922243
106	0x3e12b606	0.14327249
107	0x3e4dfe8c	0.20116633
108	0x3e29d35a	0.1658453
109	0xbdf9e46c	-0.12201771
110	0xbba43c81	-0.0050120954
111	0x3b18b695	0.0023302187
112	0x3d841e8c	0.06451139
113	0x3d20ee10	0.039289534
114	0xbd9e3a8a	-0.07726009
115	0x3cdd1e6e	0.026992049
116	0x3df1c69d	0.118054606
117	0x3dbc4bff	0.091941826
118	0x3d7af70c	0.06127076
119	0xbe8628f4	-0.2620312
120	0xbd396908	-0.04526618
121	0xbb1195b2	-0.002221447
122	0xbddb3256	-0.1070296
123	0x3e391d27	0.18077527
124	0xbac67f24	-0.0015144092
125	0xbe0efbf1	-0.13963296
126	0x3de7686a	0.11299212
127	0xbcb9e212	-0.022690807
128	0x3dc40d9d	0.09572909
129	0x3d8327dc	0.06404087
130	0x3d0dfcb0	0.03466481
131	0xbd3f438a	-0.04669527
132	0xbe00198a	-0.12509742
133	0x3db356a2	0.08756758
134	0xbda1327c	-0.07870957
135	0x3dfcc003	0.12341311
136	0x3e174a00	0.14774323
137	0xbe05d53d	-0.13069625
138	0x3e084171	0.13306214
139	0x3dde78be	0.108628735
140	0xbc9a172f	-0.018809883
141	0x3de25328	0.11051017
142	0x3e0ca211	0.13733698
143	0xbdfc8625	-0.123302735
144	0xbc7ea5e6	-0.015542483
145	0xbe2bc06c	-0.16772622
146	0x3db8b7ad	0.090194084
147	0x3cafad18	0.021444842
148	0x3c85541a	0.016275454
149	0x3e2751a9	0.16339745
150	0xbf2772d6	-0.654096
151	0xbee44d71	-0.44590333
152	0xbec5e84e	-0.38653797
153	0xbf010a2f	-0.50406164
154	0xbec1b151	-0.37830594
155	0xbf7e1dfc	-0.992645
156	0xbea062a8	-0.3132527
157	0xbed9346b	-0.42422804
158	0xbf15a943	-0.584614
159	0xbedae02a	-0.4274915
160	0xbf495bb3	-0.78655547
161	0xbf65176e	-0.89488876
162	0xbe74b351	-0.23896529
163	0xbdbd2f9c	-0.092375964
164	0x3c659df3	0.014014709
165	0xbf438a3c	-0.76382804
166	0xbdf3ff0b	-0.1191388
167	0xbf7b7dd1	-0.98238856
168	0xbede29fe	-0.43391412
169	0xbf281c8a	-0.6566855
170	0xbdda80a2	-0.10669066
171	0xbf4bd2f8	-0.7961879
172	0xbeb13506	-0.34610766
173	0xbf343ebe	-0.70408237
174	0xbf84e69e	-1.0382879
175	0xbe8d8bc3	-0.27645692
176	0xbf033168	-0.5124726
177	0xbf38267d	-0.7193373
178	0xbefe5aee	-0.4967875
179	0x3e4a4ba4	0.19755417
180	0xbe862b99	-0.26205137
181	0xbf809619	-1.0045806
182	0xbf170d6a	-0.59004843
183	0xbe96b38a	-0.29433852
184	0xbf50bf8c	-0.8154228
185	0xbdd1e30d	-0.102483846
186	0xbf30308b	-0.6882407
187	0xbe995422	-0.29947
188	0xbf530385	-0.82427245
189	0xbf81e846	-1.0149009
190	0xbf38031f	-0.7187976
191	0xbe66e12a	-0.22546831
192	0xbf64f7d0	-0.8944063
193	0xbe1c64f4	-0.15272886
194	0xbf6dfa87	-0.929604
195	0xbe8441d2	-0.25831467
196	0xbf861823	-1.0476116
197	0xbea08389	-0.31350353
198	0xbf2a9729	-0.666369
199	0xbf65198a	-0.89492095

lstm.bias_hh_l1 f4 [200]
0	0xbf2d08ac	-0.6759136
1	0xbf00ebdc	-0.5035989
2	0xbeca8e8e	-0.39561886
3	0xbee0abac	-0.43880975
4	0xbf082be6	-0.53191984
5	0xbf829ecd	-1.0204712
6	0xbf030953	-0.511861
7	0xbd850cee	-0.06496607
8	0xbf2288a5	-0.63489753
9	0xbee2a583	-0.442669
10	0xbf5ec47d	-0.8701857
11	0xbf50ea79	-0.81607777
12	0x3d4a52e2	0.04939545
13	0xbe9bc3f4	-0.30422938
14	0xbc233e42	-0.009963574
15	0xbf5c820b	-0.8613593
16	0x3e7a3626	0.24434718
17	0xbf8bc7e1	-1.0920373
18	0xbef572ab	-0.47939047
19	0xbe5582c7	-0.20850669
20	0xbd269e34	-0.040678218
21	0xbf603193	-0.87575644
22	0xbec70258	-0.38868976
23	0xbf5960a8	-0.8491311
24	0xbf7f9837	-0.99841636
25	0xbe3227cf	-0.17397998
26	0xbed7b47e	-0.42129892
27	0xbf2f5321	-0.6848622
28	0xbf4c6158	-0.79836035
29	0x3cced3e8	0.02524753
30	0xbc1d778f	-0.0096110245
31	0xbf7ea31d	-0.9946764
32	0xbf1ed1a8	-0.6203866
33	0xbe8911c5	-0.2677137
34	0xbf7b496b	-0.981589
35	0x3df704f8	0.120614946
36	0xbf4fb8ce	-0.81141365
37	0xbdc84cec	-0.09780297
38	0xbf95e200	-1.1709595
39	0xbf80b692	-1.0055716
40	0xbf4cfd59	-0.8007408
41	0xbe6a6e17	-0.22893558
42	0xbf598f47	-0.8498425
43	0xbe4b85f8	-0.19875324
44	0xbf834caa	-1.0257771
45	0xbdb61199	-0.08890075
46	0xbf6d9562	-0.92806065
47	0xbe1825f8	-0.14858234
48	0xbeb58667	-0.35454103
49	0xbf797216	-0.97439706
50	0xbe543c23	-0.20726065
51	0xbf6752eb	-0.903609
52	0xbf88eab3	-1.0696625
53	0xbf298e14	-0.6623242
54	0xbf22a417	-0.6353163
55	0xbf418d8a	-0.75606596
56	0xbf2532c1	-0.6453057
57	0xbf48ac04	-0.78387475
58	0xbf2df90b	-0.67958134
59	0xbf62a016	-0.8852552
60	0xbf464818	-0.77453756
61	0xbf39bae6	-0.7255081
62	0xbf096a9a	-0.53678286
63	0xbf563b58	-0.836843
64	0xbf18791e	-0.5955981
65	0xbf2403b5	-0.64068156
66	0xbf4820fd	-0.78175336
67	0xbf3346e6	-0.7003006
68	0xbea0d259	-0.31410483
69	0xbf0656b7	-0.52476066
70	0xbf56a356	-0.8384298
71	0xbf14012d	-0.57814294
72	0xbf2854bb	-0.6575429
73	0xbf6132e2	-0.87968266
74	0xbed4c42f	-0.41555926
75	0xbf456411	-0.77105814
76	0xbf426c82	-0.7594682
77	0xbf3db523	-0.7410452
78	0xbf40b110	-0.75270176
79	0xbf25b634	-0.64731145
80	0xbf0aedeb	-0.54269284
81	0xbf44036c	-0.7656772
82	0xbf5f2096	-0.871591
83	0xbf0f5ad2	-0.55997956
84	0xbf58ead4	-0.8473332
85	0xbe8b4a49	-0.27205113
86	0xbf1903fa	-0.5977169
87	0xbf16e268	-0.5893922
88	0xbf412ba4	-0.75457215
89	0xbf071fb7	-0.5278277
90	0xbfa83115	-1.3139979
91	0xbf597a9e	-0.84952724
92	0xbef8db85	-0.4860498
93	0xbf5e8c37	-0.869327
94	0xbef03194	-0.46912825
95	0xbf636269	-0.88822037
96	0xbf85e61a	-1.0460846
97	0xbf408968	-0.75209665
98	0xbf50db8e	-0.81585014
99	0xbf3414e2	-0.70344365
100	0xbe258785	-0.16164978
101	0x3d86f841	0.065903194
102	0xbc09b032	-0.008403825
103	0x3deac7f0	0.11463916
104	0x3d347994	0.04406126
105	0xbde173ff	-0.110084526
106	0x3dae7da3	0.08520057
107	0x3db7effc	0.0898132
108	0x3e4e6278	0.2015475
109	0xbd4aae5e	-0.049482696
110	0x3e301dc1	0.1719885
111	0x3e25ccb2	0.16191366
112	0xbe1770b1	-0.14789082
113	0x3caa115d	0.020760233
114	0xbd73f674	-0.059561208
115	0xbcb157f3	-0.021648383
116	0x3c703b28	0.014662541
117	0x3c8bc6e2	0.017062608
118	0xbb54b846	-0.0032458468
119	0xbcc77e67	-0.024352266
120	0x3c9e3e07	0.019316686
121	0xbcbb0d53	-0.022833502
122	0xbe0e15e9	-0.13875546
123	0x3d426f73	0.047469568
124	0xbe213a8f	-0.15744995
125	0xbd012d7e	-0.031537525
126	0x3d9c60e2	0.076356664
127	0xbe564de9	-0.20928158
128	0xbd93c6c6	-0.072156474
129	0x3d612a14	0.05497177
130	0x3e2d87e5	0.16946371
131	0xbcac1e58	-0.021010563
132	0x3ddf8c54	0.10915437
133	0x3d13ce05	0.036085147
134	0xbe509f04	-0.2037316
135	0x3ce67366	0.028131198
136	0x3c47c8ab	0.012193839
137	0xbdbefa32	-0.09325065
138	0x3d91fc9b	0.07128259
139	0xbe1d58fd	-0.15365978
140	0xbde7a320	-0.113104105
141	0x3da21804	0.07914737
142	0xbdf7bf9c	-0.120970935
143	0xbd4576f2	-0.04820914
144	0x3de9ddcb	0.11419257
145	0xbe3e4eae	-0.18584701
146	0xbe070c8c	-0.1318838
147	0x3e0bfe5e	0.13671252
148	0xbd3daf6d	-0.046309877
149	0xbc2b9893	-0.010473388
150	0xbf34a23e	-0.7056006
151	0xbeda99a1	-0.42695335
152	0xbebd09aa	-0.36921436
153	0xbe8c222d	-0.27369824
154	0xbf1f0067	-0.6210999
155	0xbf7da479	-0.9907909
156	0xbec5dba2	-0.3864413
157	0xbe94a04b	-0.29028544
158	0xbf2d3779	-0.6766277
159	0xbf09eb1d	-0.5387438
160	0xbf543d02	-0.8290559
161	0xbf86b190	-1.0522938
162	0xbdd73afe	-0.10509299
163	0xbdc7c47c	-0.09754273
164	0xbcd785cc	-0.026308917
165	0xbf5abc84	-0.854439
166	0xbd172318	-0.036898702
167	0xbf8a7707	-1.0817574
168	0xbf079e08	-0.5297551
169	0xbf34e18a	-0.70656645
170	0xbe135789	-0.14388861
171	0xbf754d15	-0.9582074
172	0xbeba206b	-0.36352858
173	0xbf4c656e	-0.7984227
174	0xbf8155db	-1.0104326
175	0xbea2dfe1	-0.3181143
176	0xbf0862df	-0.53275865
177	0xbf7a95f9	-0.9788509
178	0xbf363499	-0.7117401
179	0x3b99d15e	0.004694148
180	0xbe1ecacb	-0.15507047
181	0xbf5756aa	-0.84116614
182	0xbf19edaf	-0.601283
183	0xbeb046d6	-0.34429044
184	0xbf3fd7ab	-0.7493846
185	0xbdff24ad	-0.12458167
186	0xbf2e58bb	-0.6810414
187	0xbed9b4d3	-0.4252077
188	0xbf6ad7a9	-0.9173532
189	0xbf79a481	-0.9751664
190	0xbf1a95f7	-0.6038508
191	0xbea98bf6	-0.33114594
192	0xbf4f636e	-0.8101109
193	0xbecffe3a	-0.40623647
194	0xbf6b6387	-0.9194874
195	0xbea4ed2f	-0.32212207
196	0xbf896a39	-1.0735542
197	0xbea6b562	-0.3256026
198	0xbeeb7a76	-0.45991868
199	0xbf8cc1ac	-1.0996604
