models/lstm/generation/saved_model/generation_lstm_house_3.pth (torch, 293312 bytes, 17 tensors)

lstm.weight_ih_l0 f4 [200, 1]
-0.116108336 0.06201649 0.020983152 0.038760662 -0.08549505 -0.09018895 0.106185034 0.057130814
-0.07196956 -0.14965342 -0.1483636 -0.0858474 0.11794333 -0.16058372 0.10356361 0.05171204
0.030886246 0.029355988 -0.14506488 -0.06657702 -0.101295486 0.06749011 0.024789523 -0.045977306
-0.10424592 0.101724744 -0.007119145 -0.110077746 -0.0523145 -0.05732973 -0.20383005 -0.13161829
-0.03505485 0.052363425 -0.14534724 0.07246558 -0.12260204 -0.03739239 -0.07855758 -0.1368935
-0.10067874 0.081541575 -0.018241351 0.07852432 -0.1344199 0.06037858 -0.10848073 0.057710875
-0.12123814 -0.05518437 -0.103414506 0.015558516 0.08851414 -0.09825658 0.04304125 -0.030734407
-0.07284693 -0.19825721 -0.13897833 -0.1048264 -0.14554554 -0.015768016 -0.0968552 -0.15356335
0.05524588 -0.052026086 -0.20121793 -0.16319783 0.046681743 -0.03999263 -0.08481655 -0.05540734
0.03141463 0.0037962277 0.09333608 -0.09241079 -0.051999044 -0.074237116 -0.13551167 -0.08457174
0.060275596 -0.0040669055 0.0038224088 -0.004818827 0.068646096 -0.068329155 -0.12375957 -0.07466987
-0.018764593 -0.044272657 -0.15409154 -0.010979974 -0.12667555 -0.053128574 0.029099984 -0.1775694
-0.13502705 0.069726735 -0.030604599 0.04297677 -0.050341595 -0.02217816 -0.11327624 -0.084938005
0.034241017 0.0115772495 0.09396192 0.03425136 -0.12062482 0.07244454 0.022817666 0.053078737
-0.13106583 0.079861216 0.0018639459 0.0024026057 -0.0040801987 -0.05769259 0.039893273 0.077210024
-0.12751032 -0.034508202 -0.06315588 -0.03200216 -0.027503317 -0.06581697 -0.0009715839 0.0063421014
-0.06427618 -0.013451002 0.004240936 -0.051543538 -0.0008491113 0.04768696 0.01384327 0.051898435
0.014230272 0.048612595 -0.026049819 0.020468254 -0.003494657 0.07915462 -0.030588338 0.06401584
0.04433184 0.10938174 -0.0654131 0.003337019 0.053854913 0.08957474 -0.1340992 -0.023583462
0.10303229 -0.03286558 -0.1406222 -0.19412471 0.0010820936 -0.08759516 -0.15143663 0.003969093
-0.12493244 0.048422016 0.04017895 -0.12677124 -0.14443651 -0.10608818 -0.026514528 0.07539149
-0.100913 -0.03637139 0.011329846 -0.14561959 -0.035155058 0.04238465 0.006266911 -0.025259193
-0.1607696 -0.10810364 -0.01786092 0.04020662 -0.098648824 -0.13508396 -0.15448296 -0.17773436
-0.15776005 -0.03283193 0.04603882 -0.023304133 -0.10776701 -0.081241466 0.06718165 -0.057218798
-0.01780897 0.066167295 -0.17038886 -0.15233344 0.06347231 0.014086773 -0.060898736 0.022288753
00000000: 35ca edbd 0105 7e3d dce4 ab3c 80c3 1e3d
00000010: 0718 afbd fcb4 b8bd 8a77 d93d 0002 6a3d
00000020: c764 93bd bf3e 19be a1ec 17be c3d0 afbd
00000030: 468c f13d 0f70 24be 2819 d43d 01d0 533d
00000040: 2705 fd3c f87b f03c e38b 14be 8859 88bd
00000050: 0274 cfbd 4138 8a3d 6613 cb3c b352 3cbd
00000060: e37e d5bd 1055 d03d b747 e9bb 7170 e1bd
00000070: bb47 56bd 94d2 6abd d3b8 50be f2c6 06be
00000080: ad95 0fbd 087b 563d e8d5 14be d668 943d
00000090: c716 fbbd c328 19bd cce2 a0bd cf2d 0cbe
000000a0: a830 cebd 45ff a63d e36e 95bc 5cd1 a03d
000000b0: 5fa5 09be 884f 773d 252b debd 3d62 6c3d
000000c0: b44b f8bd 0209 62bd fcca d3bd 25e9 7e3c
000000d0: e746 b53d bf3a c9bd 064c 303d b9c6 fbbc
000000e0: c530 95bd f003 4bbe 5650 0ebe 39af d6bd
000000f0: e409 15be ed2b 81bc 055c c6bd b63f 1dbe
00000100: 8149 623d 4e19 55bd 130c 4ebe 551d 27be
00000110: 5b35 3f3d 50cf 23bd 4db4 adbd cff2 62bd
00000120: a1ac 003d 22ca 783b fd26 bf3d de41 bdbd
00000130: f3fc 54bd a109 98bd 92c3 0abe f333 adbd
00000140: 8be3 763d ad43 85bb 6181 7a3b 40e7 9dbb
00000150: 5396 8c3d 28f0 8bbd a875 fdbd 84ec 98bd
00000160: 34b8 99bc 3f57 35bd 2cca 1dbe 59e5 33bc
00000170: 3cb7 01be 599d 59bd 1763 ee3c c1d4 35be
00000180: 8844 0abe e4cc 8e3d 7fb6 fabc 6908 303d
00000190: fd32 4ebd f9ae b5bc 60fd e7bd faf3 adbd
000001a0: 4f40 0c3d 81ae 3d3c 1b6f c03d 274b 0c3d
000001b0: 250a f7bd ce5d 943d 1dec ba3c 1769 593d
000001c0: 1f36 06be 478e a33d a54f f43a 0975 1d3b
000001d0: 30b3 85bb 114f 6cbd 2167 233d 4a20 9e3d
000001e0: 1192 02be 7958 0dbd df57 81bd b214 03bd
000001f0: a34e e1bc 0ccb 86bd e4b1 7eba 67d1 cf3b
00000200: 3ba3 83bd 9761 5cbc 8df7 8a3b 511f 53bd
00000210: e596 5eba 6753 433d e2ce 623c 7493 543d
00000220: 1626 693c 001e 473d 6e66 d5bc 0aad a73c
00000230: 9e06 65bb d11b a23d 6594 fabc bd1a 833d
00000240: 4e95 353d 8903 e03d 4ef7 85bd e3b1 5a3b
00000250: f896 5c3d f672 b73d 4d51 09be 1b32 c1bc
00000260: 9802 d33d 0f9e 06bd 44ff 0fbe a1c8 46be
00000270: 09d5 8d3a 1765 b3bd 3412 1bbe 2a0f 823b
00000280: 94dc ffbd 2a56 463d af92 243d 52d0 01be
00000290: 2ae7 13be c244 d9bd ff34 d9bc da66 9a3d
000002a0: 7aab cebd 2bfa 14bd d2a0 393c 4d1d 15be
000002b0: c0fe 0fbd 879b 2d3d a95a cd3b 5eec cebc
000002c0: c9a0 24be 7165 ddbd 1051 92bc b2af 243d
000002d0: 6508 cabd 7353 0abe c830 1ebe ffff 35be
000002e0: da8b 21be c67a 06bd 3493 3c3d 4fe8 bebc
000002f0: f3b4 dcbd ed61 a6bd 8896 893d 425e 6abd
00000300: 1ee4 91bc b882 873d 6b7a 2ebe 4cfd 1bbe
00000310: c5fd 813d 35cc 663c f470 79bd e796 b63c

lstm.weight_hh_l0 f4 [200, 50]
0.035573453 -0.12756355 0.20413028 0.038412455 0.06108092 0.036256418 -0.06177544 -0.013041631
0.011461484 0.0697647 0.18869875 -0.10520677 0.15577833 0.05664231 -0.16901046 -0.14857051
-0.106580734 0.2063053 0.0023983896 -0.1781046 -0.13502695 -0.11776191 0.1830744 -0.057020027
0.05824012 0.08777718 -0.10450766 -0.16298625 0.1193407 -0.088340506 -0.0787331 -0.20456357
0.066358864 0.19366567 0.091487065 -0.15979777 0.067373276 0.038429387 -0.19848396 0.01021247
-0.09226631 0.06724893 0.17280869 -0.1403961 -0.016901027 0.08010022 0.018986378 -0.058836296
0.01203615 -0.06599432 -0.15780175 0.06560825 0.046356205 0.1908129 0.07268668 0.18959667
0.05277476 0.17733304 0.025749793 -0.11291543 -0.028402915 0.03785265 0.023779051 0.009321883
0.0013288845 0.0026779566 0.06241623 -0.0040633734 0.07513777 -0.022028124 -0.18666245 -0.08492525
0.12195141 0.035633933 -0.17423397 -0.023367312 0.05382647 -0.025079837 0.20187737 -0.06948131
-0.036484137 -0.10952247 0.0928096 0.054196376 -0.060153197 0.03525516 -0.02848652 0.06919145
0.0231542 -0.024310648 -0.081622444 -0.052996982 0.063247606 -0.10978851 -0.030451577 0.06533052
0.13644369 0.04213442 -0.020612307 0.08253899 -0.022402328 0.10207752 -0.09024686 0.21682648
-0.104809865 -0.1485181 -0.009622444 -0.036493406 0.06154599 -0.13729207 0.05300551 -0.029149847
0.12176324 0.15945777 0.04758953 -0.23488812 -0.20811065 0.10095397 0.030031208 0.07773225
0.11513082 0.009921972 0.053441092 -0.045768697 0.038595445 0.15451358 0.03480135 -0.036250133
-0.015624215 0.042924494 0.00384871 0.04756511 -0.04344581 0.10351345 -0.14110334 0.060907304
0.15032025 0.11197201 -0.042223603 0.1558847 -0.061248254 0.09325819 0.06111462 -0.067550555
0.1336649 -0.09895 0.04411601 -0.06394998 -0.05483374 -0.11550159 0.04124289 -0.09592251
0.045592118 0.048245654 0.08593948 0.023663994 -0.12969372 0.17433944 -0.06934762 -0.12582663
0.09576359 0.022488292 0.019728074 -0.12898596 -0.1608226 -0.08372428 -0.09643061 -0.035453055
-0.009929585 0.047566053 -0.1564281 0.08303801 0.09694387 0.08855328 -0.12635645 -0.14055738
-0.074485116 -0.14332587 0.02448334 -0.17029698 -0.021227168 0.094223544 0.04210264 -0.1443309
0.08345597 -0.065036416 0.04182033 0.035537414 0.046749283 -0.17057127 0.06730836 -0.051117882
-0.10353476 -0.10460148 0.09290719 0.11765424 -0.08567763 0.10214201 0.04879187 -0.12502365
-0.17549686 -0.155031 -0.0846508 0.19432013 0.018166875 0.077602476 -0.081245035 -0.03900809
-0.0035287547 -0.10797983 0.032033637 0.02320625 0.13697785 0.14300072 -0.08468091 -0.14874472
-0.26692718 -0.04101166 -0.084733374 -0.15550426 0.05646286 -0.008162694 -0.046734538 -0.059499066
-0.11033957 0.12382383 -0.16014168 0.10060259 0.0604211 -0.06123556 -0.15229027 0.07979314
-0.050386135 -0.017465986 -0.12181254 -0.13584176 0.0698522 0.15496352 -0.15777977 0.18780728
-0.041108023 -0.10743048 0.037548084 0.08792344 0.10606653 -0.08342307 -0.06599664 0.15365073
-0.14756323 -0.012193513 0.00895347 -0.14272697 0.12068816 0.20842272 0.10224621 -0.030900698
00000000: 78b5 113d 05a0 02be 8707 513e 6156 1d3d
00000010: fd2f 7a3d 9c81 143d 3e08 7dbd 91ac 55bc
00000020: f3c8 3b3c cce0 8e3d 3f3a 413e a676 d7bd
00000030: 5b84 1f3e c401 683d 1411 2dbe de22 18be
00000040: 0047 dabd b241 533e 4d2e 1d3b 0d61 36be
00000050: 8144 0abe 282d f1bd db77 3b3e d58d 69bd
00000060: 318d 6e3d 86c4 b33d 1d08 d6bd dee5 26be
00000070: e668 f43d deeb b4bd d23e a1bd 1d79 51be
00000080: 28e7 873d 4b50 463e 925d bb3d 07a2 23be
00000090: 00fb 893d 2268 1d3d 613f 4bbe 3452 273c
000000a0: 1ef6 bcbd cfb9 893d c3f4 303e ffc3 0fbe
000000b0: 0674 8abc 960b a43d 5289 9b3c 54fe 70bd
000000c0: 4633 453c 0828 87bd c896 21be 9e5d 863d
000000d0: 01e0 3d3d 7564 433e c1dc 943d a125 423e
000000e0: 592a 583d cb96 353e 3bf1 d23c 3440 e7bd
000000f0: 3bad e8bc 610b 1b3d 49cc c23c d0ba 183c
00000100: f72d ae3a a880 2f3b 29a8 7f3d 0c26 85bb
00000110: d5e1 993d 5374 b4bc 7124 3fbe 4aed adbd
00000120: a9c1 f93d e3f4 113d 646a 32be ce6c bfbc
00000130: 2579 5c3d 3b74 cdbc f1b8 4e3e 384c 8ebd
00000140: 6470 15bd 514d e0bd f612 be3d 05fd 5d3d
00000150: 3363 76bd b767 103d 905c e9bc 3fb4 8d3d
00000160: e0ad bd3c 2027 c7bc ab29 a7bd 5d13 59bd
00000170: f687 813d ccd8 e0bd 9675 f9bc 02cc 853d
00000180: e5b7 0b3e 2495 2c3d 24db a8bc 340a a93d
00000190: 1685 b7bc 050e d13d 59d3 b8bd c307 5e3e
000001a0: 8ea6 d6bd 2115 18be 75a7 1dbc 1c7a 15bd
000001b0: a617 7c3d 4b96 0cbe 4e1c 593d a9cb eebc
000001c0: 015f f93d e648 233e 3ded 423d 8386 70be
000001d0: f51a 55be f4c0 ce3d 0204 f63c 1632 9f3d
000001e0: b5c9 eb3d c48f 223c 0ce5 5a3d f577 3bbd
000001f0: 4216 1e3d cf38 1e3e dc8b 0e3d 057b 14bd
00000200: b5fc 7fbc 98d1 2f3d a43a 7c3b a2d3 423d
00000210: 3cf4 31bd dcfe d33d 657d 10be f079 793d
00000220: 8ded 193e 9551 e53d a8f2 2cbd 3da0 1f3e
00000230: 73df 7abd 26fe be3d 5353 7a3d f257 8abd
00000240: 74df 083e 4ca6 cabd fdb2 343d 35f8 82bd
00000250: 5899 60bd 198c ecbd 4eee 283d 0573 c4bd
00000260: cdbe 3a3d 3c9d 453d 0a01 b03d feda c13c
00000270: 6ece 04be 0a86 323e 2006 8ebd b2d8 00be
00000280: b31f c43d 5e39 b83c c59c a13c e514 04be
00000290: aeae 24be a377 abbd 697d c5bd 3937 11bd
000002a0: b3af 22bc 9fd4 423d b02e 20be d50f aa3d
000002b0: 828a c63d 6c5b b53d 9663 01be 46ee 0fbe
000002c0: a78b 98bd 04c4 12be 4991 c83c 5562 2ebe
000002d0: 99e4 adbc 46f8 c03d d173 2c3d 7bcb 13be
000002e0: f7ea aa3d d031 85bd cb4b 2b3d ae8f 113d
000002f0: 2d7c 3f3d 3caa 2ebe f7d8 893d fc60 51bd
00000300: 080a d4bd 4d39 d6bd 2046 be3d b5f4 f03d
00000310: c177 afbd d52f d13d fcd9 473d 3306 00be
00000320: 73b5 33be 72c0 1ebe 665d adbd dbfb 463e
00000330: b3d2 943c 0cee 9e3d cc63 a6bd f2c6 1fbd
00000340: ae42 67bb 8724 ddbd b435 033d 091b be3c
00000350: ec43 0c3e c86e 123e 2f6d adbd 8950 18be
00000360: aeaa 88be d8fb 27bd b188 adbd 823c 1fbe
00000370: 9a45 673d d2bc 05bc b76c 3fbd 4bb5 73bd
00000380: b6f9 e1bd 5997 fd3d 2efc 23be bb08 ce3d
00000390: 1e7c 773d 23d2 7abd fbf1 1bbe 966a a33d
000003a0: b161 4ebd d414 8fbc da78 f9bd 1a1a 0bbe
000003b0: ac0e 8f3d c2ae 1e3e 0591 21be 8d50 403e
000003c0: e360 28bd 8304 dcbd 05cc 193d 3411 b43d
000003d0: 6939 d93d b7d9 aabd 3f29 87bd 9e56 1d3e
000003e0: d11a 17be 4dc7 47bc 93b1 123c 0527 12be
000003f0: 5b2b f73d c46c 553e 7666 d13d 7623 fdbc

lstm.bias_ih_l0 f4 [200]
-0.019898646 0.021970412 -0.060902752 -0.11690018 -0.071835995 -0.045985274 -0.007914485 -0.1937391
-0.010941947 -0.117128626 -0.18945803 0.012142864 -0.0669548 0.031281024 -0.13863756 -0.0022452914
-0.11507104 -0.14165647 -0.071134456 -0.07126063 -0.11215163 -0.105345584 0.08758196 0.013903355
-0.102922745 -0.11968949 0.03569738 0.0074680396 0.00028347262 -0.1603141 -0.18312564 0.045709297
-0.15643245 0.025406681 0.053510856 -0.12126644 -0.14430645 -0.14641862 0.0024651764 -0.06490818
-0.12106931 -0.074160576 -0.0438147 -0.10957428 -0.14201878 0.056416582 -0.12703224 0.009408778
0.05472416 -0.10300272 0.04435301 0.057547733 0.1216118 -0.09724208 0.11461025 0.05751556
-0.16849199 0.026912428 0.07782783 -0.10296661 -0.09943283 0.05126343 0.10479236 -0.019771656
-0.035263434 -0.13982294 -0.06419389 -0.19041276 -0.07487409 0.03973003 -0.12470638 -0.06950768
-0.11937834 -0.14886625 0.088576615 -0.07080607 0.06954204 -0.07141156 0.08543826 -0.13365433
-0.07006042 0.07134338 -0.16001536 -0.08497314 0.021585008 0.13387996 0.006630928 -0.17686822
-0.05867972 0.057678916 -0.0835312 0.04236843 -0.114772595 0.09648816 -0.20586203 -0.21252559
0.07941204 -0.07317975 0.03042516 0.042892013 0.061030295 0.11620589 -0.12816043 -0.06616344
-0.11654468 -0.08891705 0.039706994 -0.07125195 0.0023435028 -0.08698033 -0.05786718 0.101857476
-0.10858397 -0.14664324 0.09558247 -0.09154411 0.045712415 0.04489762 -0.11231916 -0.120244525
0.10729049 0.092375964 0.005449994 -0.113473505 -0.040383317 0.09592615 0.11956069 -0.10221171
-0.060889598 0.09952764 0.04511709 0.073047586 -0.059596457 0.03757356 0.0323662 0.012614153
-0.0569562 -0.07846849 0.04877782 0.08217044 -0.112783566 -0.057132863 0.09892992 -0.014569118
-0.021125931 -0.017454285 0.093484625 -0.04112062 -0.03932122 -0.13309741 -0.18268694 -0.024220733
0.12963438 0.045634538 -0.07386306 -0.12871704 0.028539557 0.038944885 -0.1389663 -0.0394258
-0.16008082 0.027662544 -0.08608584 0.049956966 0.05243985 -0.052714415 -0.026802065 0.054928128
-0.0050796615 0.022822535 0.044645913 -0.13560082 -0.02916422 -0.096753456 0.027461084 -0.016052825
0.04121801 -0.06550335 -0.01000669 -0.021258246 -0.21311572 -0.17052732 0.08746898 -0.075304955
-0.09627623 0.002000125 -0.039403405 -0.023830146 -0.07369776 -0.0701865 0.054669525 0.02193217
-0.08830772 -0.08814933 0.028908947 0.0029664966 -0.024953598 0.01918797 -0.017084533 -0.049238876
00000000: 7c02 a3bc 4bfb b33c 2a75 79bd 5d69 efbd
00000010: c01e 93bd 0e5b 3cbd c2ab 01bc 8b63 46be
00000020: da45 33bc 22e1 efbd 4901 42be ddf2 463c
00000030: 991f 89bd 8820 003d 01f7 0dbe bd25 13bb
00000040: 5eaa ebbd 650e 11be f1ae 91bd 18f1 91bd
00000050: c1af e5bd 6dbf d7bd 2c5e b33d e6ca 633c
00000060: 29c9 d2bd c31f f5bd 6a37 123d 75b6 f43b
00000070: 0d9f 9439 6129 24be 4a85 3bbe ac39 3b3d
00000080: d42f 20be ac21 d03c 332e 5b3d 8a5a f8bd
00000090: 12c5 13be c3ee 15be cc8e 213b 94ee 84bd
000000a0: 30f3 f7bd 80e1 97bd 0b77 33bd 7b68 e0bd
000000b0: 5f6d 11be 1315 673d bd14 02be 4627 1a3c
000000c0: 7126 603d 17f3 d2bd 80ab 353d 2cb7 6b3d
000000d0: 9b0f f93d db26 c7bd c7b8 ea3d 7095 6b3d
000000e0: 2a89 2cbe 7477 dc3c 3364 9f3d 28e0 d2bd
000000f0: 71a3 cbbd 9af9 513d 609d d63d 2bf8 a1bc
00000100: 6470 10bd bf2d 0fbe 1678 83bd 90fb 42be
00000110: 9657 99bd f5bb 223d 0f66 ffbd 0b5a 8ebd
00000120: a27c f4bd 6570 18be a867 b53d c602 91bd
00000130: 0f6c 8e3d 3940 92bd 41fa ae3d aedc 08be
00000140: d67b 8fbd 7a1c 923d 11db 23be 6606 aebd
00000150: 0bd3 b03c d417 093e 4148 d93b f11c 35be
00000160: 255a 70bd ba40 6c3d 6812 abbd 858a 2d3d
00000170: e50d ebbd 969b c53d 7fcd 52be 4fa0 59be
00000180: c8a2 a23d 44df 95bd 2f3e f93c 89af 2f3d
00000190: e7fa 793d 5bfd ed3d 7d3c 03be b380 87bd
000001a0: faae eebd 241a b6bd cda3 223d 8bec 91bd
000001b0: 7495 193b be22 b2bd 2306 6dbd a79a d03d
000001c0: 4661 debd a529 16be bec0 c33d 7a7b bbbd
000001d0: f13c 3b3d 91e6 373d 9607 e6bd c342 f6bd
000001e0: 1ebb db3d 9c2f bd3d dd95 b23b cc64 e8bd
000001f0: fa68 25bd ee74 c43d 3cdc f43d 5f54 d1bd
00000200: 5f67 79bd 26d5 cb3d b3cc 383d f999 953d
00000210: 6a1b 74bd bce6 193d 6c92 043d 98ab 4e3c
00000220: e84a 69bd 16b4 a0bd 40cb 473d fa48 a83d
00000230: 12fb e6bd 2604 6abd c59b ca3d 4fb3 6ebc
00000240: 4a10 adbc 4afc 8ebc de74 bf3d 186e 28bd
00000250: 4a0f 21bd b04a 08be 4912 3bbe 8f6a c6bc
00000260: e0be 043e 48eb 3a3d 8445 97bd 66ce 03be
00000270: cacb e93c ac84 1f3d 2f4d 0ebe f37c 21bd
00000280: 3aec 23be 8f9c e23c c64d b0bd ad9f 4c3d
00000290: 2bcb 563d 12eb 57bd 0190 dbbc 51fc 603d
000002a0: 4a73 a6bb 53f6 ba3c a2de 363d f1da 0abe
000002b0: cde9 eebc ad26 c6bd 11f6 e03c 3781 83bc
000002c0: 37d4 283d 9f26 86bd 1af3 23bc c625 aebc
000002d0: 023b 5abe b79e 2ebe f022 b33d 7c39 9abd
000002e0: 792c c5bd 8714 033b 7765 21bd 7037 c3bc
000002f0: daee 96bd f1bd 8fbd 27ed 5f3d 18ab b33c
00000300: aeda b4bd a387 b4bd 75d2 ec3c 8e69 423b
00000310: 7d6b ccbc 1730 9d3c ddf4 8bbc b4ae 49bd

lstm.bias_hh_l0 f4 [200]
-0.1340125 -0.06235127 -0.085261844 -0.013984935 0.07616529 -0.21734232 0.048394047 -0.06027927
-0.1308921 0.009654267 0.014625193 -0.11960493 0.074159965 -0.14674468 -0.059922766 -0.13391365
-0.049859624 -0.12722182 0.020999357 0.07648428 0.09276607 0.029103177 0.018678952 0.03327255
-0.07488178 0.06513087 -0.1224516 -0.036035832 -0.11051752 -0.117133595 0.023060774 0.010079518
0.006848927 -0.057217464 0.020512085 0.0068814745 -0.144985 -0.20474468 -0.028506165 -0.14145605
0.07881265 0.07733348 0.026066996 0.035654236 -0.02142112 -0.16815947 -0.1360741 -0.11368724
0.08881986 -0.009406993 -0.0020633172 -0.029461803 -0.0042120493 0.0101502165 -0.105859995 -0.07113369
-0.091049224 -0.047015987 0.12566732 -0.11635085 -0.06550281 -0.04424531 0.09036013 0.031939887
0.08241911 -0.08665089 -0.17872708 -0.19053358 -0.034942634 -0.028134232 0.09974747 0.0747851
0.1174013 0.043007415 0.12977281 -0.04123365 0.11590025 -0.15083614 -0.095553644 0.02274839
-0.05587522 -0.17503181 -0.0010194716 -0.082568906 -0.13185734 0.1006625 -0.048484325 -0.17496245
-0.06903958 -0.030288825 0.10865628 -0.10915366 0.07445269 -0.1118436 -0.080325305 -0.14886977
0.075596265 -0.13455082 0.0454804 -0.07193707 -0.0633435 -0.0813961 -0.0008949024 -0.038462278
-0.0037637358 0.104590125 -0.06826849 -0.05244008 -0.017436853 0.054736476 -0.011812275 -0.028331293
0.11796141 0.07495678 0.039907224 0.081952065 0.08803977 -0.03409404 -0.093573615 0.10432144
0.07392572 0.05113387 -0.019271614 0.012011103 0.15308675 0.14012738 -0.01327582 0.06883655
-0.03751824 0.013617139 -0.031393588 0.044337127 -0.024792537 0.008490743 0.108277574 0.13326605
0.016792918 -0.050947353 0.07634523 -0.07637493 0.121308185 0.015314253 -0.041676078 0.11148514
-0.091633596 -0.021616446 0.06358786 -0.09619157 0.050782748 0.070576295 -0.054193515 0.032718208
-0.1265991 0.013550427 0.039802622 -0.14364445 -0.14047816 -0.100560226 -0.08607912 -0.104039066
0.028236913 -0.16622801 0.032370195 0.07172304 0.084429964 0.03800575 -0.08122251 -0.11959387
0.09202119 -0.107187085 0.008627398 -0.099046394 -0.060434453 -0.009261134 0.0015275499 0.09979689
-0.10206805 -0.081652485 0.020736488 -0.1603212 -0.06716785 0.0044874046 0.01454714 -0.04180526
-0.057990305 -0.14003249 0.11359244 -0.15701298 -0.09693339 -0.16119654 -0.015811747 0.06967311
-0.17989126 0.0847895 -0.16798624 -0.1299111 -0.07102357 -0.07296906 0.03723796 -0.10173077
00000000: 933a 09be 0c64 7fbd c39d aebd 1221 65bc
00000010: 8cfc 9b3d fc8e 5ebe d638 463d 65e7 76bd
00000020: 9408 06be ee2c 1e3c 819e 6f3c 6ef3 f4bd
00000030: 2ee1 973d 3d44 16be 9371 75bd a920 09be
00000040: 9b39 4cbd 7046 02be d806 ac3c caa3 9c3d
00000050: 23fc bd3d c969 ee3c 9a04 993c cc48 083d
00000060: 9e5b 99bd 5563 853d e8c7 fabd 4f9a 13bd
00000070: 0257 e2bd bde3 efbd f3e9 bc3c 9024 253c
00000080: f76c e03b dc5c 6abd f608 a83c fe7d e13b
00000090: f376 14be 97a8 51be c385 e9bc dbd9 10be
000000a0: 8768 a13d 0461 9e3d 748a d53c 2d0a 123d
000000b0: 587b afbc ff31 2cbe 0257 0bbe dbd4 e8bd
000000c0: 30e7 b53d ca1f 1abc b838 07bb e159 f1bc
000000d0: 3b05 8abb 184d 263c 20cd d8bd 8aae 91bd
000000e0: 0478 babd d693 40bd efae 003e 5b49 eebd
000000f0: 5626 86bd 923a 35bd bb0e b93d 66d3 023d
00000100: 5acb a83d 0676 b1bd 3b04 37be 3c1b 43be
00000110: 0220 0fbd c379 e6bc 6748 cc3d ee28 993d
00000120: 1870 f03d 8b28 303d 2ae3 043e 9ee4 28bd
00000130: 1c5d ed3d ca74 1abe a1b1 c3bd d55a ba3c
00000140: 6add 64bd 8a3b 33be ca9f 85ba e319 a9bd
00000150: 9c05 07be 2428 ce3d 8097 46bd 5b29 33be
00000160: a064 8dbd 4520 f8bc 2f87 de3d f48b dfbd
00000170: a77a 983d 420e e5bd 9881 a4bd 5171 18be
00000180: 37d2 9a3d b1c7 09be a849 3a3d be53 93bd
00000190: 3dba 81bd 00b3 a6bd e297 6aba 9f8a 1dbd
000001a0: 02a9 76bb 5933 d63d 5ad0 8bbd 69cb 56bd
000001b0: bbd7 8ebc 5b33 603d 4688 41bc 0717 e8bc
000001c0: c095 f13d f182 993d c275 233d 7cd6 a73d
000001d0: 324e b43d 31a6 0bbd 86a3 bfbd 7ba6 d53d
000001e0: 5e66 973d c071 513d 81df 9dbc 38ca 443c
000001f0: c6c2 1c3e 8d7d 0f3e d382 59bc 2dfa 8c3d
00000200: baac 19bd 6c1a 5f3c 9096 00bd d99a 353d
00000210: b819 cbbc c21c 0b3c a2c0 dd3d e576 083e
00000220: 4d91 893c 2cae 50bd e35a 9c3d 766a 9cbd
00000230: 6d70 f83d a2e8 7a3c 89b4 2abd 5252 e43d
00000240: 65aa bbbd f914 b1bc 5a3a 823d 1600 c5bd
00000250: 9201 503d 4e8a 903d 05fa 5dbd 8703 063d
00000260: 32a3 01be 9c02 5e3c 1308 233d 8817 13be
00000270: 82d9 0fbe 85f2 cdbd 404a b0bd 6f12 d5bd
00000280: 1951 e73c ad37 2abe 9c96 043d 87e3 923d
00000290: 9ee9 ac3d ebab 1b3d fd57 a6bd a2ed f4bd
000002a0: 9b75 bc3d e784 dbbd ee59 0d3c d6d8 cabd
000002b0: 1e8a 77bd 03bc 17bc 1238 c83a 5062 cc3d
000002c0: 0e09 d1bd 6b39 a7bd 91df a93c 3e2b 24be
000002d0: 4c8f 89bd 140b 933b 2157 6e3c fe3b 2bbd
000002e0: 3e87 6dbd ad64 0fbe 27a3 e83d 03c8 20be
000002f0: 0385 c6bd b510 25be a387 81bc c7b0 8e3d
00000300: 6a35 38be 1ea6 ad3d 9604 2cbe 6a07 05be
00000310: ce74 91bd cd70 95bd d586 183d 3958 d0bd

lstm.weight_ih_l1 f4 [200, 50]
-0.1937121 -0.035207123 0.12639935 0.016793376 0.0076684887 -0.037277304 -0.12536284 0.11651587
-0.0236171 -0.013575968 0.046731796 -0.124998905 -0.046762034 0.1349234 -0.11088333 0.07294214
0.002581929 0.11388843 0.13314773 -0.117663 -0.16624644 -0.11333092 -0.040997114 -0.125875
-0.1647747 0.06920706 -0.1306054 -0.023175722 0.1477195 -0.03686211 -0.03655281 -0.05016698
0.16903374 0.04380995 -0.1497809 -0.1893718 0.21165957 0.10067914 -0.109527715 -0.056926515
0.007014272 -0.14516094 0.10864109 -0.20702906 0.106082 -0.08676818 -0.04037064 0.09481936
0.019226868 0.058965135 0.044853985 -0.05079856 0.17631043 0.24447413 -0.05880795 0.016596727
-0.040454865 0.16862303 0.060295887 -0.014972771 -0.036135606 -0.13676949 -0.02917391 -0.061265696
-0.18428472 -0.12549517 0.004184391 0.080776714 0.21438362 -0.20206992 -0.19751161 -0.101607464
0.045024347 -0.036048524 0.064699836 -0.21083152 -0.16208342 0.030121272 0.015047478 0.0937077
0.0055454765 -0.1459932 0.1327133 0.17762803 -0.061001718 -0.07241503 0.011177892 -0.019665338
0.046158627 0.026761228 -0.19108754 -0.069267236 0.15388283 -0.14065738 0.075741746 -0.02296012
-0.053935822 -0.051323257 0.012725306 -0.0060039214 -0.15512687 0.014669581 0.10294545 0.18861607
0.06949407 0.10605508 0.14968854 -0.0712346 0.15583023 -0.17757663 0.0021205116 -0.042477332
0.022701442 -0.12786812 -0.14306688 -0.04353032 -0.027494399 -0.01948145 0.020294754 -0.1824761
-0.14061104 0.058846176 0.018230898 -0.14209105 -0.059972256 -0.16161129 -0.08007288 -0.0406237
0.009943642 0.03962462 0.025510559 -0.055934653 0.16040775 -0.07629633 0.08415128 -0.115807876
0.0824043 -0.028754316 -0.07210974 -0.08090273 -0.16796826 0.04240884 -0.06460332 -0.13445212
0.07156018 0.0077177216 0.09699271 0.07457742 0.035790667 0.026430167 -0.17001887 0.07144272
0.072178766 0.06335682 0.14653246 0.17225918 -0.19816399 0.16030236 0.11748091 -0.10138913
0.13260536 0.02731767 0.059820674 -0.018676346 0.044861697 -0.14547819 0.06456861 -0.08505179
-0.061193608 -0.19480196 0.08054251 -0.02471565 -0.08482642 -0.18338032 -0.062418725 -0.00084325037
0.073324904 -0.18216285 0.04685731 -0.0139014665 -0.0634747 -0.06343861 0.075438164 -0.006722972
-0.0676174 -0.0010137255 0.03350946 -0.12357651 -0.0053378004 0.0037787636 -0.006319799 0.0034486172
0.16345719 0.07145846 0.051895596 0.066357195 0.101993434 0.17689283 -0.12620024 -0.05681419
0.03269232 0.0556915 -0.11076857 0.21690038 -0.094355956 -0.11480427 -0.0905023 0.05931714
0.08744898 0.122547284 0.028280819 -0.14132434 0.0808427 0.048567012 -0.06377454 -0.16700743
-0.21310997 0.13236742 -0.006169773 -0.08326474 -0.024694677 -0.08490249 -0.011188802 0.14728464
0.05772437 0.009293771 0.06941318 0.034377046 0.100611776 0.021139227 0.0019031402 -0.02513618
-0.1168513 0.10875888 -0.22661407 -0.100040145 -0.10358265 0.13934813 -0.09103 -0.03092135
-0.06865471 -0.0012578455 -0.0042796684 -0.050918836 -0.063073464 -0.0014141698 -0.05252094 -0.070277706
-0.1002748 0.07799197 0.107892856 0.0010299649 0.020856237 0.020998832 0.08549263 -0.16032675
00000000: 775c 46be 5835 10bd d56e 013e 4392 893c
00000010: f247 fb3b 16b0 18bd 1e5f 00be df9f ee3d
00000020: a678 c1bc bd6d 5ebc d769 3f3d 6dff ffbd
00000030: 8c89 3fbd 5c29 0a3e cd16 e3bd b062 953d
00000040: 9535 293b 563e e93d e157 083e 4df9 f0bd
00000050: 823c 2abe 0b1a e8bd 97ec 27bd 60e5 00be
00000060: b3ba 28be 6ebc 8d3d 6cbd 05be 03db bdbc
00000070: c843 173e b9fc 16bd 66b8 15bd e47b 4dbd
00000080: 2e17 2d3e 1072 333d 2a60 19be aeea 41be
00000090: 49bd 583e dd30 ce3d 1150 e0bd c72b 69bd
000000a0: fad7 e53b 12a5 14be 387f de3d 6dff 53be
000000b0: 8541 d93d 84b3 b1bd af5b 25bd a730 c23d
000000c0: aa81 9d3c 6d85 713d d0b8 373d 2712 50bd
000000d0: b98a 343e 6d57 7a3e 9be0 70bd dcf5 873c
000000e0: 00b4 25bd 84ab 2c3e d2f8 763d 5a50 75bc
000000f0: ee02 14bd 4d0d 0cbe 20fe eebc bdf1 7abd
00000100: 22b5 3cbe ce81 00be 371d 893b 436e a53d
00000110: 6187 5b3e 6beb 4ebe 7c40 4abe 9317 d0bd
00000120: 736b 383d 9ea7 13bd 5981 843d 38e4 57be
00000130: 32f9 25be e3c0 f63c b289 763c d3e9 bf3d
00000140: d4b6 b53b 3e7f 15be ffe5 073e 1fe4 353e
00000150: f0dc 79bd 554e 94bd 7a23 373c 3419 a1bc
00000160: d410 3d3d 5d3a db3c 74ac 43be fbdb 8dbd
00000170: 7693 1d3e 7d08 10be 7d1e 9b3d dd16 bcbc
00000180: cfeb 5cbd 5638 52bd cd7d 503c 8bbc c4bb
00000190: 94d9 1ebe af58 703c 10d5 d23d 9224 413e
000001a0: e852 8e3d 6833 d93d f447 193e 72e3 91bd
000001b0: f691 1f3e a6d6 35be 48f8 0a3b b6fc 2dbd
000001c0: 60f8 b93c dcef 02be 2080 12be d94c 32bd
000001d0: ef3b e1bc 9097 9fbc 2f41 a63c 04db 3abe
000001e0: 57fc 0fbe b008 713d f758 953c 5180 11be
000001f0: 78a5 75bd 6e7d 25be 40fd a3bd 0965 26bd
00000200: a8ea 223c 6d4d 223d 85fb d03c bc1b 65bd
00000210: ee41 243e 4041 9cbd 8257 ac3d ae2c edbd
00000220: 96c3 a83d 2c8e ebbc 45ae 93bd 55b0 a5bd
00000230: dfff 2bbe e4b4 2d3d bf4e 84bd d1ad 09be
00000240: 258e 923d f1e4 fc3b 1da4 c63d 0cbc 983d
00000250: 3c99 123d 1484 d83c 6d19 2ebe 9050 923d
00000260: 76d2 933d 38c1 813d 9b0c 163e b664 303e
00000270: 80eb 4abe 4d26 243e d599 f03d 1ba5 cfbd
00000280: b3c9 073e 4ec9 df3c 8606 753d 23ff 98bc
00000290: e6c0 373d 3cf8 14be 8c3c 843d a22f aebd
000002a0: 26a6 7abd 2a7a 47be 79f3 a43d 7a78 cabc
000002b0: 79b9 adbd 0dc8 3bbe c7aa 7fbd 930d 5dba
000002c0: 5e2b 963d e688 3abe 73ed 3f3d fac2 63bc
000002d0: 06ff 81bd 1aec 81bd 537f 9a3d 604c dcbb
000002e0: fe7a 8abd fcde 84ba 3741 093d ae15 fdbd
000002f0: b7e8 aebb 22a5 773b 5116 cfbb 3202 623b
00000300: 5261 273e d058 923d 7a90 543d 48e6 873d
00000310: efe1 d03d 6523 353e a33a 01be ffb5 68bd
00000320: 62e8 053d c51c 643d a2da e2bd 221b 5e3e
00000330: b23d c1bd 801e ebbd 4559 b9bd 88f6 723d
00000340: 7318 b33d 12fa fa3d 2dad e73c 54b7 10be
00000350: dc90 a53d 34ee 463d 3a9c 82bd ff03 2bbe
00000360: 8039 5abe 538b 073e cf2b cabb b486 aabd
00000370: 7e4c cabc 5be1 adbd 3d51 37bc c9d1 163e
00000380: 6470 6c3d e744 183c 7f28 8e3d f2ce 0c3d
00000390: 8c0d ce3d 2c2c ad3c ca72 f93a 64ea cdbc
000003a0: bc4f efbd fabc de3d 850d 68be d9e1 ccbd
000003b0: 2423 d4bd 47b1 0e3e f06d babd c54e fdbc
000003c0: d79a 8cbd 4bde a4ba 763c 8cbb 4590 50bd
000003d0: a92c 81bd aa5b b9ba 3220 57bd c2ed 8fbd
000003e0: e05c cdbd 41ba 9f3d eef6 dc3d e3ff 863a
000003f0: b3da aa3c be05 ac3c c316 af3d b22c 24be

lstm.weight_hh_l1 f4 [200, 50]
0.114684425 -0.024546025 -0.03702149 -0.04863874 0.15773645 -0.008990248 -0.15132824 -0.1645506
-0.07703568 -0.13644728 -0.08861641 0.0063236016 -0.106290326 0.037763875 -0.024459561 -0.021384068
0.095606804 -0.09456277 -0.04760815 -0.03719994 0.19106069 0.023213908 0.137264 0.08994549
0.031934258 -0.14566095 -0.10301893 0.09613357 -0.11813306 -0.015909245 0.14923248 0.05115274
-0.20147544 0.0136826765 -0.051261675 0.09154511 0.20946507 -0.027013594 -0.10215083 -0.076431565
-0.14028986 0.07663483 0.15206204 0.1798464 0.01036927 -0.094460644 -0.04468008 0.10140562
0.08281552 -0.13696074 -0.023734974 0.047708742 -0.020675687 -0.17436692 -0.040921535 -0.017314203
-0.097794384 -0.10442157 -0.03176484 -0.086199425 -0.07427984 -0.08845048 0.06239989 -0.119422175
-0.08719819 -0.14880493 -0.15013853 0.03983268 0.030259628 -0.08411028 0.08021223 -0.054659184
0.20532963 -0.05145365 0.0028695562 -0.073997684 -0.07698113 -0.018803434 -0.095632695 0.08769478
0.11171196 0.030482473 -0.17721334 0.015546089 0.0076792636 0.19896324 0.06123032 0.071721636
-0.12656413 0.032459043 0.06925695 0.21574473 0.004718253 0.14560665 -0.042648595 0.04841069
0.0919936 -0.020527251 0.1430737 -0.21500921 -0.06078649 0.13270311 -0.057178844 -0.017441094
0.10709861 0.061547063 -0.044956475 -0.012153764 0.08545058 -0.05079675 -0.06812189 -0.014956464
0.06893222 0.025174936 0.04189391 -0.076043405 -0.030528063 -0.06992241 0.022963673 -0.10775529
0.18505196 -0.13061203 0.109246045 0.029842924 -0.1795798 -0.1690954 -0.17504525 -0.0005121365
0.0755869 0.082202815 -0.02830577 -0.17014804 0.121585004 0.091695 0.01231958 -0.018597296
0.09287551 0.104746155 0.0006335226 0.1161752 -0.17878494 0.0062116673 0.13564228 -0.006471476
0.07834673 -0.2028607 0.20558767 -0.06126599 0.062017042 -0.032066606 -0.05093837 0.17648849
-0.07873806 0.02598607 0.17186801 0.030667434 0.035925217 -0.022240264 0.0152884 -0.06476469
0.059508566 -0.17499237 0.11381259 0.0055122636 0.040370993 0.009018316 0.011598609 0.13836966
0.07793621 -0.0763433 -0.034354083 -0.12555175 0.10579115 -0.042854834 0.051660053 -0.046296887
0.05118272 -0.0145924585 -0.04709018 -0.07476682 -0.1365159 0.1760459 -0.16422413 0.047453415
-0.03934199 -0.017279612 0.16690092 -0.09437794 -0.057082452 0.10967875 -0.17755048 0.14865114
0.12304281 -0.033369146 0.03982606 0.06947225 -0.017508022 0.09461829 -0.072869495 -0.12736477
0.06557217 0.06950398 0.06912043 -0.1482465 -0.0031162375 -0.039503407 0.088213004 -0.13960314
-0.06729749 0.058372743 0.06810597 -0.039400976 0.116820894 0.036316153 0.21733478 0.0945389
-0.115167424 -0.04737087 0.11074672 -0.1622077 0.16338795 -0.09365278 -0.09464756 0.058994707
-0.08050791 -0.13401853 -0.003519025 0.05437388 -0.15169138 0.07890485 -0.12373174 -0.018613176
-0.0145712 -0.10452093 0.103871554 0.042977557 -0.09334404 -0.12714162 0.10020072 0.11136386
-0.031884473 -0.06042314 -0.08974289 0.09409434 0.15009686 -0.007925956 -0.040906534 0.16591519
0.04651939 -0.07204483 -0.080942735 0.08048208 -0.17864378 -0.036530998 0.022460481 -0.11576387
00000000: abdf ea3d bf14 c9bc d9a3 17bd 6a39 47bd
00000010: aa85 213e d54b 13bc caf5 1abe f47f 28be
00000020: e2c4 9dbd d6b8 0bbe 857c b5bd 3736 cf3b
00000030: beae d9bd 4bae 1a3d 6b5f c8bc a42d afbc
00000040: 80cd c33d 20aa c1bd c300 43bd f75e 18bd
00000050: 6aa5 433e 182b be3c ef8e 0c3e 5735 b83d
00000060: 7fcd 023d 2528 15be 97fb d2bd ade1 c43d
00000070: bfef f1bd 1b54 82bc 66d0 183e 8985 513d
00000080: 944f 4ebe 4e2d 603c c3f7 51bd 017c bb3d
00000090: 037e 563e 9d4b ddbc 7434 d1bd 2788 9cbd
000000a0: 25a8 0fbe b9f2 9c3d 27b6 1b3e a829 383e
000000b0: dfe3 293c 9574 c1bd 7602 37bd c0ad cf3d
000000c0: 2f9b a93d 703f 0cbe d96f c2bc 3e6a 433d
000000d0: 0f60 a9bc 3e8d 32be 579d 27bd 84d6 8dbc
000000e0: 6c48 c8bd fada d5bd d91b 02bd 5389 b0bd
000000f0: 0720 98bd 8625 b5bd 0797 7f3d 9d93 f4bd
00000100: f794 b2bd 5260 18be eabd 19be 9827 233d
00000110: 0ae3 f73c 0342 acbd 4f46 a43d 4fe2 5fbd
00000120: ee41 523e 10c1 52bd 2a0f 3c3b 198c 97bd
00000130: 48a8 9dbd a909 9abc 13db c3bd 5299 b33d
00000140: 3dc9 e43d 61b6 f93c 6a77 35be 06b5 7e3c
00000150: 55a2 fb3b 05bd 4b3e a5cc 7a3d cbe2 923d
00000160: 079a 01be c6f3 043d 96d6 8d3d 30ec 5c3e
00000170: 939b 9a3b e919 153e 4bb0 2ebd 4a4a 463d
00000180: 2467 bc3d c428 a8bc e981 123e 602b 5cbe
00000190: 41fb 78bd 53e3 073e 5d34 6abd a0e0 8ebc
000001a0: 8456 db3d c618 7c3d 4824 38bd 9520 47bc
000001b0: b700 af3d 4110 50bd 7d83 8bbd f50b 75bc
000001c0: 562c 8d3d ab3b ce3c f398 2b3d a5bc 9bbd
000001d0: fd15 fabc 7b33 8fbd 501e bc3c ceae dcbd
000001e0: 437e 3d3e 29bf 05be 64bc df3d 2679 f43c
000001f0: c4e3 37be 5827 2dbe 103f 33be e640 06ba
00000200: 4ecd 9a3d f359 a83d 81e1 e7bc 4a3b 2ebe
00000210: 8f01 f93d 97ca bb3d 10d8 493c 5b59 98bc
00000220: 8435 be3d 2785 d63d fb12 263a 43ed ed3d
00000230: 6613 37be 3e8b cb3b cfe5 0a3e ad0e d4bb
00000240: 4074 a03d b7ba 4fbe 9385 523e 0cf2 7abd
00000250: 9505 7e3d 4658 03bd c1a4 50bd 66b9 343e
00000260: 6c41 a1bd bde0 d43c 2bfe 2f3e 453a fb3c
00000270: 5226 133d 3731 b6bc 337c 7a3c 5aa3 84bd
00000280: 41bf 733d 3331 33be 9316 e93d 38a0 b43b
00000290: 0e5c 253d 8fc1 133c 1808 3e3c c7b0 0d3e
000002a0: 059d 9f3d e059 9cbd deb6 0cbd a390 00be
000002b0: 08a9 d83d 8d88 2fbd 7e99 533d cea1 3dbd
000002c0: f9a4 513d 3515 6fbc a2e1 40bd 591f 99bd
000002d0: d3ca 0bbe 6045 343e 5f2a 28be 835e 423d
000002e0: 1125 21bd f98d 8dbc 13e8 2a3e 3949 c1bd
000002f0: 4acf 69bd 419f e03d cbcf 35be 0138 183e
00000300: defd fb3d 16ae 08bd a720 233d 7847 8e3d
00000310: fc6c 8fbc 3cc7 c13d 9a3c 95bd e96b 02be
00000320: b44a 863d 1a58 8e3d 038f 8d3d eecd 17be
00000330: ca39 4cbb 53ce 21bd 05a9 b43d 20f4 0ebe
00000340: 44d3 89bd 4218 6f3d 257b 8b3d eb62 21bd
00000350: cb3f ef3d 3fc0 143d 028d 5e3e 9c9d c13d
00000360: e6dc ebbd f507 42bd 2dcf e23d c619 26be
00000370: 2c4f 273e 07cd bfbd 94d6 c1bd 6fa4 713d
00000380: 55e1 a4bd 273c 09be 719f 66bb 25b7 5e3d
00000390: fc54 1bbe de98 a13d 1167 fdbd a97a 98bc
000003a0: 0bbc 6ebc 120f d6bd 9cba d43d 3c09 303d
000003b0: 292b bfbd 6a31 02be 0936 cd3d bc12 e43d
000003c0: 4b99 02bd 417e 77bd 1fcb b7bd 89b4 c03d
000003d0: feb2 193e dedb 01bc 9c8d 27bd ace5 293e
000003e0: 1e8b 3e3d 3d8c 93bd 4ec5 a5bd cad3 a43d
000003f0: 65ee 36be 87a1 15bd 0bff b73c 9c15 edbd

lstm.bias_ih_l1 f4 [200]
-0.22355384 -0.07612257 -0.20563398 -0.100669235 0.09852836 0.05784468 -0.104031585 0.05214329
-0.012670315 0.027336733 0.026758598 -0.0011016395 -0.09070705 -0.0557495 -0.06902771 -0.042713437
-0.072515294 0.071454145 0.14110231 0.031863995 -0.09839723 0.086688906 -0.054713357 -0.14234236
-0.077655606 0.08287314 -0.09641121 -0.1141371 -0.11167694 -0.20547827 -0.15654841 -0.058761057
-0.09595198 -0.15073292 -0.08228273 -0.2024339 -0.023468027 0.085107826 -0.10124354 -0.15619351
0.0652889 0.15971646 -0.14965402 -0.0103303455 -0.10402145 -0.055606257 0.1391503 -0.060133237
-0.15106864 0.15115035 -0.08900682 -0.14528108 -0.14850049 0.04912146 -0.072221525 -0.027341256
-0.14286679 -0.08448219 0.06662126 -0.12298768 -0.11584535 0.100363486 -0.09582157 -0.01825086
-0.0024174163 -0.0075470386 0.10424511 -0.17326967 0.118588716 -0.14004056 -0.02969083 -0.03355738
0.00053962856 0.027653506 -0.026388992 0.08451908 -0.028338337 0.023577295 -0.06918284 -0.035762485
-0.122260965 -0.20451033 -0.22910894 0.008733666 -0.14402753 -0.08047592 -0.0039047857 -0.042183395
-0.015999582 -0.0151781 -0.07504514 -0.030446453 0.07471304 -0.18809398 0.00860405 -0.011132913
0.05622956 0.051008012 -0.004667774 0.006568249 0.039988656 0.06414498 -0.13255396 0.09703722
-0.12093379 0.111884 0.1336092 0.08775197 -0.13388921 0.12183343 -0.1455611 0.05445341
-0.08374359 0.12194853 -0.021074727 0.17362672 0.15357988 0.13481984 0.17690454 0.12105922
-0.06985373 0.19430408 -0.032881543 -0.00080788805 -0.019543648 0.024798203 0.17076609 0.012254288
0.08937016 0.08158796 -0.023359835 0.07968623 -0.13586475 -0.107531734 0.08061255 0.065348126
-0.117544524 -0.025204513 -0.015550677 0.0749812 0.13780442 -0.18720138 -0.0031717597 -0.13097866
-0.07796819 0.14295463 -0.063465245 0.03867913 -0.056925487 0.035369255 -0.0012016428 -0.06903491
-0.06403253 -0.026569966 -0.12046897 0.13574633 -0.047607012 0.11495508 0.046018187 -0.17444754
-0.012980234 -0.07850537 -0.029261472 -0.16194072 -0.06597452 0.058528535 -0.058484063 -0.076596275
-0.009024753 -0.17599395 -0.11192283 -0.029360063 0.016494 -0.0024639962 -0.12277657 0.10268778
0.10537143 -0.01552783 -0.10032235 -0.12127852 -0.23271953 -0.07257642 -0.07950869 -0.10700281
-0.10616548 -0.15329178 0.017762182 0.054783944 -0.16000623 -0.089199126 -0.15264596 0.059987616
0.1051068 -0.02258269 -0.06425111 -0.05895224 -0.10203268 -0.0101521965 -0.04163554 0.08463887
00000000: 4ceb 64be 26e6 9bbd b791 52be ac2b cebd
00000010: 3dc9 c93d 8bee 6c3d 830e d5bd 3494 553d
00000020: 2797 4fbc 49f1 df3c d934 db3c e364 90ba
00000030: 9ec4 b9bd 9659 64bd 665e 8dbd 49f4 2ebd
00000040: e682 94bd 8d56 923d 207d 103e d283 023d
00000050: 7d84 c9bd f489 b13d 1d1b 60bd 32c2 11be
00000060: e709 9fbd 65b9 a93d 3e73 c5bd b6c0 e9bd
00000070: e1b6 e4bd e568 52be 3a4e 20be 6faf 70bd
00000080: 7982 c4bd bb59 1abe d983 a8bd d54a 4fbe
00000090: 0540 c0bc 034d ae3d c658 cfbd 31f1 1fbe
000000a0: 30b6 853d b68c 233e e73e 19be 9c40 29bc
000000b0: 3309 d5bd 63c3 63bd 6b7d 0e3e 454e 76bd
000000c0: bdb1 1abe 28c7 1a3e 3549 b6bd 90c4 14be
000000d0: 8310 18be 9633 493d e1e8 93bd c5fa dfbc
000000e0: ac4b 12be 0005 adbd ba70 883d f7e0 fbbd
000000f0: 5440 edbd 5f8b cd3d 193e c4bd d482 95bc
00000100: 846d 1ebb 264d f7bb 767e d53d 9b6d 31be
00000110: a4de f23d cb66 0fbe 2f3a f3bc 7773 09bd
00000120: dc75 0d3a 9b89 e23c ba2d d8bc 5718 ad3d
00000130: cd25 e8bc 2c25 c13c bcaf 8dbd af7b 12bd
00000140: f563 fabd 286b 51be 899b 6abe a617 0f3c
00000150: f47b 13be 8fd0 a4bd 6fe7 7fbb 7fc8 2cbd
00000160: 8e11 83bc 91ad 78bc 44b1 99bd d76a f9bc
00000170: 2603 993d b59b 40be 00f8 0c3c d266 36bc
00000180: f850 663d c7ed 503d 20f4 98bb 773a d73b
00000190: 25cb 233d 715e 833d 3abc 07be 73bb c63d
000001a0: 23ac f7bd 7023 e53d dad0 083e 4eb7 b33d
000001b0: 411a 09be ce83 f93d f80d 15be 8a0a 5f3d
000001c0: c281 abbd 27c0 f93d e8a4 acbc 34cb 313e
000001d0: 0b44 1d3e 360e 0a3e 7726 353e e5ed f73d
000001e0: 790f 8fbd a6f7 463e ccae 06bd 73c8 53ba
000001f0: 001a a0bc 9a25 cb3c 4edd 2e3e 36c6 483c
00000200: b407 b73d 9717 a73d 205d bfbc 8932 a33d
00000210: 2120 0bbe 9939 dcbd 3118 a53d 3dd5 853d
00000220: 2fbb f0bd b279 cebc 44c8 7ebc be8f 993d
00000230: 9a1c 0d3e b8b1 3fbe 4cdd 4fbb 451f 06be
00000240: c9ad 9fbd b362 123e 11fa 81bd 026e 1e3d
00000250: b32a 69bd 5adf 103d 7180 9dba 2d62 8dbd
00000260: 7d23 83bd 42a9 d9bc 6fb8 f6bd 1601 0b3e
00000270: 92ff 42bd 926d eb3d 917d 3c3d 60a2 32be
00000280: 0cab 54bc 6cc7 a0bd c1b5 efbc cad3 25be
00000290: a61d 87bd 9ebb 6f3d fc8c 6fbd 82de 9cbd
000002a0: 8fdc 13bc c237 34be cc37 e5bd 8484 f0bc
000002b0: 6d1e 873c ff7a 21bb 4872 fbbd f94d d23d
000002c0: facc d73d 7168 7ebc ce75 cdbd df60 f8bd
000002d0: 074e 6ebe f2a2 94bd 74d5 a2bd 4a24 dbbd
000002e0: 4a6d d9bd 85f8 1cbe ff81 913c 2165 603d
000002f0: acd8 23be 08ae b6bd 394f 1cbe 93b5 753d
00000300: 3c42 d73d 55ff b8bc 1696 83bd e777 71bd
00000310: 82f6 d0bd 6655 26bc 078a 2abd 2557 ad3d

lstm.bias_hh_l1 f4 [200]
-0.027947666 -0.16888127 -0.16078188 0.065063156 0.029983962 0.036908682 0.06709459 0.016612025
-0.059007756 -0.015371636 -0.1771518 0.04644255 -0.12342991 0.025323343 -0.14781167 -0.11769312
0.029243207 0.04148522 -0.002094156 -0.029664004 0.1034192 0.14053935 0.049870607 -0.13756807
-0.0013868512 -0.023319967 0.019492252 0.038008105 -0.09759867 0.011131504 -0.2454402 0.007900427
-0.23612201 -0.10938283 -0.22073449 0.036820073 0.07487717 -0.15393162 -0.22571237 0.016286932
-0.07260192 -0.11446344 -0.010032991 -0.17514616 0.13067977 -0.08291841 -0.04796546 -0.16472894
0.095643915 0.010808297 -0.20215523 0.007754826 -0.14105353 0.083044775 -0.11602936 0.13947573
0.04554272 -0.12384504 -0.083964065 -0.029530995 -0.19418666 -0.07689811 -0.11833066 -0.17677924
-0.085836604 -0.06946894 0.030513661 -0.13396737 -0.121217445 -0.076233216 -0.11564199 0.11058624
-0.017709438 0.030858068 -0.12340186 -0.059069395 -0.016819367 -0.11923955 0.10575347 0.0659855
-0.08099166 -0.17373104 -0.124528594 0.062372062 -0.18556508 -0.18026602 0.020155573 0.028586373
-0.24412823 0.007850236 -0.053922158 0.082572944 -0.07634591 -0.0101998355 0.13259122 0.05394637
-0.045104418 0.0355301 0.07904352 -0.026363965 0.0004130023 -0.059110533 -0.03807888 -0.029915249
-0.018985951 0.10967163 0.13386975 0.015931446 -0.0100806495 0.06052494 0.02163341 0.110036895
0.12872912 0.056019567 0.01524557 -0.02025513 -0.002667282 -0.039424382 0.17067222 -0.08074534
-0.056441814 -0.04813439 -0.13244094 -0.0695951 0.18417625 0.1404271 -0.039819095 -0.022459457
0.030810975 -0.08008287 -0.038512252 0.0059563736 0.00821177 0.08292542 0.0017388371 -0.120995276
-0.080284886 -0.021266636 -0.09280681 -0.06369584 -0.018344635 -0.10848171 -0.08446093 -0.036460027
-0.117779784 -0.015933162 -0.1227177 0.07972885 -0.02549312 0.19902608 -0.122690246 -0.1783373
-0.06653353 -0.10422465 -0.06926999 0.04101747 0.1042541 0.07305595 -0.063304625 -0.1457371
-0.09635482 -0.14538904 -0.02835043 -0.062749185 0.048976947 -0.093309134 0.09541628 -0.15885721
0.004350877 -0.061914984 0.06611177 -0.009367983 -0.09050107 -0.06364217 -0.11113307 -0.03896867
0.00083207764 -0.042298336 0.07131102 -0.051094323 -0.106218025 -0.026043683 -0.2430371 -0.056822266
-0.20186456 0.043174505 -0.13452764 0.004658134 -0.17429331 0.07367511 0.077058114 0.11466932
0.021957992 -0.026844587 -0.068236314 0.05850587 0.111956015 0.06415788 -0.1515272 -0.056006446
00000000: 81f2 e4bc 36ef 2cbe 01a4 24be d53f 853d
00000010: eda0 f53c 8f2d 173d e368 893d f115 883c
00000020: 1eb2 71bd 50d9 7bbc 4867 35be 8b3a 3e3d
00000030: d2c8 fcbd e672 cf3c f15b 17be 1709 f1bd
00000040: 738f ef3c 68ec 293d 1c3e 09bb ed01 f3bc
00000050: 72cd d33d 8ce9 0f3e 1f45 4c3d a5de 0cbe
00000060: 01c7 b5ba 8409 bfbc 37ae 9f3c 63ae 1b3d
00000070: d0e1 c7bd e960 363c ad54 7bbe cb70 013c
00000080: f8c9 71be 1b04 e0bd 3908 62be a5d0 163d
00000090: 3459 993d 40a0 1dbe 2521 67be 2c6c 853c
000000a0: 51b0 94bd cf6b eabd 6a61 24bc 8459 33be
000000b0: ebd0 053e 21d1 a9bd 6e77 44bd b4ae 28be
000000c0: f5e0 c33d 4915 313c c801 4fbe 321c fe3b
000000d0: 5670 10be 6113 aa3d cda0 edbd bad2 0e3e
000000e0: 018b 3a3d 78a2 fdbd 5af5 abbd fcea f1bc
000000f0: ded8 46be c27c 9dbd 5857 f2bd 9e05 35be
00000100: 1acb afbd bb45 8ebd c9f7 f93c be2e 09be
00000110: da40 f8bd 2920 9cbd b5d5 ecbd 0a7b e23d
00000120: 6213 91bc 0fca fc3c 1dba fcbd c0f2 71bd
00000130: c5c8 89bc dd33 f4bd 4695 d83d 6823 873d
00000140: f5de a5bd 8de6 31be d908 ffbd d979 7f3d
00000150: c604 3ebe a897 38be 4d1d a53c f82d ea3c
00000160: c0fc 79be 479e 003c 7bdd 5cbd 011c a93d
00000170: 3f5b 9cbd 361d 27bc fec5 073e def6 5c3d
00000180: 69bf 38bd 0388 113d 92e1 a13d 3ef9 d7bc
00000190: 3b88 d839 e31d 72bd 9af8 1bbd d310 f5bc
000001a0: 6d88 9bbc 859b e03d 2715 093e aa82 823c
000001b0: 4f29 25bc 00e9 773d 8d38 b13c 065b e13d
000001c0: 91d1 033e c674 653d 8ec8 793c 16ee a5bc
000001d0: 91cd 2ebb 767b 21bd b3c4 2e3e d05d a5bd
000001e0: 882f 67bd 9128 45bd 999e 07be e087 8ebd
000001f0: b398 3c3e 1fcc 0f3e 5919 23bd e5fc b7bc
00000200: 4c67 fc3c 7d02 a4bd 06bf 1dbd af2d c33b
00000210: a98a 063c cdd4 a93d b1e9 e33a 5fcc f7bd
00000220: 676c a4bd 5e37 aebc 7f11 bebd f772 82bd
00000230: 7d47 96bc a92b debd daf9 acbd 1c57 15bd
00000240: 8736 f1bd 4386 82bc 6b53 fbbd e148 a33d
00000250: f3d6 d0bc 7ecd 4b3e 0645 fbbd 0e9e 36be
00000260: bb42 88bd bc73 d5bd 6ddd 8dbd ef01 283d
00000270: 2c83 d53d 5c9e 953d dba5 81bd 1b3c 15be
00000280: ad55 c5bd dde0 14be 293f e8bc a582 80bd
00000290: 0d9c 483d dc18 bfbd 9c69 c33d 77ab 22be
000002a0: cd91 8e3b 919a 7dbd 9c65 873d 2b7c 19bc
000002b0: a058 b9bd d356 82bd bc99 e3bd 9d9d 1fbd
000002c0: c91f 5a3a 0541 2dbd 830b 923d 4848 51bd
000002d0: d688 d9bd 9059 d5bc b8de 78be 77be 68bd
000002e0: 95b5 4ebe c0d7 303d 9dc1 09be 43a3 983b
000002f0: f279 32be fae2 963d a5d0 9d3d c0d7 ea3d
00000300: 3fe1 b33c 2ee9 dbbc 7bbf 8bbd daa3 6f3d
00000310: 3249 e53d 3565 833d f229 1bbe 0467 65bd

lstm.weight_ih_l2 f4 [200, 50]
0.05409939 -0.0697498 0.122388706 -0.0060747005 0.17532974 0.025970051 -0.21855663 -0.091777034
0.09902479 -0.1435317 0.04045557 -0.17160702 0.123937085 -0.20894298 -0.11818156 -0.110458694
-0.15759857 -0.20812953 -0.16779411 0.05562129 0.17940249 0.03879362 0.15229644 0.095685504
-0.11292925 -0.21748511 -0.2296415 -0.000719377 -0.19059828 -0.016662408 -0.003752006 -0.047467895
-0.15368958 0.18086597 -0.044247784 0.085885085 0.06370046 0.05348849 0.13102764 -0.068601996
-0.1041483 -0.0086752055 0.09152844 -0.042078104 0.17210034 -0.21759814 -0.043294586 -0.017056843
0.21022461 -0.1412923 0.048407745 -0.029479675 0.041103527 -0.029328847 -0.0044483533 -0.06451569
-0.16125253 -0.12440345 0.0058389194 -0.2039138 -0.049152378 -0.22634612 -0.0067831352 -0.10148027
0.05017969 -0.051915612 -0.19315888 -0.2664112 0.027386416 0.05959734 0.04213512 -0.15434922
-0.037587047 0.12630163 -0.0918415 -0.0025793696 -0.03547983 0.12859702 -0.11074118 -0.034856893
0.08569842 -0.023923421 -0.023099465 0.079059266 -0.08996201 0.121309064 0.029118085 -0.008514473
0.09829014 0.047783434 0.03459527 0.039077673 0.21754141 0.17421496 0.1798668 -0.15330586
0.17989299 -0.18622394 0.20691557 -0.1690046 -0.09644246 0.14707986 -0.07109589 -0.030946886
0.13799845 -0.16680199 -0.034154113 -0.19291824 -0.045144606 -0.21609683 0.031306893 -0.12704909
-0.029718354 -0.10965327 -0.035603225 -0.09429991 -0.10721412 -0.1970326 -0.104563065 0.077723205
0.2106152 -0.049632035 -0.01977697 0.1119234 -0.18519342 -0.2360819 -0.01120065 0.083245635
-0.01797804 -0.0017501618 0.15305927 0.05030237 -0.10685962 -0.06664327 0.14673027 0.094639555
-0.022193836 -0.098940566 0.08756429 -0.10408774 0.001846442 0.21447934 0.13862738 0.09558552
0.119778074 -0.23038498 0.14399143 0.00084737 0.20991984 -0.110958934 0.0020390295 0.0977124
0.041170314 -0.18603124 0.19671524 -0.1918954 -0.13937177 0.008516402 0.12032218 -0.1447937
0.03837195 -0.14519237 0.08425462 -0.04559658 -0.034311935 -0.103157155 -0.20801005 -0.1551314
-0.2628617 -0.024236891 0.23411243 -0.08356629 0.1205072 -0.00012535918 -0.054985847 -0.08041551
-0.16102044 0.21723261 -0.0319291 0.0317592 0.19094445 -0.09233859 -0.057917196 0.21868917
0.0062289005 0.028861389 0.03532908 -0.07858988 0.03520752 0.0018450798 -0.12354344 0.23854713
0.055982675 0.18177707 0.027055504 -0.003958993 0.044513166 -0.18925133 0.11771181 -0.12737276
-0.08848891 0.0018014582 -0.009424976 0.107061215 0.0138545325 0.13232908 -0.00054734875 0.004546609
-0.13802168 0.20530128 -0.048863444 0.026823446 -0.13201088 0.20216507 -0.083944164 0.15904109
0.12171227 0.056804124 0.14857516 0.1410177 -0.0906452 0.18155396 -0.102062866 0.07009495
0.12395245 -0.01393405 0.09069512 0.06971555 -0.023243941 -0.13654742 -0.056592505 -0.042770665
0.038348902 -0.051294573 0.14125971 -0.06532566 -0.14022855 0.06605611 0.124299526 -0.033538215
0.12763624 -0.16212104 -0.083877414 -0.07379124 -0.20104872 0.051801804 -0.14570986 -0.0033821345
-0.14003897 0.16210502 0.1303761 0.08203011 -0.011455916 -0.06069774 0.060292702 0.015848324
00000000: 5297 5d3d fcd8 8ebd eea6 fa3d 480e c7bb
00000010: a489 333e 25bf d43c 4fcd 5fbe 99f5 bbbd
00000020: 82cd ca3d f9f9 12be bdb4 253d c0b9 2fbe
00000030: bad2 fd3d 26f5 55be 2c09 f2bd 2b38 e2bd
00000040: 8561 21be e81f 55be 38d2 2bbe 26d3 633d
00000050: 49b5 373e 0fe6 1e3d 99f3 1b3e c3f6 c33d
00000060: 7347 e7bd 6bb4 5ebe 2427 6bbe 9394 3cba
00000070: 322c 43be 9a7f 88bc 37e4 75bb b26d 42bd
00000080: cd60 1dbe ee34 393e 2a3d 35bd 85e4 af3d
00000090: 6375 823d bf16 5b3d 1c2c 063e 347f 8cbd
000000a0: b44b d5bd 7322 0ebc 4373 bb3d 175a 2cbd
000000b0: 123b 303e 0cd2 5ebe aa55 31bd cbba 8bbc
000000c0: 1f45 573e eeae 10be 3347 463d 5c7f f1bc
000000d0: 2c5c 283d 0d43 f0bc 7ec3 91bb cd20 84bd
000000e0: 621f 25be 3cc7 febd 6854 bf3b c7ce 50be
000000f0: 0154 49bd 47c7 67be 1045 debb e3d4 cfbd
00000100: 3889 4d3d 77a5 54bd 71cb 45be 0c67 88be
00000110: 7a59 e03c 571c 743d e095 2c3d b90d 1ebe
00000120: e0f4 19bd 3755 013e 6517 bcbd a40a 29bb
00000130: 4c53 11bd f0ae 033e 46cc e2bd 1ac6 0ebd
00000140: a782 af3d 0dfb c3bc 173b bdbc d3e9 a13d
00000150: 013e b8bd e370 f83d 0d89 ee3c 4a80 0bbc
00000160: 574c c93d 90b8 433d c5b3 0d3d e90f 203d
00000170: 2dc3 5e3e 6865 323e 012f 383e 36fc 1cbe
00000180: de35 383e 7db1 3ebe ade1 533e 8b0f 2dbe
00000190: a083 c5bd 1a9c 163e b99a 91bd 5384 fdbc
000001a0: 774f 0d3e 24ce 2abe 2fe5 0bbd 5c8c 45be
000001b0: 8de9 38bd 7d48 5dbe a83b 003d 2819 02be
000001c0: e873 f3bc e591 e0bd b0d4 11bd 5020 c1bd
000001d0: 1493 dbbd eac2 49be 2925 d6bd 582d 9f3d
000001e0: 83ab 573e f64a 4bbd 5003 a2bc 1838 e53d
000001f0: 58a3 3dbe 74bf 71be ee82 37bc b07c aa3d
00000200: af46 93bc af65 e5ba 92bb 1c3e dc09 4e3d
00000210: 37d9 dabd 447c 88bd 7640 163e 62d2 c13d
00000220: d9cf b5bc 5aa1 cabd e854 b33d f42b d5bd
00000230: 5004 f23a 79a0 5b3e 56f4 0d3e 57c2 c33d
00000240: 354e f53d 0aea 6bbe 7d72 133e 0a22 5e3a
00000250: 3af5 563e 703e e3bd 3da1 053b 701d c83d
00000260: 34a2 283d f97e 3ebe b86f 493e 3a80 44be
00000270: 79b7 0ebe 6188 0b3c 7a6b f63d cd44 14be
00000280: e82b 1d3d 4fad 14be b08d ac3d 7bc3 3abd
00000290: ac8a 0cbd 0f44 d3bd 9600 55be c4da 1ebe
000002a0: cf95 86be 728c c6bc 2bbb 6f3e ce24 abbd
000002b0: 7bcc f63d d972 03b9 d738 61bd e3b0 a4bd
000002c0: 8be2 24be 3a72 5e3e 17c8 02bd ef15 023d
000002d0: f186 433e 041c bdbd 953a 6dbd 0ef0 5f3e
000002e0: ce1b cc3b b86e ec3c 3ab5 103d bbf3 a0bd
000002f0: c335 103d 9bd6 f13a 5804 fdbd b345 743e
00000300: 174e 653d c523 3a3e 81a3 dd3c 71ba 81bb
00000310: 7053 363d 1acb 41be e412 f13d 016e 02be
00000320: ac39 b5bd e81e ec3a 376b 1abc e942 db3d
00000330: 1ffe 623c 4681 073e f47b 0fba b8fb 943b
00000340: 8e55 0dbe 803a 523e 0925 48bd d8bc db3c
00000350: dc2d 07be 5c04 4f3e ebea abbd abdb 223e
00000360: 4844 f93d 71ab 683d 1624 183e f266 103e
00000370: 31a4 b9bd 48e9 393e 5606 d1bd f18d 8f3d
00000380: c8da fd3d a44b 64bc 5dbe b93d 07c7 8e3d
00000390: 146a bebc 16d3 0bbe 8bcd 67bd 4b30 2fbd
000003a0: bd13 1d3d 421a 52bd 63a6 103e 76c9 85bd
000003b0: 1398 0fbe 6d48 873d c090 fe3d 5e5f 09bd
000003c0: 13b3 023e 0f03 26be ecc7 abbd dd1f 97bd
000003d0: b7df 4dbe 212e 543d f734 15be cda6 5dbb
000003e0: 6066 0fbe dcfe 253e 5081 053e 67ff a73d
000003f0: 98b1 3bbc 329e 78bd 7bf5 763d 58d4 813c
