models/lstm/generation/saved_model/generation_lstm.pth (torch, 293072 bytes, 17 tensors)

lstm.weight_ih_l0 f4 [200, 1]
0	0x3ec6fda1	0.38865378
1	0x3e4f1aed	0.20225115
2	0x3f1a3d7b	0.6025006
3	0x3ee55d1f	0.44797608
4	0x3f41d2c5	0.75712234
5	0x3e17ee0d	0.14836903
6	0x3f042f6b	0.51634854
7	0x3d9a0dad	0.0752214
8	0xbf95c44d	-1.1700531
9	0xbeb7e12a	-0.35913974
10	0x3f55fc75	0.83588344
11	0x3f03297c	0.51235175
12	0x3eef08d8	0.46686435
13	0x3ed710e3	0.4200507
14	0xbd274307	-0.040835407
15	0xbcf50dbb	-0.029913774
16	0x3eaf092f	0.34186694
17	0xbc59857a	-0.013276452
18	0x3e259b42	0.16172507
19	0x3ebac811	0.36480764
20	0xbfa9854d	-1.3243805
21	0x3e6e8c30	0.23295665
22	0xbf090a06	-0.5353092
23	0x3eb5be5f	0.35496804
24	0x3f3dae5b	0.7409417
25	0xbee7ca43	-0.452715
26	0x3f29a826	0.662722
27	0x3f1a2852	0.60217774
28	0x3ed6decd	0.41966859
29	0xbfa3d206	-1.2798469
30	0x3e5a75b3	0.21333961
31	0xbecb131a	-0.3966301
32	0xbdf1ce83	-0.11806967
33	0x3f5c304d	0.860112
34	0x3ebbd53e	0.36686128
35	0xbf171fcc	-0.59032893
36	0x3f10d23b	0.56570786
37	0xbfe75f0a	-1.8075879
38	0xbf37e7d4	-0.71838117
39	0xbe3623b2	-0.17787054
40	0x3ef70bc2	0.48251158
41	0x3e94e486	0.290806
42	0x3e0b11ff	0.13581084
43	0xbe18b630	-0.14913249
44	0xbfcdb0ef	-1.6069621
45	0x3e87eebd	0.2654933
46	0xbf638b83	-0.88884753
47	0x3f11c54b	0.5694167
48	0x3ec564ed	0.38553563
49	0xbe9389dc	-0.28816116
50	0x3e10f4a6	0.14155826
51	0x3e9e9f92	0.30981117
52	0x3f0391eb	0.5139453
53	0xbe61ce8a	-0.22051445
54	0x3eb91b23	0.36153516
55	0x3dbf2875	0.093338884
56	0x3ecfc33f	0.40578648
57	0xbee6f905	-0.45111862
58	0xbecfc4cb	-0.4057983
59	0xbf335e4d	-0.70065767
60	0x3ed8f20e	0.42372173
61	0x3e85d439	0.26138476
62	0x3eb5789b	0.35443577
63	0x3eac6fb1	0.33678964
64	0xbd971654	-0.073773056
65	0xbe89172e	-0.26775497
66	0xbeb8244f	-0.359652
67	0xbe204865	-0.15652616
68	0x3e8cc014	0.27490294
69	0x3d8a9267	0.06766205
70	0xbf391d86	-0.72310674
71	0x3e2acfc8	0.16680825
72	0x3e3adb97	0.1824783
73	0xbe32cc90	-0.17460847
74	0x3eade4c7	0.33963606
75	0xbea60079	-0.32422236
76	0x3e961772	0.29314762
77	0x3f23a3e4	0.6392195
78	0x3e148fc5	0.14507969
79	0xbfa2a4bf	-1.2706527
80	0x3dba6498	0.09101218
81	0xbe4b27d1	-0.19839408
82	0xbec9223e	-0.39283937
83	0x3e95ebf8	0.29281592
84	0x3e39ef80	0.18157768
85	0xbe5aa1f1	-0.21350838
86	0x3e36a5d1	0.17836691
87	0xbfaeb800	-1.3649902
88	0xbe3dab13	-0.18522291
89	0xbe0d1747	-0.13778411
90	0x3dd222ce	0.10260545
91	0x3eba44d8	0.3638065
92	0xbe1a5b30	-0.15073848
93	0xbea4caa2	-0.32185847
94	0xbfa0117a	-1.2505333
95	0x3e48cb81	0.1960888
96	0xbf22260f	-0.6333932
97	0x3cf5df12	0.030013595
98	0xbe483770	-0.19552398
99	0xbe43a9b9	-0.19107713
100	0xbf7b3c0c	-0.981385
101	0x3f94eb2d	1.163427
102	0xbf87f564	-1.0621762
103	0x3f4c819b	0.7988526
104	0x3f8686c8	1.0509882
105	0xbf29bef2	-0.66306984
106	0xbf7653d2	-0.9622165
107	0xbf5addb3	-0.85494536
108	0x3fac2daa	1.3451436
109	0xbf82ac28	-1.0208788
110	0xbf6f088f	-0.93372434
111	0x3f59a8b8	0.8502307
112	0x3f3d58e3	0.73963755
113	0xbf45ca2e	-0.77261627
114	0xbe802235	-0.25026098
115	0xbf43f91d	-0.7655199
116	0xbf67ef10	-0.90599155
117	0xbf4598c5	-0.7718623
118	0x3f840f28	1.0317125
119	0xbf265a64	-0.64981675
120	0xbf7a96e5	-0.97886497
121	0xbf55aad6	-0.834638
122	0xbec03d26	-0.37546653
123	0x3f402b45	0.75066024
124	0xbf5284d4	-0.8223393
125	0x3f3ddad9	0.7416206
126	0xbf801f0b	-1.0009474
127	0xbf849454	-1.0357766
128	0xbf7b05c1	-0.98055655
129	0xc0150e63	-2.329003
130	0x3f54a280	0.83060455
131	0xbf8263ae	-1.018667
132	0xbf8f1e8a	-1.1181195
133	0xbf8562f5	-1.0420824
134	0x3f927e6b	1.144483
135	0xbe47f20e	-0.1952593
136	0xbf44808e	-0.7675866
137	0xc046e127	-3.1074922
138	0x3eabc447	0.33548185
139	0x3f096f1f	0.5368518
140	0xbf6b0dc2	-0.9181787
141	0xbf83326e	-1.0249765
142	0xbf52b8e0	-0.82313347
143	0xbf4ed9d4	-0.8080113
144	0xc02586db	-2.586356
145	0x3f57eede	0.8434886
146	0x3fbeed5e	1.4916189
147	0x3f82581b	1.0183138
148	0xbf56e0d7	-0.8393683
149	0x3e4d31b9	0.20038499
150	0x3ec14079	0.377445
151	0x3eb1dfcf	0.34741065
152	0x3f2ecc03	0.6828005
153	0x3ea651ff	0.32484433
154	0x3f5db24e	0.86600196
155	0x3e1e2d1a	0.15446892
156	0x3ea40a14	0.3203894
157	0xbc692430	-0.014229819
158	0xbf6c9111	-0.92408854
159	0xbeca670f	-0.39531752
160	0x3f47a049	0.7797895
161	0x3f0377ba	0.51354563
162	0x3f13e5eb	0.577727
163	0x3ec9c0e2	0.3940497
164	0xbdbb47f4	-0.09144583
165	0xbe70439b	-0.2346329
166	0x3de2ea3d	0.11079834
167	0x3df54805	0.11976627
168	0x3e3f9d4e	0.1871235
169	0x3e465e32	0.1937187
170	0xbf90edea	-1.1322606
171	0x3e9d4ab8	0.30721068
172	0xbf341090	-0.7033777
173	0x3e0a2364	0.13490063
174	0x3f524197	0.8213133
175	0xbebbb902	-0.36664587
176	0x3f225144	0.6340525
177	0x3f0406c4	0.51572824
178	0x3f0ac63f	0.5420875
179	0xbfd23387	-1.6421975
180	0x3e8c740d	0.2743229
181	0xbf00bfc3	-0.50292605
182	0xbe1f2592	-0.15541676
183	0x3f73bc11	0.9520884
184	0x3ec6ed68	0.38853002
185	0xbf18a47a	-0.5962597
186	0x3f2e9081	0.68189245
187	0xbfd4effc	-1.6635737
188	0xbf0437dd	-0.5164774
189	0x3de592a0	0.11209607
190	0x3f373866	0.7157043
191	0x3ebedb3c	0.37276638
192	0x3e411373	0.18855076
193	0xbe2fd72a	-0.17171922
194	0xbfdd94a6	-1.7310989
195	0x3ed00451	0.40628293
196	0xbf68b94b	-0.90907735
197	0x3f116632	0.5679656
198	0x3edd3585	0.43204895
199	0xbeaf9a20	-0.34297276

lstm.weight_hh_l0 f4 [200, 50]
0	0xbe5cd968	-0.21567309
1	0x3e948312	0.2900625
2	0xbec34e12	-0.381455
3	0x3d2ed08b	0.04267935
4	0x3ef3fd11	0.47654012
5	0x3eef686e	0.4675936
6	0xbe631db2	-0.22179297
7	0x3e71c168	0.23608935
8	0xbf01c297	-0.50687546
9	0x3e0f4f01	0.13994981
10	0xbe92f096	-0.28699178
11	0x3ead8fa6	0.33898658
12	0xbe105a24	-0.14096886
13	0x3e0f66e5	0.14004095
14	0x3e4f0ab9	0.20218934
15	0x3e820beb	0.25399718
16	0x3c130c48	0.008975096
17	0xbe658e1c	-0.22417492
18	0x3e9ddd5c	0.30832946
19	0xbe48abe1	-0.19596817
20	0x3f1afcce	0.60542
21	0xbd9b3a24	-0.07579449
22	0x3ea83a68	0.3285706
23	0x3e2c4c62	0.16826013
24	0xbea40f9f	-0.32043168
25	0x3d138916	0.036019407
26	0xbca56e08	-0.020194069
27	0xbee2cc55	-0.44296518
28	0xbe1b9f86	-0.15197572
29	0x3eef7d51	0.46775296
30	0x3c96997b	0.018383732
31	0x3e88212a	0.26587802
32	0xbe8c3cb2	-0.27390057
33	0xbda44fc0	-0.080230236
34	0x3e2aadfb	0.16667931
35	0xbdfef6d7	-0.12449425
36	0xbe9bda6f	-0.3044009
37	0x3f5760a6	0.8413185
38	0x3ddbf5f7	0.107402734
39	0x3dd8eb14	0.105917126
40	0x3d4a232b	0.049349945
41	0xbc5251c8	-0.012836881
42	0xbe91edf8	-0.28501868
43	0x3e2bab50	0.1676457
44	0x3f491994	0.78554654
45	0x3ece7338	0.4032228
46	0xbf248cfd	-0.6427763
47	0x3e775d12	0.24156597
48	0xbe2b971a	-0.1675686
49	0x3e9c276d	0.3049883
50	0xbed91df3	-0.42405662
51	0xbd107aaf	-0.03527325
52	0x3d913894	0.070908695
53	0x3e99134f	0.29897544
54	0x3df4f134	0.11960068
55	0xbd894e70	-0.06704414
56	0x3d42db1b	0.047572237
57	0xbed3c2e5	-0.4135963
58	0xbe901cc5	-0.2814695
59	0x3e1df1bb	0.15424244
60	0x3ead1a43	0.338091
61	0x3eb52c65	0.35385433
62	0x3eb86228	0.36012387
63	0xbe6f8238	-0.23389518
64	0xbf063d7c	-0.5243757
65	0xbea8db70	-0.32979918
66	0xbd7e1794	-0.062034205
67	0xbe43d3f9	-0.1912383
68	0x3f135a4d	0.57559663
69	0x3f12e444	0.57379556
70	0x3f0f96c2	0.56089413
71	0xbe534339	-0.20631112
72	0xbf0c4ef6	-0.54807985
73	0x3d4a60ce	0.049408726
74	0x3ae6316c	0.0017562336
75	0xbe65e1c1	-0.224494
76	0x3d127084	0.035751835
77	0xb9cccebf	-0.0003906395
78	0xbbd47c2d	-0.0064845295
79	0x3f707209	0.93924004
80	0x3ed02f83	0.4066125
81	0xbdbb3840	-0.09141588
82	0x3d0d6f5e	0.034530036
83	0x3daba1ce	0.08380471
84	0xbe774ba5	-0.2414995
85	0xbe56520c	-0.20929736
86	0xbdda5f0f	-0.10662662
87	0x3f2f8abf	0.68571085
88	0x3d82ee6b	0.06393131
89	0x3e1ce51c	0.15321773
90	0xbdfbb8b0	-0.12291086
91	0xbc02e0f4	-0.007988203
92	0x3e56c7bb	0.20974629
93	0xbebcf6a5	-0.36906925
94	0x3f10056f	0.5625829
95	0x3dbd3116	0.09237878
96	0xbecfbd98	-0.40574336
97	0x3aa47580	0.0012547225
98	0xbe3ac819	-0.18240394
99	0x3d468c03	0.04847337
100	0xbe9b2379	-0.303005
101	0x3db5e026	0.088806435
102	0x3deec15d	0.11657975
103	0x3ee05cba	0.43820745
104	0x3db34ac0	0.08754492
105	0xbce4aa65	-0.027913282
106	0xbe2c6a0d	-0.1683733
107	0x3e059355	0.13044484
108	0xbe8b8791	-0.27251866
109	0x3da15985	0.078784026
110	0xbe5b4622	-0.21413472
111	0xbd3d96e4	-0.04628648
112	0x3e0935e5	0.13399465
113	0xbd8431a3	-0.0645478
114	0x3e58d7cd	0.21176071
115	0xbcca8307	-0.024720682
116	0x3c7b855f	0.015351622
117	0x3c257d0b	0.010100613
118	0x3e663f8a	0.22485176
119	0xbe072b0d	-0.13200016
120	0x3e41d17a	0.18927565
121	0xbe033ba1	-0.12815715
122	0x3e54db57	0.20786797
123	0x3e022eef	0.12713216
124	0xbef315de	-0.4747762
125	0x3e8b1fc1	0.27172664
126	0xbe2d272a	-0.16909471
127	0xbee7b901	-0.45258334
128	0xbe01df3b	-0.12682812
129	0x3e7af9cb	0.24509351
130	0x3dcbb215	0.09946076
131	0x3e585202	0.21125033
132	0xbd6a922f	-0.057268318
133	0xbe3cdbd8	-0.18443239
134	0x3e60f2d5	0.21967633
135	0xbbc7689f	-0.00608547
136	0xbd7b6564	-0.06137599
137	0x3f2ce8db	0.6754281
138	0x3e18b2e4	0.14911991
139	0x3e17db99	0.14829864
140	0x3d272dbc	0.0408151
141	0x3def3983	0.11680891
142	0xbdbae500	-0.091257095
143	0xbd134ae0	-0.03596008
144	0x3eff566a	0.49870616
145	0x3dc646fe	0.096815094
146	0xbe910d86	-0.2833063
147	0x3e824ea2	0.25450617
148	0xbd2704d9	-0.040776107
149	0xbcc2b8a6	-0.023769688
150	0x3eb03783	0.34417352
151	0x3e9034ef	0.28165385
152	0xbeaa814c	-0.3330177
153	0xbf13d1d1	-0.5774203
154	0x3d91b2ec	0.07114205
155	0xbdca1af0	-0.09868419
156	0xbdbf212f	-0.09332501
157	0x3f4c62b5	0.79838115
158	0xbe6ed98d	-0.23325177
159	0x3e8aad11	0.27085164
160	0xbeec97c0	-0.46209526
161	0x3eaadb9d	0.33370677
162	0x3da6e5af	0.081492774
163	0xbe00f6b7	-0.12594114
164	0x3e0a1243	0.13483529
165	0x3f104eda	0.5637032
166	0x3edb4554	0.4282633
167	0xbee71561	-0.45133498
168	0x3e6f9a0d	0.2339861
169	0xbe1d281b	-0.1534733
170	0x3f89ded7	1.077113
171	0xbdf2fd43	-0.11864712
172	0x3e7c4c0b	0.24638383
173	0xbe2b4220	-0.16724443
174	0x3c4230bc	0.0118524395
175	0x3e538da3	0.20659499
176	0x3c8cf021	0.017204346
177	0xbee49e76	-0.44652146
178	0x3ca6ce86	0.02036215
179	0x3f2957f6	0.6614984
180	0xbf2af143	-0.66774386
181	0x3ead8bb0	0.33895636
182	0xbefcc1b6	-0.4936654
183	0xbc2d8321	-0.010590346
184	0xbd43859a	-0.047734834
185	0xbecbb077	-0.3978307
186	0xbe615da4	-0.22008377
187	0x3fbaeff5	1.4604479
188	0x3e4c21fa	0.19934836
189	0x3e96f50e	0.29483837
190	0xbe24f711	-0.16109873
191	0xbd689c47	-0.056789663
192	0xbee7e9ff	-0.45295712
193	0x3ed0d7e3	0.40789708
194	0x3f9d9d0b	1.2313551
195	0x3e564493	0.20924596
196	0xbe60b8bf	-0.21945475
197	0x3ea73b85	0.32662597
198	0xbf0d1fd5	-0.55126697
199	0x3f23e48d	0.64020616
200	0xbe55376c	-0.20821923
201	0x3e503c0f	0.2033541
202	0xbe9dcf88	-0.30822396
203	0xbe532f8b	-0.20623605
204	0x3d746b45	0.059672613
205	0xbdf245b2	-0.118296996
206	0x3c7a5083	0.015277985
207	0x3f272186	0.6528553
208	0xbe55096a	-0.20804372
209	0x3d85f95e	0.06541704
210	0xbd3e27be	-0.04642462
211	0x3dbb3122	0.09140231
212	0x3e51460a	0.20436874
213	0xbe4b2892	-0.19839695
214	0x3df69c27	0.120415024
215	0x3b24a39b	0.002512193
216	0x3d50daf0	0.050990045
217	0xbefc56e2	-0.49285036
218	0x3efd2cfd	0.49448386
219	0xbe10e1a5	-0.14148577
220	0x3eee4339	0.46535662
221	0xbe5ecd09	-0.21757902
222	0x3ea28541	0.3174229
223	0xbd0db34b	-0.034594815
224	0xbdb51605	-0.088420905
225	0x3b883200	0.004156351
226	0xbd79f89e	-0.061028115
227	0xbe686dea	-0.22698179
228	0xbdb6ba07	-0.08922201
229	0x3eed71e5	0.46375957
230	0x3df50793	0.11964335
231	0x3e3c8af7	0.18412386
232	0xbdd362fb	-0.103216134
233	0x3d3e837e	0.04651212
234	0x3e37f3d6	0.1796411
235	0x3c6446b1	0.01393287
236	0xbe8b50a9	-0.27209976
237	0x3ec05463	0.37564382
238	0x3e8495cf	0.25895545
239	0x3e8b4eba	0.272085
240	0xbea7c415	-0.32766786
241	0xbd41f7c4	-0.04735543
242	0xbe19728e	-0.14985105
243	0x3e27b77b	0.16378586
244	0x3ed8b400	0.4232483
245	0x3e91502d	0.28381482
246	0x3db1e455	0.08686129
247	0x3e84a9f7	0.25910923
248	0xbf20de68	-0.62839365
249	0x3e168a1c	0.14701122
250	0x3e31ca5e	0.17362353
251	0xbe235191	-0.15949084
252	0x3ede7a15	0.43452516
253	0x3c63efb0	0.013912126
254	0xbdd1c652	-0.10242905
255	0x3df256dd	0.11832974

lstm.bias_ih_l0 f4 [200]
0	0xbe60ae78	-0.21941555
1	0xbd7d4056	-0.061828934
2	0xbea739bf	-0.32661244
3	0x3e3f62e1	0.18690063
4	0xbe449877	-0.19198786
5	0xbf0fcca1	-0.56171614
6	0xbdc04a89	-0.093892165
7	0x3eb4fef0	0.35350752
8	0xbee1028a	-0.4394725
9	0xbd8974ef	-0.067117564
10	0xbf02f662	-0.511572
11	0xbf091ee7	-0.5356278
12	0xbe40bd78	-0.18822277
13	0xbe8fb503	-0.28067788
14	0xbed7fc93	-0.42184886
15	0xbe1a02b5	-0.15040095
16	0xbe6e59fd	-0.23276515
17	0xbf2f91b7	-0.6858172
18	0xbda91180	-0.08255291
19	0xbf144e21	-0.57931715
20	0xbe9fc362	-0.31203753
21	0xbeb955f1	-0.3619838
22	0xbeb6604c	-0.35620344
23	0xbda10c21	-0.078636415
24	0xbd05fc3b	-0.03271125
25	0xbf399830	-0.72497845
26	0xbec535d7	-0.3851764
27	0xbe99f958	-0.30073047
28	0xbee1c5c8	-0.44096208
29	0x3e8801cb	0.26563868
30	0xbd3d313e	-0.04618954
31	0xbe05ad22	-0.13054326
32	0xbece468f	-0.40288207
33	0x3c73c0c8	0.014877506
34	0xbe39ab04	-0.18131644
35	0xbf56816b	-0.83791226
36	0xbe9de7a2	-0.30840784
37	0xbd94304b	-0.07235774
38	0xbf0aef22	-0.5427114
39	0xbf04d4f8	-0.51887465
40	0xbe9db06a	-0.30798656
41	0xbdfd2ffc	-0.12362668
42	0xbef816d1	-0.48454908
43	0xbd89ae2a	-0.06722672
44	0xbd50be7e	-0.050962918
45	0xbeee20ca	-0.4650939
46	0xbe3b26b1	-0.18276478
47	0xbec5e508	-0.386513
48	0xbf07001e	-0.52734554
49	0xbf4ef1f5	-0.8083795
50	0xbf435fcd	-0.76318055
51	0xbfa0cf8b	-1.2563337
52	0xbf5258e1	-0.8216687
53	0xbefd8611	-0.49516347
54	0xbf4a47de	-0.7901591
55	0xbf70770a	-0.9393164
56	0xbf306945	-0.6891063
57	0xbefe2460	-0.49637127
58	0xbf4af2b0	-0.7927656
59	0xbf5e5b85	-0.868584
60	0xbf202dae	-0.625697
61	0xbf3317e1	-0.6995831
62	0xbf07c29c	-0.53031325
63	0xbf390380	-0.72270966
64	0xbeb0ab51	-0.34505704
65	0xbf2be744	-0.6714976
66	0xbf34ba4d	-0.7059677
67	0xbf8c6866	-1.096936
68	0xbf964b23	-1.174168
69	0xbf3b8478	-0.73249006
70	0xbeda6e1b	-0.4266213
71	0xbf310842	-0.69153225
72	0x3ecca82f	0.39972064
73	0xbf409591	-0.7522822
74	0xbee60f09	-0.44933346
75	0xbf674bcd	-0.9035004
76	0xbf86a411	-1.0518819
77	0xbf489646	-0.783543
78	0xbf7c84b5	-0.98639995
79	0xbfa8b4ed	-1.3180214
80	0xbf4e84ee	-0.80671585
81	0xbf16cc1d	-0.589052
82	0xbf8c431d	-1.0957981
83	0xbf545182	-0.8293687
84	0xbf853965	-1.040814
85	0xbf22a3c1	-0.6353112
86	0xbf464518	-0.7744918
87	0xbfa34360	-1.2754936
88	0xbf0e14af	-0.5550031
89	0xbf1653a6	-0.5872139
90	0xbf5fd96e	-0.87441146
91	0xbf3cae59	-0.73703533
92	0xbf640061	-0.8906308
93	0xbf051d02	-0.5199739
94	0xbf8c2a76	-1.0950458
95	0xbf55b713	-0.83482474
96	0xbf9b58df	-1.2136496
97	0xbf98c302	-1.1934512
98	0xbf9af342	-1.2105486
99	0xbf152e3b	-0.5827367
100	0xbd0210c4	-0.03175427
101	0xbd6abf7f	-0.05731153
102	0x3c0c3ff8	0.008560173
103	0xbdd53b97	-0.104117565
104	0xbd020b31	-0.031748954
105	0x3d417705	0.047232646
106	0x3e5205b7	0.20509993
107	0x3e02a59c	0.12758487
108	0xbdb1d8cb	-0.08683928
109	0xbbbc208c	-0.0057411846
110	0x3d6b5049	0.057449613
111	0x3d73c9d6	0.059518658
112	0xbd6d0ad7	-0.057871666
113	0x3db76c65	0.089562215
114	0x3d6ec2a4	0.058291093
115	0xbd1c64e1	-0.038182143
116	0x3e1a3b10	0.15061593
117	0x3e03730e	0.12836859
118	0xbe2c1592	-0.16805103
119	0x3ca39fed	0.01997372
120	0x3d899c95	0.06719319
121	0x3d71bd2c	0.0590183
122	0x3cf1777c	0.02947592
123	0xbe176962	-0.14786294
124	0x3d1db413	0.03850181
125	0xbde66cef	-0.11251246
126	0x3d907e99	0.070553966
127	0x3de0a0aa	0.10968144
128	0x3e291699	0.16512527
129	0xbd0a3ffe	-0.033752434
130	0xbdb0724a	-0.08615549
131	0x3e043c00	0.12913513
132	0x3d7fecc9	0.062481675
133	0x3dec125f	0.115269415
134	0xbd2a98e5	-0.041649718
135	0x3bf1892f	0.00737109
136	0x3cea0110	0.02856496
137	0xbbdab4d2	-0.0066743875
138	0xbc4b04f1	-0.012391315
139	0xbd095a98	-0.033533663
140	0x3e1734b5	0.147662
141	0x3c9896e8	0.018626645
142	0xbbd92309	-0.006626491
143	0xbcea07ba	-0.028568137
144	0x3d790e09	0.0608044
145	0xbe448709	-0.19192137
146	0x3c84b8d2	0.01620141
147	0xbcfd0d85	-0.030890236
148	0x3d0ca285	0.03433468
149	0x3da027e7	0.07820111
150	0xbe6b6639	-0.22988214
151	0xbdd4ba29	-0.1038707
152	0xbe80b8c8	-0.25140977
153	0x3c994e96	0.01871423
154	0xbe9d2afc	-0.30696857
155	0xbf157403	-0.58380145
156	0xbe3f1dad	-0.18663664
157	0x3e383980	0.17990685
158	0xbf02d383	-0.5110399
159	0xbe38868f	-0.1802008
160	0xbef49281	-0.47768024
161	0xbef222a1	-0.47292045
162	0xbe8e5f89	-0.27807263
163	0xbecd2066	-0.4006378
164	0xbee2c07e	-0.44287485
165	0xbe84a8b6	-0.25909966
166	0xbb762568	-0.0037558917
167	0xbf42aa9b	-0.76041573
168	0x3d225fce	0.039642148
169	0xbedd0443	-0.43167314
170	0xbe62ce3f	-0.22148989
171	0xbeb37dbb	-0.35056862
172	0xbeeaee5a	-0.45884973
173	0x3cb09676	0.02155612
174	0xbde7f62e	-0.11326252
175	0xbf2392f6	-0.6389612
176	0xbeb748a7	-0.35797617
177	0xbe9ce5e0	-0.3064413
178	0xbee1dda3	-0.44114408
179	0xbc6acfbd	-0.014331755
180	0x3d37eaa5	0.04490151
181	0xbda63767	-0.08116036
182	0xbed583a4	-0.41701996
183	0x3c22e342	0.009941878
184	0xbc716ece	-0.014735891
185	0xbf7582b2	-0.9590255
186	0xbe5c73f5	-0.21528609
187	0xbd9ee34f	-0.077581994
188	0xbefefb9f	-0.49801347
189	0xbf329956	-0.6976522
190	0xbedfc8e4	-0.43707955
191	0xbd74fe34	-0.05981274
192	0xbecd455a	-0.40091974
193	0x3d2795e8	0.040914446
194	0xbe02e78a	-0.12783638
195	0xbe6d3bb9	-0.23167314
196	0xbe7f7628	-0.24947417
197	0xbe9d4bd2	-0.3072191
198	0xbf1dddc2	-0.616665
199	0xbf533631	-0.82504565

lstm.bias_hh_l0 f4 [200]
0	0xbe32aae3	-0.17448
1	0xbe27f9b3	-0.16403846
2	0xbe97877b	-0.2959555
3	0x3c49cd39	0.012316995
4	0xbe4c526e	-0.1995332
5	0xbf0dd956	-0.55409753
6	0xbda1f85a	-0.079086974
7	0x3e1c1555	0.15242513
8	0xbf16ace2	-0.5885755
9	0xbe6c1da3	-0.2305818
10	0xbf042fdd	-0.51635534
11	0xbee30dfa	-0.443466
12	0xbde62cf6	-0.11239044
13	0xbef1dc44	-0.47238362
14	0xbeee98b8	-0.4660089
15	0xbd673ff5	-0.05645748
16	0x3b626061	0.003454231
17	0xbf427953	-0.75966376
18	0xbd48471d	-0.048895944
19	0xbedd011b	-0.43164906
20	0xbea70cb2	-0.32626873
21	0xbf08d15c	-0.5344446
22	0xbe961b90	-0.29317904
23	0x3d102eca	0.03520087
24	0xbdab3b22	-0.08360888
25	0xbf42d20b	-0.7610175
26	0xbe7ba21e	-0.24573562
27	0xbe3dae43	-0.18523507
28	0xbf0ca569	-0.54939896
29	0x3e887bc2	0.2665692
30	0xbd73748a	-0.059437312
31	0xbdbfd684	-0.093670875
32	0xbeda1c77	-0.42599842
33	0xbdb2f656	-0.08738391
34	0xbdc868d5	-0.0978562
35	0xbf621b7a	-0.88323176
36	0xbed52de6	-0.4163658
37	0xbe310f47	-0.17290984
38	0xbf230948	-0.6368604
39	0xbf18a7cd	-0.59631044
40	0xbedf26c5	-0.43584266
41	0x3d5e4cc0	0.054272413
42	0xbf0e194f	-0.5550737
43	0x3d6f3eef	0.058409628
44	0x3c0dacaf	0.008647128
45	0xbef5d7f7	-0.4801633
46	0xbe00c47a	-0.1257495
47	0xbea9a274	-0.33131754
48	0xbf24cff8	-0.64379835
49	0xbf6d5ce0	-0.9271984
50	0xbf6b3359	-0.91875225
51	0xbfae603c	-1.3623118
52	0xbf349ae5	-0.7054885
53	0xbee19643	-0.44059953
54	0xbf2879b5	-0.6581071
55	0xbf6cac4f	-0.9245042
56	0xbf200222	-0.62503254
57	0xbf22fefb	-0.6367032
58	0xbf3f2962	-0.7467252
59	0xbf89ef70	-1.0776196
60	0xbf67a722	-0.904894
61	0xbf641043	-0.89087313
62	0xbec6953a	-0.38785726
63	0xbf1611e1	-0.5862103
64	0xbeced704	-0.4039842
65	0xbf39f7c8	-0.7264371
66	0xbf3a54ed	-0.72785836
67	0xbf69f756	-0.9139303
68	0xbf91e46e	-1.1397836
69	0xbf5dda21	-0.86660963
70	0xbf03d98a	-0.51503813
71	0xbf495d45	-0.78657943
72	0x3efb110b	0.4903644
73	0xbf3ffbb7	-0.7499346
74	0xbef04bb8	-0.4693277
75	0xbf81eb9f	-1.0150031
76	0xbf6b21d4	-0.9184849
77	0xbf6ee18f	-0.93312925
78	0xbf7c3816	-0.9852308
79	0xbfb641c2	-1.4238818
80	0xbf6237b4	-0.88366246
81	0xbf4472db	-0.76737756
82	0xbf924289	-1.1426555
83	0xbf4187ac	-0.75597644
84	0xbf79f881	-0.9764481
85	0xbf44ae8f	-0.76828855
86	0xbf23eea3	-0.64036006
87	0xbfb662e0	-1.4248924
88	0xbeb08314	-0.34475005
89	0xbf1fe89e	-0.6246432
90	0xbf88126f	-1.0630625
91	0xbf41b2e4	-0.7566359
92	0xbf555ccc	-0.8334472
93	0xbf0543e2	-0.52056706
94	0xbf8c0179	-1.093795
95	0xbf572587	-0.8404164
96	0xbf9533d8	-1.1656446
97	0xbf8d7794	-1.1052117
98	0xbf834409	-1.0255138
99	0xbf580664	-0.8438475
100	0x3e076e66	0.13225707
101	0xbe12ae19	-0.14324225
102	0x3da7b105	0.08188061
103	0xbd80299b	-0.062579356
104	0xbdfce3d2	-0.12348141
105	0x3d306bb0	0.04307145
106	0xbd3132a9	-0.043261204
107	0xbd179eef	-0.037016805
108	0x3d2baa48	0.04191044
109	0x3e291ea1	0.1651559
110	0x3ce8591d	0.028362805
111	0xbe386dc8	-0.18010628
112	0xbd635952	-0.055505104
113	0x3db23dd8	0.08703202
114	0xbc0c442d	-0.008561176
115	0x3e014d2a	0.12627092
116	0x3c341d77	0.010993353
117	0x3e45e6d3	0.19326334
118	0xba81e0de	-0.0009908935
119	0x3db4b859	0.08824224
120	0xbcfc133f	-0.030770896
121	0x3e2c44b6	0.16823086
122	0x3d41a66a	0.047277845
123	0xbd49f7d6	-0.04930862
124	0x3da51e49	0.08062417
125	0x3d682809	0.056678806
126	0x3d492855	0.04911073
127	0x3ded8e7e	0.11599444
128	0x3d50ae3e	0.05094742
129	0x3dabb920	0.08384919
130	0xbbab324e	-0.0052245026
131	0x3dc8f832	0.098129645
132	0x3e35b4e7	0.1774479
133	0x3e011151	0.12604262
134	0x3ce479e3	0.027890151
135	0xbc7a387c	-0.015272256
136	0x3d3cda2e	0.04610651
137	0xbc2b05bf	-0.010438382
138	0x3d52930d	0.05140977
139	0x3d07281e	0.032997243
140	0x3d90c725	0.07069234
141	0x3e0dabac	0.13835019
142	0x3d0f0d49	0.03492478
143	0x3e12c54b	0.14333074
144	0xbd906185	-0.070498504
145	0x3d368f1f	0.044570085
146	0xbd0fa149	-0.035065923
147	0xbd114199	-0.03546295
148	0x3dedcb5a	0.11611052
149	0xbd8d2ed9	-0.06893701
150	0xbe180306	-0.14844903
151	0xbe1bd128	-0.15216506
152	0xbe3e52bc	-0.18586248
153	0x3e2dc074	0.16967946
154	0xbe3000b2	-0.17187765
155	0xbf268842	-0.6505166
156	0x3c66b5b9	0.014081412
157	0x3e5be0a3	0.21472411
158	0xbed6de20	-0.41966343
159	0xbde2e3a4	-0.11078575
160	0xbedfdef2	-0.4372478
161	0xbef0cf25	-0.4703304
162	0xbeb53a92	-0.35396248
163	0xbed4c0fd	-0.41553488
164	0xbf0a454b	-0.5401198
165	0xbd830eba	-0.06399293
166	0x3d157f8b	0.036498588
167	0xbf0ba297	-0.5454497
168	0xbdace788	-0.084425986
169	0xbeb44ea7	-0.35216257
170	0xbe96f4c4	-0.29483616
171	0xbeae6a07	-0.34065267
172	0xbee144f0	-0.43997908
173	0x3d4c5488	0.049885303
174	0xbe467d1a	-0.1938366
175	0xbf0e566c	-0.5560062
176	0xbed756a9	-0.42058304
177	0xbe00c696	-0.12575755
178	0xbf10fbce	-0.56634223
179	0x3e1da825	0.15396173
180	0xbd68214d	-0.056672383
181	0xbe245a28	-0.16050017
182	0xbee52cc3	-0.44760713
183	0xbe18908d	-0.14898892
184	0xbe6ad41c	-0.22932476
185	0xbf64275c	-0.8912256
186	0xbedae79e	-0.42754835
187	0xbd177559	-0.036977146
188	0xbf0ea728	-0.5572381
189	0xbf1d43bb	-0.61431473
190	0xbec65cc0	-0.38742638
191	0xbe6ffa54	-0.23435336
192	0xbeaeb1f2	-0.34120136
193	0xbdf76a1a	-0.12080784
194	0x3db492be	0.08817051
195	0xbefec9ec	-0.4976343
196	0xbe418232	-0.18897322
197	0xbea042fe	-0.3130111
198	0xbf33bff9	-0.702148
199	0xbf5dbd8e	-0.8661736

lstm.weight_ih_l1 f4 [200, 50]
0	0xbe942429	-0.28933838
1	0xbe9a8135	-0.30176702
2	0xbe62e964	-0.22159344
3	0x3ee84935	0.45368353
4	0x3f30f97e	0.69130695
5	0xbe0aa305	-0.1353875
6	0xbd63d044	-0.05561854
7	0x3d41a1cb	0.04727344
8	0xbf50ae58	-0.8151603
9	0x3e542441	0.20716955
10	0xbf07f98a	-0.5311514
11	0x3e917676	0.2841069
12	0x3ea0f30d	0.31435433
13	0xbde3291c	-0.11091825
14	0xbd53c972	-0.051705785
15	0xbe8fcb23	-0.2808467
16	0xbd8bc814	-0.06825271
17	0xbe171d01	-0.14757158
18	0xbd1e73af	-0.038684543
19	0xbeb034ed	-0.3441538
20	0x3ea47ba2	0.32125574
21	0xbe92d619	-0.2867897
22	0xbc88350b	-0.016626855
23	0x3e013b39	0.12620248
24	0xbf02b78b	-0.51061314
25	0xbda3c38a	-0.079962805
26	0xbf2e5786	-0.681023
27	0xbe34df01	-0.17663194
28	0xbe7875c1	-0.2426367
29	0x3f5bcd0a	0.8585974
30	0x3e6975d7	0.22798859
31	0x3d8299d6	0.06376998
32	0xbd0305ba	-0.031987883
33	0xbe9de3de	-0.3083791
34	0x3dac2d59	0.08407087
35	0x3ea837c8	0.32855058
36	0xbea6b78b	-0.32561907
37	0x3f129d0d	0.5727089
38	0xbe7ed990	-0.24887681
39	0xbd03f00c	-0.03221135
40	0xbe602803	-0.21890263
41	0xbe55ab36	-0.20866093
42	0xbdec12d3	-0.11527028
43	0xbe9ac7cc	-0.30230558
44	0x3e4eb8bd	0.2018766
45	0x3eabe313	0.3357168
46	0xbe394948	-0.18094361
47	0x3eb2778f	0.3485684
48	0xbebdc177	-0.37061664
49	0xbd96b4c0	-0.07358694
50	0x3def1f73	0.1167592
51	0xbe3359c1	-0.17514707
52	0x3d844b37	0.064596586
53	0x3d6af7e9	0.05736533
54	0xbde5a065	-0.112122335
55	0xbc873807	-0.016506208
56	0x3e01ef0f	0.1268885
57	0x3e57b86f	0.2106645
58	0xbeb43e10	-0.352036
59	0xbb88201a	-0.0041542174
60	0xbd95b552	-0.07309975
61	0xbe8728ed	-0.2639841
62	0xbe7d31c9	-0.24726023
63	0xbda4c5ac	-0.080455154
64	0xbdf96e77	-0.121792726
65	0xbd343536	-0.04399606
66	0xbe415387	-0.1887952
67	0xbd5f56a3	-0.054525983
68	0xbf0ce843	-0.55041903
69	0x3d906c57	0.07051914
70	0x39ad58b0	0.0003306321
71	0xbd82eaaf	-0.063924186
72	0x3e119f81	0.14221002
73	0xbd929651	-0.07157577
74	0x3e6b508d	0.22979946
75	0xbd9205d3	-0.07130017
76	0xbd4a43f7	-0.049381223
77	0x3e82785a	0.25482446
78	0xbe535d8e	-0.20641157
79	0x3f249e14	0.6430371
80	0x3dcbe6f0	0.09956157
81	0x3ca6cbe8	0.020360902
82	0x3d2d7b11	0.042353693
83	0x3da30f8b	0.07961949
84	0xbe613e85	-0.21996506
85	0xbd96249c	-0.073312014
86	0x3d90e824	0.07075527
87	0x3f4c303f	0.7976112
88	0xbc70c38d	-0.01469506
89	0xbd83003c	-0.06396529
90	0x3e06fed1	0.13183142
91	0x3e3ecdef	0.18633245
92	0xbda86012	-0.08221449
93	0x3e4ff8c7	0.20309745
94	0x3f17a3f2	0.59234536
95	0x3de81786	0.11332612
96	0xbf0e0cf2	-0.554885
97	0xbd2d3e79	-0.042295907
98	0xbd269738	-0.040671557
99	0xbe1476e8	-0.14498484
100	0x3d95ece1	0.07320572
101	0xbe13288a	-0.14370933
102	0x3e84e311	0.25954488
103	0xbd442765	-0.047889132
104	0xbe6053ce	-0.21906969
105	0xbe891536	-0.26773995
106	0x3e301ac9	0.17197718
107	0xbc5a8268	-0.013336755
108	0x3efa081f	0.4883432
109	0xbd5302b5	-0.051516254
110	0x3e39a4a9	0.18129219
111	0xbe8a179f	-0.26971146
112	0xbd99036c	-0.07471356
113	0x3dcf1ce5	0.10112933
114	0xbe01ec73	-0.12687854
115	0xbe43cacf	-0.19120334
116	0xbd04b002	-0.032394417
117	0xbcc73201	-0.024315836
118	0xbf12dbf3	-0.57366866
119	0x3d01452b	0.031560104
120	0xbd2a60ec	-0.04159634
121	0x3e0700c6	0.13183889
122	0xbec935d7	-0.3929889
123	0xbd229c5f	-0.03969991
124	0xbd8e586a	-0.069504574
125	0xbef3954d	-0.47574845
126	0x3eaab096	0.3333785
127	0x3e2ecb95	0.17069848
128	0xbe20256c	-0.15639275
129	0x3db23a60	0.087025404
130	0xbd9f0d0d	-0.07766161
131	0xbe123fba	-0.14282122
132	0x3e81250d	0.2522358
133	0x3dc0218e	0.093814
134	0xbe6a11a4	-0.22858292
135	0x3bc8f4e0	0.006132707
136	0xbe5ee2e8	-0.21766245
137	0xbc935c7a	-0.017988432
138	0x3e310daa	0.17290369
139	0x3e0ac488	0.13551533
140	0xbd175f49	-0.036956105
141	0x3dbfd26e	0.09366308
142	0x3e8d4b58	0.27596545
143	0xbe31b29b	-0.17353289
144	0xbe00c94c	-0.12576789
145	0x3cff9f61	0.031203927
146	0xbe321f3e	-0.1739473
147	0x3df15e75	0.117855944
148	0xbe39b050	-0.18133664
149	0x3e21296e	0.1573846
150	0x3e37d251	0.17951323
151	0xbf432cb1	-0.7624007
152	0x3e83dcee	0.25754493
153	0xbeb4ec08	-0.35336328
154	0xbe880c38	-0.26571822
155	0x3f10e511	0.5659953
156	0x3e9b3def	0.3032069
157	0x3ecfbb43	0.40572557
158	0x3c559ec6	0.013038343
159	0x3eb1817c	0.346691
160	0x3e0ab412	0.13545254
161	0xbf0e3a3c	-0.5555761
162	0xbe84d594	-0.25944197
163	0x3e973566	0.29532927
164	0x3e1cc151	0.1530812
165	0xbdab6090	-0.08368027
166	0xbe159f70	-0.14611602
167	0x3f00a415	0.5025037
168	0xbef45eaf	-0.47728488
169	0x3e8c453f	0.2739658
170	0xbe1fb20f	-0.15595268
171	0x3e3175c9	0.17330088
172	0xbdd0523a	-0.101719335
173	0xbeaeef70	-0.3416705
174	0x3eab2def	0.33433482
175	0xbe4b0b46	-0.19828519
176	0x3ea739da	0.32661325
177	0x3ec3baf9	0.38228586
178	0x3eee8589	0.46586254
179	0x3e88aff2	0.26696736
180	0xbecd7ff4	-0.40136683
181	0x3de7558d	0.112956144
182	0x3d4404fd	0.04785632
183	0x3f0e4aa1	0.55582625
184	0xbef67dfe	-0.48143
185	0x3ddb1906	0.10698132
186	0x3ee7703b	0.45202813
187	0xbf1ba4e4	-0.6079848
188	0x3c97989d	0.018505389
189	0xbe2fa9de	-0.17154643
190	0x3ee64f67	0.44982454
191	0x3eadfdc9	0.33982685
192	0x3e181a01	0.1485367
193	0x3eb6f089	0.3573039
194	0xbe92b2af	-0.2865195
195	0xbe2f341a	-0.17109719
196	0xbeff02ee	-0.49806923
197	0xbf10b51b	-0.56526345
198	0x3ec5acd8	0.38608432
199	0xbe008757	-0.12551628
200	0xbdcd0785	-0.100112
201	0x3cf05f67	0.029342366
202	0x3d81ed59	0.063440986
203	0x3d90b6a7	0.07066088
204	0x3edde104	0.43335736
205	0xbec45cf2	-0.38352162
206	0x3e0d43b9	0.13795365
207	0x3e8777e5	0.2645866
208	0xbe849afd	-0.25899497
209	0x3eb1c037	0.3471696
210	0xbf137aa6	-0.5760902
211	0x3de60eea	0.112333134
212	0x3c918bfe	0.017766949
213	0xbeb03056	-0.34411877
214	0xbe5d334d	-0.21601601
215	0xbeb3439f	-0.35012528
216	0xbd804669	-0.0626343
217	0xbecc4894	-0.39899123
218	0xbe82eda3	-0.25571927
219	0xbe3ba929	-0.18326248
220	0x3f53b006	0.82690465
221	0x3e1cd76c	0.15316552
222	0x3e5f056a	0.21779409
223	0xbe19503b	-0.14972012
224	0xbf0981d6	-0.5371374
225	0xbea15417	-0.31509468
226	0xbee2a287	-0.44264624
227	0xbe7fe590	-0.24989915
228	0xbe219fa8	-0.1578356
229	0x3f8e8f1a	1.1137421
230	0xbe762bff	-0.2404022
231	0x3d4eb642	0.050466783
232	0xbe0ea50c	-0.13930148
233	0xbf16bf1a	-0.5888535
234	0xbdb6327f	-0.0889635
235	0x3e15079f	0.14553688
236	0xbdbb40d6	-0.09143226
237	0x3f9b30de	1.2124288
238	0x3c81cea8	0.015845612
239	0x3eefc43d	0.46829405
240	0xbe059a05	-0.13047035
241	0x3e3e016d	0.18555231
242	0xbe4b9940	-0.19882679
243	0x3e3e3754	0.18575794
244	0x3f878c08	1.0589609
245	0xbd26ddd7	-0.040738907
246	0xbf2af883	-0.6678545
247	0x3eddef0c	0.4334644
248	0xbe9ce064	-0.30639946
249	0x3e6fcd3c	0.23418134
250	0xbdf1a3fb	-0.11798855
251	0x3e665dbf	0.22496699
252	0x3dc2205f	0.094788305
253	0xbe889e0a	-0.26683074
254	0x3e13b8b7	0.14425932
255	0xbc92fc79	-0.017942654

lstm.weight_hh_l1 f4 [200, 50]
0	0xbd8867ac	-0.06660399
1	0xbdf88bf3	-0.12136068
2	0x3e4ce51c	0.20009273
3	0x3e43ffbb	0.19140522
4	0x3dfd84f5	0.12378875
5	0xbe304f1f	-0.17217682
6	0x3ea8df12	0.3298269
7	0xbd16340f	-0.03667074
8	0x3e0d0438	0.1377114
9	0x3dea10b7	0.11428969
10	0x3dbb9a29	0.09160263
11	0x3e3ecfd8	0.18633974
12	0xbd4c2a1c	-0.049844846
13	0x3e53b91f	0.20676087
14	0xbb3e42de	-0.0029031555
15	0x3bdf878a	0.0068215774
16	0x3e1cebbd	0.15324302
17	0x3dd062f7	0.10175126
18	0xbe4c5a5b	-0.19956343
19	0xbd7f5928	-0.062340885
20	0xbe346554	-0.17616779
21	0x3f2db292	0.678506
22	0x3da88820	0.08229089
23	0x3d9d6bce	0.07686578
24	0xbe2e2598	-0.17006528
25	0x3d9a1415	0.075233616
26	0x3d1219ea	0.035669245
27	0xbe0c642c	-0.13710088
28	0x3e506fe3	0.20355181
29	0xbee338f8	-0.443794
30	0xbc4f170b	-0.012639771
31	0xbe4d306b	-0.20038001
32	0x3e54f592	0.20796803
33	0x3dc36de9	0.09542448
34	0x3d9208b1	0.07130564
35	0xbec795ac	-0.38981378
36	0x3e69d03b	0.2283334
37	0x3e1593a9	0.14607109
38	0x3d7f5d0d	0.0623446
39	0x3e20445f	0.15651082
40	0x3e56b525	0.20967539
41	0xbe355319	-0.1770748
42	0xbd2b1d94	-0.041776255
43	0xbe662de1	-0.22478439
44	0x3f0916be	0.53550327
45	0xbd9a3f7f	-0.07531642
46	0xbdde089d	-0.108414866
47	0x3e1cc9aa	0.15311304
48	0x3dcbdd3c	0.099543065
49	0x3d65a4cf	0.056065377
50	0xbe86b6ed	-0.26311436
51	0xbecb4614	-0.39701903
52	0xbe03bb49	-0.12864412
53	0xbd81962b	-0.063274704
54	0xbec1750e	-0.37784618
55	0xbd94b7de	-0.072616324
56	0xbe99c936	-0.30036324
57	0xbddaeb5f	-0.10689425
58	0x3e16816f	0.14697812
59	0x3d88a278	0.066716135
60	0x3dc4420e	0.095829114
61	0x3ee24d66	0.44199675
62	0x3e1f6980	0.15567589
63	0x3def196c	0.11674771
64	0x3d444b7e	0.047923557
65	0xbd8f29fa	-0.06990428
66	0xbe31df85	-0.17370422
67	0x3edf0117	0.4355552
68	0xbe5d1b8e	-0.21592543
69	0xbd4dcbe9	-0.050243292
70	0x3e524157	0.20532738
71	0x3e090fa1	0.13384868
72	0x3d18310a	0.037156142
73	0xbd479f09	-0.048735652
74	0xbec69387	-0.3878443
75	0xbe7bbd6c	-0.24583977
76	0xbc177c50	-0.009245947
77	0x3e0e0d14	0.13872176
78	0x3c92681e	0.017871913
79	0x3e26d6ea	0.1629292
80	0xbd0ff0b9	-0.03514168
81	0x3dd1d405	0.10245518
82	0x3eacf0b4	0.33777392
83	0xbe3a1561	-0.18172218
84	0x3db80a80	0.08986378
85	0x3c93fbcc	0.018064402
86	0xbe1321d6	-0.14368376
87	0xbe1e5931	-0.15463711
88	0xbe08567a	-0.13314238
89	0x3e06d6e1	0.13167907
90	0xbe65d316	-0.22443804
91	0xbd9ebf3c	-0.07751319
92	0x3ed5fdc6	0.41795176
93	0xbc8e2357	-0.017350836
94	0xbeda41a6	-0.4262821
95	0xbe303079	-0.17205991
96	0xbe0744e1	-0.13209869
97	0x3cc6c88c	0.02426555
98	0xbda0cd09	-0.07851607
99	0xbe81bffc	-0.25341785
100	0xbe33a05f	-0.17541645
101	0xbe0718c5	-0.13193043
102	0xbcdc9d05	-0.026930341
103	0xbe026e75	-0.12737449
104	0xbdaccfe5	-0.0843809
105	0xbd954a5a	-0.07289572
106	0xbeab8adc	-0.3350438
107	0x3c5ff9c6	0.0136703905
108	0x3e179703	0.148037
109	0x3e2a0b2f	0.16605829
110	0x3e4625e5	0.19350393
111	0xbd6c9441	-0.057758573
112	0x3e18571e	0.14876983
113	0x3dedb6cf	0.116071336
114	0x3aea69b8	0.001788429
115	0xbcb2c8b5	-0.02182422
116	0x3d095a42	0.033533342
117	0x3e6d85f9	0.23195638
118	0xbe35924f	-0.17731594
119	0xbd4815ae	-0.0488488
120	0x3e501921	0.20322086
121	0x3dfdc5ea	0.12391265
122	0x3d7cfba1	0.06176341
123	0xbe062730	-0.13100886
124	0xbe6bd071	-0.23028733
125	0xbe86a7d4	-0.26299918
126	0xbc493552	-0.012280779
127	0x3c425873	0.011861908
128	0x3b9a8eae	0.004716716
129	0xbd60a152	-0.054841347
130	0xbe3106cb	-0.17287748
131	0x3cb90d0e	0.022589233
132	0x3e929b1a	0.28633958
133	0xbd77541b	-0.060382944
134	0xbddbfc48	-0.10741478
135	0xbe2077d0	-0.15670705
136	0x3c46c969	0.012132981
137	0x3e711f10	0.23547006
138	0xbd935323	-0.071935914
139	0x3e19dfb6	0.15026745
140	0xbe0f7faf	-0.14013551
141	0x3db0b79a	0.08628769
142	0x3f3cf1d5	0.73806506
143	0xbdbf2978	-0.093340814
144	0x3e33eaa4	0.17569977
145	0x3e14e12a	0.14539018
146	0xbe8f916e	-0.28040642
147	0x3d995281	0.074864395
148	0x3bafda2b	0.005366584
149	0xbe1506a6	-0.14553317
150	0xbec3a85c	-0.38214386
151	0xbe98c5a0	-0.29838276
152	0x3e7069af	0.23477815
153	0x3d02ab5f	0.031901713
154	0x3e7b9c98	0.24571455
155	0xbe0424ed	-0.12904711
156	0xbf2d87d6	-0.67785394
157	0x3ec19ee5	0.3781654
158	0xbe0fedac	-0.14055508
159	0x3eae5eb7	0.34056637
160	0x3e950e1d	0.2911233
161	0xbddde28c	-0.10834226
162	0x3ec596ab	0.38591513
163	0x3e84b14a	0.2591651
164	0xba172bbb	-0.0005766709
165	0x3e81c720	0.25347233
166	0xbd29d87f	-0.041466232
167	0x3d877f40	0.06616068
168	0x3e646662	0.22304681
169	0x3e7a97c8	0.24471962
170	0x3de34bdd	0.11098454
171	0x3e7f889b	0.24954455
172	0x3e141077	0.14459406
173	0x3d38f7ca	0.045158185
174	0x3ed7c972	0.42145878
175	0xbe984488	-0.29739785
176	0xbd9088d5	-0.07057349
177	0x3e19636e	0.14979336
178	0xbe134e5b	-0.14385359
179	0xbe870346	-0.26369685
180	0xbdb9c16d	-0.09070096
181	0xbe5d0b54	-0.21586353
182	0x3ee576c4	0.44817173
183	0x3f2e7d23	0.68159693
184	0xbc22cb01	-0.009936095
185	0x3cea8076	0.028625708
186	0xbe8d77c3	-0.27630433
187	0x3f004fc8	0.50121737
188	0xbe66c91a	-0.22537652
189	0x3e2066cc	0.15664214
190	0xbb363622	-0.0027803262
191	0x3f1d0d30	0.6134825
192	0x3ec10433	0.37698516
193	0xbc101c72	-0.008795844
194	0x3e1f532f	0.15559076
195	0x3c23a455	0.00998791
196	0xbe614e8e	-0.22002622
197	0x3d0d4dc1	0.03449798
198	0xbcd5a870	-0.026081294
199	0xbe360c65	-0.17778166
200	0xbe81d10a	-0.25354797
201	0xbed3d30a	-0.41371948
202	0xbee7aaf3	-0.4524761
203	0xbe25750a	-0.16157928
204	0xbf722f17	-0.94603103
205	0x3e328669	0.17434086
206	0xbf5992a3	-0.84989375
207	0xbcdf36a8	-0.027247742
208	0x3f106172	0.5639869
209	0x3e2f418b	0.17114846
210	0xbd5e80eb	-0.054322165
211	0xbd217a4f	-0.039423283
212	0x3de8f7d3	0.11375394
213	0xbe0d9df4	-0.13829786
214	0xbec93eb2	-0.39305645
215	0x3d9e7e16	0.07738893
216	0xbf1b70b7	-0.60718864
217	0x3e8e0848	0.27740693
218	0xbe8e53d5	-0.27798334
219	0x3d51e5cf	0.051244553
220	0x3f0c6756	0.5484518
221	0xbea77eb9	-0.3271387
222	0xbf10e104	-0.56593347
223	0xbcce4865	-0.025181005
224	0xbf271b24	-0.6527579
225	0xbf66cf5a	-0.90160143
226	0xbec39940	-0.38202858
227	0x3e0b54b7	0.13606535
228	0xbeb4c1f5	-0.35304227
229	0xbe103458	-0.14082468
230	0xbe0e2e72	-0.13884905
231	0xbe13f8f0	-0.14450431
232	0x3f6a68dd	0.9156626
233	0xbf271e53	-0.65280646
234	0x3e9fe7ed	0.31231633
235	0xbe976f25	-0.29576984
236	0xbe01c1a1	-0.1267152
237	0x3cae5022	0.021278445
238	0xbd059037	-0.032608237
239	0x3f3298b1	0.6976424
240	0x3df3f55e	0.119120345
241	0xbf4d3b75	-0.8016885
242	0xbe1ed009	-0.15509047
243	0x3bfc2980	0.007695377
244	0xbdb7f04e	-0.08981381
245	0xbd0147d1	-0.03156263
246	0x3ec1d4f3	0.3785778
247	0xbe21be83	-0.1579533
248	0xbe386cb7	-0.18010221
249	0xbe3925ea	-0.1808087
250	0xbe9d0676	-0.30668992
251	0xbe650ad4	-0.22367412
252	0xbe0bbeae	-0.13646957
253	0xbeb4e7db	-0.35333142
254	0xbe93a07d	-0.2883338
255	0xbcf8edc7	-0.030386819

lstm.bias_ih_l1 f4 [200]
0	0xbf07a08b	-0.52979344
1	0xbedaec1a	-0.42758256
2	0xbf0a304c	-0.53979945
3	0xbf406bc5	-0.75164443
4	0xbd643505	-0.055714626
5	0xbf0a235a	-0.5396019
6	0xbe789b8a	-0.24278083
7	0xbe53b182	-0.20673183
8	0xbf0d055c	-0.550863
9	0xbf20639b	-0.62651986
10	0xbe225f34	-0.1585663
11	0xbeff26a7	-0.49834177
12	0xbf228ed9	-0.6349922
13	0xbf140b20	-0.57829475
14	0xbf0fc457	-0.56158966
15	0xbc9669ca	-0.018360991
16	0xbe8049d0	-0.25056314
17	0xbf2da997	-0.678369
18	0xbebfac1d	-0.37436
19	0xbe02ccad	-0.1277339
20	0xbeab487c	-0.3345374
21	0xbebe96c4	-0.372244
22	0xbeb65686	-0.35612887
23	0xbe77de7f	-0.2420597
24	0xbb80d77d	-0.003931938
25	0xbf2dc21a	-0.678743
26	0xbf0a65cb	-0.54061574
27	0xbe49db8d	-0.19712658
28	0xbeac8460	-0.33694744
29	0xbf28e05f	-0.65967363
30	0xbef0633f	-0.4695072
31	0xbf3494bb	-0.70539445
32	0x3dbd0331	0.09229124
33	0xbef82415	-0.48465028
34	0xbf0f21c1	-0.5591088
35	0xbefd00d1	-0.49414685
36	0xbe28565b	-0.16439192
37	0xbe64a38c	-0.22328013
38	0xbf12cb41	-0.5734139
39	0xbf56283a	-0.8365513
40	0xbf3e3cf8	-0.7431178
41	0xbee2a24a	-0.44264442
42	0xbf4068a5	-0.75159675
43	0xbead8f89	-0.3389857
44	0xbf51a041	-0.81885153
45	0xbe20a955	-0.15689595
46	0xbf37b454	-0.71759534
47	0xbf068dee	-0.5256032
48	0xbead9899	-0.33905485
49	0xbe863f55	-0.26220194
50	0xbed2f2ff	-0.41201016
51	0xbf0433ba	-0.5164143
52	0xbf451366	-0.76982725
53	0xbe8fcc9c	-0.28085792
54	0xbf823a17	-1.0173978
55	0x3d9f0514	0.077646405
56	0x3f32ba8b	0.6981589
57	0xbee81952	-0.45331818
58	0xbf378dd9	-0.7170082
59	0xbedacd57	-0.42734787
60	0xbf26c054	-0.6513722
61	0x3e3b00ad	0.18261977
62	0xbef95209	-0.486954
63	0xbf1b11b2	-0.60573876
64	0xbea64e33	-0.32481536
65	0xbf4d719a	-0.8025147
66	0xbf6e30eb	-0.9304339
67	0x3c369d67	0.011145926
68	0xbe27f739	-0.16402902
69	0xbeb31d6c	-0.34983385
70	0xbf1ab366	-0.6042999
71	0xbf8915a4	-1.0709729
72	0xbf1596cc	-0.5843322
73	0xbe6ac3c1	-0.22926237
74	0xbef7d265	-0.48402706
75	0x3e151ccd	0.14561768
76	0xbf22dd28	-0.6361871
77	0xbec94794	-0.39312422
78	0xbf217476	-0.6306833
79	0xbe7abd65	-0.24486311
80	0xbf014319	-0.5049301
81	0xbead22a5	-0.33815494
82	0x3f0fb654	0.56137586
83	0xbf65cd6a	-0.8976656
84	0xbeb654f0	-0.35611677
85	0xbed782d0	-0.4209199
86	0xbe8f73ca	-0.28018028
87	0xbf01e469	-0.5073915
88	0xbf0ace23	-0.5422079
89	0xbf40d06c	-0.75318027
90	0xbf57c669	-0.84287125
91	0xbf1b4c48	-0.6066327
92	0x3ebc707b	0.36804566
93	0xbf016880	-0.5055008
94	0xbf1e645e	-0.618719
95	0xbed39733	-0.41326293
96	0xbf767fe5	-0.962889
97	0xbf36bd80	-0.71382904
98	0xbed868de	-0.42267507
99	0xbe65a638	-0.22426689
100	0x3dbe5503	0.092935584
101	0x3e0d5874	0.13803273
102	0x3d71047a	0.05884216
103	0xbd989904	-0.074510604
104	0x3ca165f9	0.019701945
105	0xbe4d91f7	-0.20075212
106	0x3da72c58	0.08162755
107	0xbcb686ae	-0.022281017
108	0x3e525399	0.20539702
109	0xbbc17a94	-0.005904505
110	0xbd8d0425	-0.06885556
111	0x3d36373f	0.04448628
112	0x3d05a421	0.03262723
113	0xbe274b39	-0.16337289
114	0xbd909689	-0.07059962
115	0xbd2daab3	-0.04239912
116	0x3c9ff8ac	0.019527756
117	0x3d6d1677	0.057882752
118	0x3d8c56af	0.06852471
119	0xbd2baf84	-0.04191543
120	0x3d8d5ebd	0.069028355
121	0xbd84a18c	-0.06476125
122	0xbd871c35	-0.06597177
123	0x3df9f4f8	0.12204927
124	0xbc8de145	-0.017319331
125	0xbdb1c76b	-0.08680614
126	0xbd7ec6a2	-0.06220115
127	0xbd348413	-0.04407127
128	0xbd6771b1	-0.05650491
129	0xbd562381	-0.052279953
130	0x3e71e060	0.23620749
131	0x3d21f488	0.039539844
132	0xbe49bdb5	-0.19701274
133	0xbd788420	-0.06067288
134	0xbdd7b135	-0.105318464
135	0xbde9c9b1	-0.11415423
136	0x3e02d43b	0.12776272
137	0xbc4eea85	-0.012629156
138	0x3e38eef5	0.18059905
139	0xbe2c5dc0	-0.16832638
140	0x3e70f22b	0.2352988
141	0xbd05db53	-0.032679867
142	0x3e0edcf5	0.13951476
143	0x3de41547	0.11136871
144	0x3c81d989	0.0158508
145	0x3d9d00f2	0.07666196
146	0x3df6e5fd	0.120555855
147	0x3c044b56	0.008074602
148	0xbc81740e	-0.01580241
149	0xbd570f55	-0.052504856
150	0xbf082182	-0.5317613
151	0xbecc7db4	-0.39939654
152	0xbef1f198	-0.47254634
153	0xbf59d72e	-0.85093963
154	0xbe3492c6	-0.17634115
155	0xbf0cb533	-0.5496399
156	0x3d87c857	0.06630009
157	0xbe70d50b	-0.2351877
158	0xbf05eba7	-0.523127
159	0xbf3e2c8f	-0.7428674
160	0xbe96213e	-0.29322237
161	0xbf21476d	-0.6299961
162	0xbf071c07	-0.5277714
163	0xbf1d8a68	-0.61539316
164	0xbeec6834	-0.4617325
165	0xbe1d0877	-0.1533526
166	0xbe10c684	-0.14138228
167	0xbf0d83da	-0.55279315
168	0xbef5550b	-0.47916445
169	0xbe8a0be2	-0.2696219
170	0xbf07e9a4	-0.5309088
171	0xbe37a94a	-0.17935672
172	0xbe1dcbeb	-0.1540982
173	0xbe7dfcbf	-0.24803446
174	0xbe394993	-0.18094473
175	0xbf512bb4	-0.8170731
176	0xbec2720e	-0.37977642
177	0xbe7b7cdd	-0.2455935
178	0xbed56cd9	-0.41684607
179	0xbf1aa478	-0.6040721
180	0xbf14c772	-0.5811683
181	0xbf0ba056	-0.5454153
182	0xbbf3bac8	-0.0074380375
183	0xbf25bcca	-0.64741194
184	0xbef8bd03	-0.48581704
185	0xbe8bf9f3	-0.27339134
186	0xbe811954	-0.25214636
187	0xbea4f438	-0.32217574
188	0xbf0e0424	-0.5547507
189	0xbf4fe6dc	-0.8121164
190	0xbf34e9e6	-0.706694
191	0xbea93f77	-0.33056232
192	0xbe23255f	-0.15932225
193	0xbed280af	-0.41113803
194	0xbf3d9de3	-0.7406904
195	0xbe707598	-0.23482358
196	0xbf170bb8	-0.59002256
197	0xbf2e0e39	-0.6799045
198	0xbeb5fb72	-0.355434
199	0xbe3355c0	-0.1751318

lstm.bias_hh_l1 f4 [200]
0	0xbe8de8d6	-0.27716702
1	0xbf09ccd5	-0.53828174
2	0xbeeebe73	-0.46629676
3	0xbf5d4032	-0.8642608
4	0x3bfd8479	0.0077367392
5	0xbf11608e	-0.56787956
6	0xbe695230	-0.22785258
7	0xbea48f8e	-0.32140774
8	0xbf107828	-0.56433344
9	0xbf56a834	-0.8385041
10	0xbe5cafdf	-0.21551464
11	0xbf29dbcc	-0.6635101
12	0xbf158888	-0.58411455
13	0xbf2baa60	-0.67056847
14	0xbf0a401e	-0.54004085
15	0xbe209968	-0.1568352
16	0x3bba064a	0.0056770192
17	0xbf071979	-0.52773243
18	0xbec6278e	-0.38702053
19	0xbdb8b272	-0.09018411
20	0xbee60c46	-0.4493124
21	0xbeb5e65c	-0.35527313
22	0xbebdaa7a	-0.37044126
23	0xbe7de18f	-0.24793075
24	0xbe165a58	-0.14682901
25	0xbf5328d2	-0.8248416
26	0xbece00af	-0.40234897
27	0xbeb2f5e1	-0.34953216
28	0xbeb050ea	-0.34436733
29	0xbf0d8e64	-0.55295396
30	0xbed5e8f4	-0.41779292
31	0xbf215855	-0.6302541
32	0xbd782a43	-0.06058718
33	0xbf0f8473	-0.56061476
34	0xbeeae764	-0.45879662
35	0xbecfe007	-0.40600607
36	0xbe352d91	-0.17693163
37	0xbe9f67a6	-0.31133765
38	0xbf149fa9	-0.5805612
39	0xbf7434b0	-0.95392895
40	0xbf3ba730	-0.7330198
41	0xbe98bf6a	-0.29833537
42	0xbf187178	-0.5954814
43	0xbe7f71c0	-0.24945736
44	0xbf61cda7	-0.88204426
45	0xbe520eab	-0.20513408
46	0xbf21c727	-0.6319451
47	0xbf2b0e62	-0.6681882
48	0xbe955938	-0.2916963
49	0xbe843a8b	-0.25825915
50	0xbf04adc1	-0.5182763
51	0xbf0a6737	-0.54063743
52	0xbf1fa350	-0.6235857
53	0xbd78fec2	-0.06078983
54	0xbf86c1b3	-1.0527862
55	0x3e6a9f18	0.22912252
56	0x3f35a398	0.7095275
57	0xbeb13499	-0.3461044
58	0xbf58ccf3	-0.8468773
59	0xbebcbc2c	-0.36862314
60	0xbf259d78	-0.64693403
61	0x3e87b7d1	0.26507428
62	0xbf0b57e3	-0.5443098
63	0xbf1b7773	-0.6072914
64	0xbeb51d46	-0.35373896
65	0xbf2e7ff0	-0.6816397
66	0xbf601831	-0.87536913
67	0x3d2cfa93	0.042231154
68	0xbeb601ad	-0.35548154
69	0xbee1e800	-0.44122314
70	0xbf3dc749	-0.7413221
71	0xbf6ef4f2	-0.93342507
72	0xbf1c05fa	-0.6094662
73	0xbe793c08	-0.24339306
74	0xbee7890e	-0.45221752
75	0x3e0cc5c3	0.13747315
76	0xbf4f3c2f	-0.8095121
77	0xbf071807	-0.5277104
78	0xbef39663	-0.47575673
79	0xbca277aa	-0.01983245
80	0xbf03334e	-0.5125016
81	0xbe53c535	-0.20680697
82	0x3f1cf002	0.6130372
83	0xbf4a0a35	-0.78921825
84	0xbef7dad4	-0.4840914
85	0xbf201a87	-0.6254048
86	0xbe859479	-0.26089838
87	0xbec2f00a	-0.3807376
88	0xbf0e86bf	-0.55674356
89	0xbf4df42c	-0.804507
90	0xbf70b430	-0.94024944
91	0xbed4ad81	-0.41538623
92	0x3f0d302c	0.5515163
93	0xbeca5808	-0.39520288
94	0xbf3cf778	-0.7381511
95	0xbf127460	-0.57208824
96	0xbf45e488	-0.77301836
97	0xbf23d723	-0.6400015
98	0xbee64cb2	-0.4498039
99	0xbea5186e	-0.322452
100	0x3e01a82c	0.12661809
101	0xbd2cc4cf	-0.04217988
102	0xbdcc9d0b	-0.09990891
103	0xbe125a11	-0.1429217
104	0xbd9a5464	-0.075356275
105	0xbdf51b5d	-0.1196811
106	0x3ce3be88	0.027800813
107	0x3d68d8b3	0.056847285
108	0xbd2c69a6	-0.04209294
109	0x3df9988c	0.12187299
110	0x3e0f6369	0.14002766
111	0x3e63313f	0.22186755
112	0xbe18fc40	-0.14939976
113	0x3cd4aecd	0.025962258
114	0xbdd8308e	-0.10556136
115	0x3b6ed8cc	0.003644514
116	0x3d5a6c63	0.053326022
117	0x3dbff526	0.0937293
118	0x3d9ffa89	0.07811458
119	0xbcd97e81	-0.02654958
120	0xba6033a1	-0.0008552615
121	0xbd002372	-0.031283803
122	0xbd743720	-0.059622884
123	0xbdf555e4	-0.11979273
124	0xbc9703b5	-0.018434385
125	0xbd9eb420	-0.077492
126	0xbddf4100	-0.1090107
127	0xbdc7db21	-0.097585924
128	0xbd86daea	-0.06584723
129	0x3d95d4e3	0.073159955
130	0x3e1cc53d	0.15309615
131	0xbd6017d9	-0.054710243
132	0xbe1c0f3c	-0.15240186
133	0x3db7590a	0.0895253
134	0xbe41ea76	-0.18937096
135	0x3dd6910f	0.104768865
136	0xbda9d9ea	-0.08293517
137	0xbda41ac9	-0.08012921
138	0x3dbbb1b4	0.091647536
139	0x3d1d1575	0.03835054
140	0x3e31b088	0.17352498
141	0xbcdc3820	-0.026882231
142	0x3ec2a850	0.38019037
143	0xbdb18bbe	-0.08669232
144	0xbe1a7f73	-0.1508768
145	0xbdf96de3	-0.12179162
146	0xbbdaa14a	-0.006672059
147	0xbda1126f	-0.07864844
148	0x3e579d8f	0.21056198
149	0x3e2f9056	0.17144904
150	0xbeb3a03c	-0.35083187
151	0xbf166d5a	-0.5876061
152	0xbf0f4367	-0.5596222
153	0xbf2ec3e6	-0.6826767
154	0xbe8de066	-0.27710265
155	0xbeed9502	-0.46402746
156	0x3e515192	0.20441273
157	0xbed5f0a6	-0.41785163
158	0xbf42b090	-0.76050663
159	0xbf1d992e	-0.6156186
160	0xbe4eb49e	-0.20186087
161	0xbf217fed	-0.63085824
162	0xbf3970ec	-0.7243793
163	0xbf36aa82	-0.71353924
164	0xbf0f9090	-0.5607996
165	0xbe305bcd	-0.17222519
166	0xbe577509	-0.21040739
167	0xbf2de51c	-0.6792772
168	0xbf18fa7b	-0.597572
169	0xbe1f5d68	-0.15562975
170	0xbec2744d	-0.37979355
171	0xbe71a098	-0.23596418
172	0xbebd7b15	-0.37007967
173	0xbe7f55cc	-0.24935073
174	0xbe7207db	-0.23635809
175	0xbf3259af	-0.69668096
176	0xbebc4fd6	-0.3677966
177	0xbe8ed640	-0.27897835
178	0xbeab8b78	-0.33504844
179	0xbf20f7da	-0.6287819
180	0xbee1617c	-0.44019687
181	0xbef50939	-0.478586
182	0xbd707026	-0.058700703
183	0xbf0a7eda	-0.5409981
184	0xbee04888	-0.43805337
185	0xbe9ff628	-0.3124249
186	0xbedd9dfd	-0.43284598
187	0xbee5120e	-0.44740337
188	0xbf1fc701	-0.6241303
189	0xbf69f7de	-0.9139384
190	0xbf1da469	-0.61578995
191	0xbf102e30	-0.56320477
192	0xbde7b925	-0.113146104
193	0xbee00585	-0.4375421
194	0xbf599161	-0.84987456
195	0xbe9083fe	-0.28225702
196	0xbf4e4810	-0.8057871
197	0xbf09c2b2	-0.53812706
198	0xbee7c62d	-0.45268384
199	0xbe1a5407	-0.15071116
