models/lstm/generation/saved_model/generation_lstm_house_4.pth (torch, 293312 bytes, 17 tensors)

lstm.weight_ih_l0 f4 [200, 1]
0	0x3f07cb45	0.5304454
1	0x3e5d24ad	0.21596022
2	0xbed762bb	-0.42067513
3	0xbe9e6ad0	-0.30940866
4	0xbc21cbfc	-0.009875294
5	0x3e319cf0	0.17345023
6	0x3d6b55a4	0.05745472
7	0xbda5f7e6	-0.081039235
8	0x3e492b10	0.19645333
9	0xc044376b	-3.0658824
10	0x3ea768c5	0.3269712
11	0x3de28356	0.110602066
12	0xbea93997	-0.3305175
13	0x3ed17788	0.40911508
14	0xbd3c0067	-0.04589882
15	0xbe7ff03e	-0.24993989
16	0xbe8d5592	-0.27604347
17	0xbecc9c95	-0.39963213
18	0x3e67bc8f	0.22630523
19	0x3e771b8c	0.24131602
20	0x3d928b56	0.071554825
21	0x3e1cd937	0.15317236
22	0xbdd5229f	-0.10406994
23	0xbdaa11ed	-0.083042
24	0x3eea7544	0.45792592
25	0xbea6a16d	-0.32545033
26	0xbdff2653	-0.12458482
27	0x3f0f7739	0.56041294
28	0x3ec0cade	0.37654775
29	0x3df2cc5b	0.11855384
30	0x3e8e7e72	0.27830845
31	0xbe21922b	-0.15778415
32	0x3e54067d	0.207056
33	0x3e625427	0.22102414
34	0x3e8b9318	0.2726066
35	0x3e1d68bc	0.15371984
36	0xbeeafdea	-0.45896846
37	0xbf2c5bc6	-0.67327535
38	0x3e275880	0.16342354
39	0xbdb75a95	-0.08952824
40	0xbe5d293c	-0.21597761
41	0xbdf7d978	-0.12102026
42	0xbe1554f9	-0.14583196
43	0x3ec8692a	0.39142734
44	0x3e59594a	0.21225467
45	0xbe93486a	-0.28766185
46	0x3e7aae71	0.24480607
47	0x3e54f2ca	0.20795742
48	0xbe22b612	-0.15889767
49	0x3eb62818	0.35577464
50	0x3eb5391f	0.35395142
51	0x3eba7081	0.3641396
52	0xbebec89b	-0.37262425
53	0xbef205ca	-0.47270042
54	0x3e292be5	0.1652065
55	0x3f3be5b0	0.7339735
56	0x3e2c0c43	0.16801552
57	0xbec6debb	-0.38841805
58	0x3e2b0cf8	0.16704166
59	0xbf8a3448	-1.0797205
60	0x3dd9ecb1	0.106408484
61	0xb8522028	-5.009785e-05
62	0xbf3a114f	-0.7268266
63	0x3e08eb6b	0.13371055
64	0xbef7b642	-0.4838124
65	0xbe667f07	-0.22509395
66	0x3f311f44	0.6918833
67	0x3e786291	0.2425635
68	0x3d9cd4a0	0.076577425
69	0x3df21e17	0.118221454
70	0xbda2a83f	-0.07942247
71	0x3ca22983	0.019795185
72	0xbe911938	-0.28339553
73	0xbe949e2f	-0.29026935
74	0x3dc0c43c	0.09412429
75	0xbf42dc91	-0.7611781
76	0xbe8aad1c	-0.27085197
77	0x3e0eb763	0.13937144
78	0x3d188856	0.037239395
79	0x3b92c18c	0.004478639
80	0x3dbee833	0.09321632
81	0xbda878a2	-0.08226134
82	0xbcb3105f	-0.021858392
83	0x3bf1888f	0.0073710154
84	0xbdf52d41	-0.11971522
85	0x3d9b76ee	0.075910434
86	0xbe896f0a	-0.2684253
87	0xbf154e0a	-0.58322203
88	0xbda5faa7	-0.08104449
89	0xbbaedea3	-0.005336599
90	0x3f9d6da1	1.2299081
91	0x3db89eb3	0.090146445
92	0xbef08f15	-0.46984163
93	0x3df3cd7b	0.11904427
94	0xbd86c277	-0.0658006
95	0x3ef8e070	0.48608732
96	0x3dd98778	0.10621542
97	0x3d48f2e4	0.049059764
98	0xbec21d98	-0.37913203
99	0x3d5ca1f1	0.053865377
100	0xbf56c7d6	-0.83898675
101	0x3f8cb792	1.0993521
102	0xbf6a9a59	-0.91641766
103	0x3f6c755f	0.92366594
104	0xbed3e248	-0.41383576
105	0x3d8b4e38	0.068020284
106	0x3f28a527	0.65877
107	0xbf476f1b	-0.7790391
108	0x3f223d2f	0.6337461
109	0xbf72a9a2	-0.9479009
110	0x3f3aa383	0.7290575
111	0xbf7095b0	-0.93978405
112	0xbf362208	-0.7114568
113	0x3f4e4658	0.80576086
114	0xbf9d50f3	-1.2290329
115	0xbf13f965	-0.5780242
116	0xbf1b98fb	-0.60780305
117	0x3e670401	0.22560121
118	0x3f46fd79	0.7773052
119	0xbf4cb7dc	-0.7996805
120	0xbefdb6e5	-0.495536
121	0xbf89282c	-1.0715384
122	0x3f55f240	0.8357277
123	0xbf82cdc0	-1.021904
124	0x3f2d1fea	0.6762682
125	0xbf58ddf4	-0.84713674
126	0x3ec9143e	0.39273256
127	0xbf55675f	-0.83360857
128	0xbf8fef17	-1.124484
129	0x3f5f8ec7	0.87327236
130	0xbf643596	-0.89144266
131	0x3f0aa4bb	0.5415761
132	0xbf2d0b48	-0.6759534
133	0x3f206ec5	0.6266902
134	0xbf1d68f9	-0.614883
135	0x3f128bff	0.5724487
136	0xbeacd448	-0.33755708
137	0xbf0a71ae	-0.5407971
138	0x3f2a0c4c	0.66425014
139	0x3f7b6479	0.98200184
140	0xbea58908	-0.3233111
141	0xbea5dbf6	-0.3239438
142	0x3f198fbe	0.5998496
143	0x3f588ba7	0.8458809
144	0xbf63b1bd	-0.8894308
145	0xbcf84474	-0.030306078
146	0xbefe15df	-0.4962606
147	0xbf375f58	-0.7162986
148	0xbf55ac7e	-0.8346633
149	0x3f371ed4	0.71531415
150	0x3f19d922	0.60096943
151	0x3e7b3efc	0.24535745
152	0xbee2b790	-0.44280672
153	0xbe841b7e	-0.25802225
154	0xbd36feae	-0.044676475
155	0xbe93a453	-0.28836307
156	0x3e295fc7	0.16540442
157	0x3d716704	0.058936134
158	0x3ed22a08	0.41047692
159	0xc026e662	-2.6078115
160	0x3ed54654	0.4165522
161	0x3dcb8620	0.09937692
162	0xbf28fc96	-0.66010416
163	0x3f08b563	0.53401774
164	0x3e9680b5	0.2939507
165	0xbe2faeed	-0.17156573
166	0xbe474989	-0.19461645
167	0xbeffe567	-0.49979708
168	0x3ec58e7c	0.3858527
169	0x3e46e4c1	0.194232
170	0x3e00f7bb	0.12594502
171	0x3e3d52eb	0.18488662
172	0xbcfc890a	-0.030827064
173	0x3de44dc5	0.11147646
174	0x3f03ecfa	0.5153347
175	0xbe8b6f15	-0.27233186
176	0xbdf7b3dd	-0.12094853
177	0x3f1e4bf7	0.61834663
178	0x3ea620bb	0.32446846
179	0x3e064fe4	0.13116413
180	0x3ebdb6fd	0.3705367
181	0xbc03692e	-0.008020682
182	0x3e17ef5f	0.14837407
183	0x3e86e2ff	0.2634506
184	0x3f0122ae	0.5044354
185	0x3d6d340e	0.05791097
186	0xbea4829e	-0.32130903
187	0xbf4e24a8	-0.80524683
188	0x3eaa32d4	0.33241904
189	0xbcf99877	-0.030468209
190	0xbdb7dfe4	-0.089782506
191	0xbe28b646	-0.16475782
192	0xbe0cda02	-0.13755038
193	0x3eb54db7	0.35410854
194	0x3e81fcf5	0.25388303
195	0xbe5008ec	-0.20315903
196	0x3eae7806	0.34075946
197	0x3eb9ba2a	0.36274844
198	0xbddcc08a	-0.107789114
199	0x3edc7e8f	0.43065307

lstm.weight_hh_l0 f4 [200, 50]
0	0x3d784047	0.060608175
1	0xbe13af2a	-0.14422289
2	0xbcab3189	-0.020897644
3	0xbe1960d3	-0.14978342
4	0x3c5da5d2	0.013528304
5	0x3e415201	0.18878938
6	0x3da10e0b	0.078640066
7	0x3e824171	0.25440553
8	0xbdc63a9e	-0.09679149
9	0x3e35d0a1	0.17755367
10	0x3ddba459	0.10724706
11	0xbd7c97b4	-0.061668113
12	0x3beefd2b	0.0072933636
13	0xbd997667	-0.074932866
14	0x3e014922	0.12625554
15	0x3d10745b	0.035267215
16	0x3dea7f95	0.114501156
17	0xbdc5b400	-0.09653473
18	0xbd88fb3f	-0.066885464
19	0x3da87138	0.0822472
20	0xbdfec8c6	-0.12440638
21	0x3e3e4087	0.18579303
22	0x3e5a0d52	0.21294144
23	0xbe03a1b6	-0.12854657
24	0xbdd28452	-0.10279144
25	0x3dbc273c	0.09187171
26	0x3ddf8cfc	0.109155625
27	0xbdedef34	-0.1161789
28	0x3e3a1ae3	0.18174319
29	0xbe7b26a6	-0.24526462
30	0x3b116746	0.00221868
31	0x3e21bef3	0.15795498
32	0xbe4922b8	-0.1964215
33	0x3b5432a2	0.0032378812
34	0xbcc29bc3	-0.023755914
35	0xbd0f9230	-0.035051525
36	0x3d1564ca	0.036473073
37	0x3dc1f754	0.09471002
38	0x3daaade2	0.08333947
39	0xbd8bc5b2	-0.06824817
40	0xbde192c9	-0.11014325
41	0xbdaf6f19	-0.08566112
42	0x3dd5940c	0.10428628
43	0x3da37fa3	0.07983329
44	0x3cf78835	0.030216316
45	0x3cfe8581	0.031069519
46	0xbd08c3f7	-0.03339001
47	0xbd8ec7de	-0.069717154
48	0x3e091acc	0.13389128
49	0x3c6708fd	0.014101264
50	0x3d1fc8b5	0.03900977
51	0xbe221e32	-0.15831831
52	0x3dd6d9bc	0.10490748
53	0xbed84d49	-0.42246464
54	0xbe4d8a26	-0.2007223
55	0xbe4a48bf	-0.19754313
56	0xbd8d4599	-0.0689804
57	0x3e97d108	0.29651666
58	0xbe3d9b9e	-0.18516394
59	0x3ee9cc05	0.45663467
60	0xbe3acb69	-0.18241657
61	0x3d1cc0c8	0.038269788
62	0x3e4061fc	0.18787378
63	0xbdd3eda4	-0.10348061
64	0x3ec8fdc1	0.392561
65	0x3d1efb6e	0.038814
66	0x3e7a75f0	0.24459052
67	0x3e8d59e9	0.27607659
68	0xbe243914	-0.16037399
69	0xbd578cad	-0.052624393
70	0xbe9ae2b6	-0.30251092
71	0x3e9ff618	0.31242442
72	0xbe1dfa3c	-0.15427488
73	0x3e2644e7	0.16237222
74	0xbc7fa7f5	-0.015604009
75	0x3e67ff85	0.22656067
76	0xbd9f5aea	-0.07781012
77	0xbdc7d457	-0.097572975
78	0x3ea50734	0.32232058
79	0xbe5004e9	-0.20314373
80	0x3e307997	0.17233883
81	0xbd31b245	-0.0433829
82	0xbcc625b5	-0.024187902
83	0xbb914a6c	-0.0044339206
84	0x3d93e566	0.07221489
85	0x3d01dd2c	0.031705067
86	0x3e6e52cc	0.23273772
87	0x3d9985fe	0.0749626
88	0xbd04e536	-0.032445155
89	0xbd7e0b3c	-0.062022433
90	0x3e835e50	0.25657892
91	0xbca2cb32	-0.019872282
92	0xbe7092f6	-0.23493561
93	0xbc3634e3	-0.011121008
94	0x3c80d6ba	0.01572739
95	0x3d075bef	0.03304666
96	0x3d5b84f3	0.053593587
97	0xbcd5551a	-0.026041556
98	0x3e179114	0.14801437
99	0xbe12e3e6	-0.14344749
100	0xbdeca8bf	-0.11555623
101	0x3d03b164	0.032151595
102	0x3e7ee5af	0.24892305
103	0xbe843090	-0.258183
104	0x3dc72a31	0.09724844
105	0x3e85ead9	0.26155737
106	0xbe598ae8	-0.21244395
107	0x3e6c5ea1	0.23082973
108	0xbea75ecd	-0.32689515
109	0x3ede09e5	0.43366924
110	0xbea1b72a	-0.31585056
111	0x3e707924	0.23483711
112	0x3f007451	0.50177485
113	0xbcc7fadd	-0.024411613
114	0x3d906594	0.070506245
115	0x3e6543dc	0.22389168
116	0x3dec0f3e	0.11526345
117	0xbd8a0482	-0.06739141
118	0x3d63daa6	0.05562844
119	0x3eb45db1	0.3522773
120	0x3d10f50b	0.03538994
121	0x3ec0a98e	0.3762936
122	0xbf07c128	-0.5302911
123	0x3e8646ea	0.26225978
124	0xbd3f1f68	-0.04666081
125	0x3e985291	0.29750493
126	0xbeaf3ddc	-0.34226882
127	0xbdf4b2e3	-0.119481824
128	0x3ecc5e96	0.39915913
129	0xbf06478b	-0.52452916
130	0x3dd655ef	0.10465609
131	0xbe35dd35	-0.17760165
132	0x3e309e60	0.17247915
133	0xbdb3cf75	-0.08779804
134	0x3de88253	0.11352982
135	0xbe0444a3	-0.12916808
136	0x3d844532	0.064585105
137	0x3e7442bb	0.2385358
138	0xbe4b6d81	-0.19865991
139	0xbe36ebf5	-0.17863448
140	0xbceaba82	-0.028653387
141	0xbe8b9301	-0.27260593
142	0xbd28e83e	-0.04123711
143	0xbd08dce0	-0.033413768
144	0x3e1a8fe6	0.15093955
145	0x3d3a785b	0.045524936
146	0x3d6548cb	0.055977624
147	0xbd50faa9	-0.0510203
148	0x3e836345	0.25661674
149	0xbda2c7b8	-0.079482496
150	0x3e6ab43c	0.22920316
151	0xbe11cd36	-0.14238438
152	0x3d003e32	0.031309314
153	0x3d2bcdf3	0.041944455
154	0xbd5e71dc	-0.054307804
155	0xbd34caca	-0.044138707
156	0xbe10c68a	-0.14138237
157	0xbec2f5f5	-0.38078275
158	0xbe1d482e	-0.15359566
159	0xbde29eb4	-0.110654265
160	0xbe4cdff7	-0.20007311
161	0x3edc175b	0.4298657
162	0xbd9a6048	-0.075378954
163	0x3ce9ad0c	0.028524898
164	0xbda0bca6	-0.07848482
165	0xbdaa47e9	-0.08314497
166	0x3d875ab6	0.066090986
167	0x3e14646c	0.14491433
168	0x3db23092	0.0870067
169	0x3e737af7	0.23777376
170	0xbca64253	-0.020295298
171	0xbde40ae3	-0.11134889
172	0x3e04cf23	0.12969641
173	0xbf288c29	-0.6583887
174	0xbda90b9b	-0.08254167
175	0xbe48d692	-0.19613102
176	0x3e985028	0.29748654
177	0x3df0c206	0.11755757
178	0xbcacb648	-0.021083012
179	0xbe9f6a4b	-0.31135783
180	0x3e9b22d6	0.30300015
181	0xbe18addf	-0.14910077
182	0x3d9b8945	0.075945415
183	0x3df46d74	0.11934939
184	0x3ccd736f	0.025079457
185	0xbd475359	-0.04866347
186	0x3cb1798b	0.021664402
187	0xbd8af48c	-0.06784925
188	0xbdecb5ac	-0.11558089
189	0x3e0250e0	0.12726164
190	0x3e9d0ee2	0.30675417
191	0x3d4fdce5	0.05074777
192	0xbe1d094f	-0.15335582
193	0xbba49dac	-0.0050236788
194	0x3d5bce09	0.053663287
195	0x3e66bec5	0.2253371
196	0x3d0eaf8d	0.034835387
197	0xbd24ca9e	-0.040232293
198	0xbe449336	-0.19196782
199	0xbcf243ef	-0.029573409
200	0x3e0eee2c	0.13958043
201	0xbe055595	-0.13020928
202	0x3d14c126	0.036317013
203	0x3df6ab4c	0.12044391
204	0x3d5585fd	0.052129734
205	0xbe29439b	-0.16529696
206	0x3d2dc880	0.04242754
207	0xbe2bbe1d	-0.16771741
208	0x3dbfd560	0.0936687
209	0xbe3d8c6e	-0.18510601
210	0xbe1cc161	-0.15308143
211	0x3d934b1d	0.07192061
212	0x3c295b7e	0.010336755
213	0xbdcf3a5f	-0.10118555
214	0xbe021669	-0.12703861
215	0xbe067709	-0.13131346
216	0x3d997c13	0.074943684
217	0x3e12f4b7	0.14351164
218	0xbdc6efa0	-0.097136736
219	0x3db94c19	0.090477176
220	0x3da6509a	0.08120842
221	0x3e4fdc5e	0.20298907
222	0x3d54f29e	0.05198919
223	0xbcd9bba7	-0.026578737
224	0xbe529ae9	-0.20566906
225	0xbdf15015	-0.117828526
226	0x3df1bce0	0.11803603
227	0x3e12bcca	0.1432983
228	0x3d91fbff	0.071281426
229	0xbd693672	-0.05693669
230	0xbc9bf469	-0.019037442
231	0x3e3e40e3	0.1857944
232	0xbd12cb94	-0.03583868
233	0xbce1120e	-0.02747443
234	0xbcd3dc27	-0.025861813
235	0x3dac63b2	0.08417453
236	0xbd4fd405	-0.050739307
237	0xbde3a81e	-0.1111605
238	0x3dede847	0.11616569
239	0xbdbac23a	-0.09119077
240	0x3e16d490	0.14729524
241	0x3e734b4e	0.23759195
242	0xbc32afa4	-0.010906134
243	0xbdf71ddd	-0.12066243
244	0x3d9d7515	0.07688347
245	0x3d488307	0.048953082
246	0xbced17ec	-0.02894207
247	0x3e4c1785	0.19930847
248	0xbe7993ec	-0.24372834
249	0xbd9095fa	-0.07059856
250	0xbe83d254	-0.25746405
251	0x3b8b8602	0.0042579183
252	0xbdcc513d	-0.099764325
253	0x3de4f594	0.11179653
254	0x3d64767d	0.05577706
255	0x3e630e7d	0.22173496

lstm.bias_ih_l0 f4 [200]
0	0xbd8a5e5c	-0.06756279
1	0x3e80deb9	0.25169924
2	0x3e861c0c	0.26193273
3	0xbe83000c	-0.25585973
4	0xbe783937	-0.24240576
5	0xbe8b2853	-0.27179202
6	0xbe46a280	-0.19397926
7	0xbe73f99a	-0.23825684
8	0xbe0d03f2	-0.13771036
9	0xbf321a74	-0.69571614
10	0xbe1a63f9	-0.15077199
11	0xbe479739	-0.1949128
12	0xbd8d501a	-0.06900044
13	0xbe9f0d9b	-0.31065068
14	0xbdb26fff	-0.08712768
15	0xbe9d90c9	-0.30774525
16	0xbedb1df7	-0.427963
17	0xbea20adf	-0.3164892
18	0xbe8e88f7	-0.2783887
19	0xbdd63d4f	-0.104609124
20	0xbe5c1203	-0.21491246
21	0x3e70b351	0.23505904
22	0xbeaa09ed	-0.33210698
23	0xbdaedfbd	-0.085387684
24	0xbe5aa626	-0.21352443
25	0xbeac940b	-0.33706698
26	0xbf0f9bfe	-0.560974
27	0xbe3e4856	-0.18582281
28	0x3e5d772b	0.2162749
29	0x3e6eb5cf	0.23311542
30	0xbe30a663	-0.17250971
31	0xbe99e3cb	-0.30056605
32	0xbe9cca52	-0.30623108
33	0xbeb0d334	-0.34536135
34	0x3ca83b05	0.020535955
35	0xbe6f0ca8	-0.23344672
36	0xbf3b43f5	-0.7315057
37	0xbe4e8ea9	-0.20171608
38	0x3ce27f14	0.027648486
39	0x3ec7e767	0.39043733
40	0xbe3de3e8	-0.1854397
41	0xbec87597	-0.39152214
42	0xbf31a30e	-0.69389427
43	0x3cfbfc5e	0.030759986
44	0xbe0a0110	-0.13476968
45	0xbee7e516	-0.45291966
46	0xbe869811	-0.26287892
47	0xbe6b3ad9	-0.22971667
48	0xbd994e80	-0.07485676
49	0x3cb07c0a	0.021543521
50	0xbf398931	-0.7247496
51	0xbf21f981	-0.6327134
52	0xbee75fd8	-0.4519031
53	0xbf043642	-0.5164529
54	0xbe5bd083	-0.2146626
55	0x3ee1f240	0.44130135
56	0xbf1ca5a9	-0.6119028
57	0xbf1d4ab9	-0.6144214
58	0xbe4fdc05	-0.20298775
59	0x3e92ec37	0.28695843
60	0xbf2712e7	-0.6526322
61	0xbf531adb	-0.82462853
62	0xbcb3cbe4	-0.021947809
63	0xbe73954c	-0.23787421
64	0xbf1e4077	-0.61817116
65	0xbe4dbab4	-0.20090753
66	0x3e7f2498	0.24916303
67	0x3e8fe2d4	0.28102744
68	0x3cb852af	0.022500364
69	0xbf4be272	-0.79642403
70	0xbe998ed0	-0.2999177
71	0xbf3c2b80	-0.73503876
72	0xbf87eda5	-1.0619398
73	0xbf190102	-0.5976716
74	0xbf2072f7	-0.6267542
75	0xbe88db8a	-0.26729995
76	0xbe4fe10b	-0.20300691
77	0xbec47d4c	-0.38376844
78	0xbf6bf73b	-0.9217412
79	0xbf6574b5	-0.89631206
80	0xbf6ecbd1	-0.9327975
81	0x3d92bf08	0.071653426
82	0xbf08d8bd	-0.53455716
83	0xbee00c47	-0.43759367
84	0xbec05664	-0.3756591
85	0xbece1b42	-0.4025517
86	0xbeeeafe7	-0.46618578
87	0xbe14542f	-0.14485238
88	0xbedc7210	-0.43055773
89	0xbf71e3a7	-0.94487995
90	0x3f2f2a27	0.68423694
91	0x3e2b02e9	0.16700329
92	0xbf5a3905	-0.85243255
93	0xbef7239b	-0.48269352
94	0xbf1d698e	-0.6148919
95	0x3e28803d	0.16455169
96	0xbe4b06bc	-0.19826788
97	0xbe867f29	-0.2626889
98	0xbf44935b	-0.76787347
99	0xbe89f8d6	-0.2694766
100	0x3e19c398	0.1501602
101	0xbd857c0e	-0.06517802
102	0xbcad3106	-0.02114154
103	0xbe3a0758	-0.18166864
104	0x3cbcac57	0.023031397
105	0x3da69c54	0.08135286
106	0xbd3db22e	-0.046312504
107	0x3db4039b	0.0878975
108	0xbc6ed1e2	-0.014576407
109	0x3d1936cf	0.037405785
110	0xbdf33551	-0.11875404
111	0xba20c31c	-0.0006132589
112	0x3dccb21c	0.09994909
113	0xbd49fbcf	-0.04931241
114	0x3d86e140	0.06585932
115	0x3d822d3c	0.06356284
116	0xbdd35a38	-0.10319942
117	0xbe053613	-0.13008909
118	0xbd11e597	-0.035619345
119	0x3db3c025	0.08776883
120	0x3cda4ee9	0.026648955
121	0x3d876eec	0.066129535
122	0xbd859f29	-0.06524498
123	0x3e2d2edb	0.16912405
124	0xbe1538c0	-0.1457243
125	0x3d93db49	0.0721956
126	0xbd17a30c	-0.037020728
127	0x3d33bd28	0.043881565
128	0x3ddc64b7	0.10761397
129	0xbe4b9597	-0.19881283
130	0x3db4281d	0.087967135
131	0xbdeb66bc	-0.114942044
132	0x3d43e9e5	0.04783048
133	0xbde240b5	-0.11047498
134	0x3de6de21	0.112728365
135	0xbe1b0f43	-0.1514254
136	0x3d48e77f	0.049048897
137	0x3d7a93b3	0.061176013
138	0x3c75e5a0	0.01500836
139	0xbdcc25b3	-0.09968128
140	0xbd9a5df0	-0.075374484
141	0xbe074b01	-0.13212205
142	0xbdeac714	-0.114637524
143	0xbd8bf8db	-0.06834575
144	0x3da3c493	0.07996478
145	0x3cf358e3	0.02970547
146	0xbddafd12	-0.106928006
147	0xbcf60723	-0.0300327
148	0x3d9e6e83	0.07735922
149	0x3b1f430a	0.0024301433
150	0xbddcd751	-0.10783256
151	0x3e85f15d	0.26160708
152	0x3e6add43	0.22935967
153	0xbe14a3a6	-0.14515552
154	0xbeb04dda	-0.34434396
155	0xbe99638b	-0.29958758
156	0xbe2032d1	-0.15644385
157	0xbe58a8c6	-0.21158132
158	0x3d18aa0c	0.037271544
159	0xbed6c125	-0.41944233
160	0xbea187c6	-0.315489
161	0xbe88d28c	-0.26723135
162	0x3ca3855e	0.019961055
163	0xbe57d305	-0.21076591
164	0x3d0efb26	0.034907483
165	0xbe769953	-0.24081926
166	0xbe5dd3b5	-0.21662791
167	0xbeb038c1	-0.344183
168	0xbe9ccd11	-0.30625203
169	0xbbf4f108	-0.007475022
170	0xbe163fdb	-0.14672796
171	0x3e532bcc	0.20622176
172	0xbe89e9fa	-0.26936322
173	0x3d4dd1da	0.05024896
174	0xbe2cf458	-0.16890085
175	0xbe86578d	-0.2623867
176	0xbf026366	-0.5093292
177	0xbe3d45c6	-0.18483648
178	0x3e38472f	0.17995904
179	0x3e71f194	0.23627311
180	0xbdbd780f	-0.09251415
181	0xbe0073c4	-0.12544161
182	0xbea57be2	-0.32321078
183	0xbe6342e4	-0.22193485
184	0xbda08962	-0.07838704
185	0xbe8569e2	-0.26057345
186	0xbf1c12e2	-0.6096631
187	0xbe7e1132	-0.24811247
188	0x3e07ab12	0.13248852
189	0x3eb7085b	0.35748562
190	0xbe826e90	-0.25474977
191	0xbe9acf07	-0.30236074
192	0xbf32a6b1	-0.697856
193	0xbcce3de8	-0.025176004
194	0xbe21ae09	-0.15789045
195	0xbeec723d	-0.46180907
196	0xbe5c1cc3	-0.21495347
197	0xbe49b137	-0.19696508
198	0x3db2f811	0.08738721
199	0x3ce189a0	0.027531445

lstm.bias_hh_l0 f4 [200]
0	0xbea42654	-0.32060492
1	0x3ea779a6	0.32709998
2	0x3e42c05f	0.19018696
3	0xbe79aa93	-0.24381475
4	0xbe65ec77	-0.22453485
5	0xbec5bcfa	-0.3862074
6	0xbda85375	-0.08219043
7	0xbe8e8f76	-0.27843827
8	0xbd9bbddd	-0.07604573
9	0xbf40faed	-0.7538288
10	0xbead0634	-0.33793795
11	0xbe0dfb43	-0.1386538
12	0x3d05191f	0.03249466
13	0xbe93f6dc	-0.28899276
14	0x3d355f9f	0.044280645
15	0xbe01f58f	-0.1269133
16	0xbeb155be	-0.3463573
17	0xbea6d4de	-0.3258428
18	0xbedcdfbc	-0.43139446
19	0xbde280f8	-0.11059755
20	0xbe52c791	-0.20583941
21	0x3e8d951d	0.27652827
22	0xbe81d007	-0.25354025
23	0xbe41f5b0	-0.18941379
24	0xbe331937	-0.17490087
25	0xbdf1cb6a	-0.11806376
26	0xbedbcb49	-0.42928532
27	0xbe34f3b2	-0.17671087
28	0x3e343f1c	0.176022
29	0x3e7633bb	0.24043171
30	0xbdd01306	-0.101598784
31	0xbdbb16c0	-0.091351986
32	0xbe32df5e	-0.1746802
33	0xbebadc21	-0.3649607
34	0x3e2d2cf8	0.16911685
35	0xbec00f7c	-0.37511814
36	0xbf167aff	-0.5878143
37	0xbeb111db	-0.34583935
38	0xbd84bc20	-0.064811945
39	0x3e36757a	0.17818251
40	0xbdfe0d2d	-0.12404857
41	0xbecc775f	-0.39934823
42	0xbf48aab1	-0.78385454
43	0x3daa1cf8	0.083063066
44	0xbe286949	-0.16446413
45	0xbf0069a4	-0.50161195
46	0xbe85777f	-0.2606773
47	0xbef9e5af	-0.48808047
48	0x3dc0c6f4	0.09412947
49	0x3c068f12	0.008212822
50	0xbf13b54b	-0.57698506
51	0xbf3b89cc	-0.73257136
52	0xbf104a43	-0.56363314
53	0xbf0337af	-0.5125684
54	0xbe66ad94	-0.22527152
55	0x3f1006a7	0.5626015
56	0xbf0b2244	-0.5434916
57	0xbf30499f	-0.68862337
58	0xbe2f06d1	-0.17092444
59	0x3e18c8e6	0.14920387
60	0xbee6370b	-0.4496387
61	0xbf466acb	-0.77506703
62	0xbdd83a6b	-0.10558017
63	0xbe858f7b	-0.2608603
64	0xbf39ea02	-0.7262269
65	0x3d595100	0.053055763
66	0x3eb3640f	0.35037276
67	0x3e845d27	0.2585232
68	0xbcef2b8b	-0.029195568
69	0xbf0d4e25	-0.55197364
70	0xbebfe2a0	-0.3747759
71	0xbf49a6fb	-0.78770417
72	0xbf659ed9	-0.8969551
73	0xbf1ef0c3	-0.62086123
74	0xbf17d551	-0.5930987
75	0xbeb1bfc3	-0.34716615
76	0xbededd29	-0.43528107
77	0xbec1a2f4	-0.37819636
78	0xbf4148db	-0.75501794
79	0xbf3d248a	-0.7388388
80	0xbf529617	-0.8226027
81	0x3dd6bc39	0.104851194
82	0xbed6f28f	-0.41981933
83	0xbed060de	-0.40698904
84	0xbe483067	-0.19549714
85	0xbede8d33	-0.434671
86	0xbed6720f	-0.41883895
87	0xbe74d5af	-0.23909639
88	0xbe247c8b	-0.16063134
89	0xbf73d6d0	-0.9524965
90	0x3eee8cc6	0.46591777
91	0xbd0190c9	-0.03163222
92	0xbf4d8a86	-0.80289495
93	0xbedb8ef9	-0.42882517
94	0xbf2553fe	-0.64581287
95	0x3eb001f1	0.3437648
96	0xbe51c378	-0.20484722
97	0xbdc15c8c	-0.0944148
98	0xbf586059	-0.84522015
99	0xbea9cc39	-0.33163622
100	0x3dc68d79	0.096949525
101	0xbddfc666	-0.109265134
102	0x3e507a6c	0.203592
103	0x3cdfa3fc	0.027299874
104	0x3d92e3e4	0.07172373
105	0x3b550d76	0.0032509244
106	0xbe524655	-0.20534642
107	0xbb04566e	-0.0020193118
108	0xbde3d447	-0.11124473
109	0xbd6e7f3a	-0.0582268
110	0xbe1c0de7	-0.15239678
111	0x3dcdd8e0	0.10051131
112	0x3d0bfb39	0.03417513
113	0xbd8aaa1e	-0.067707285
114	0x3d4b64ef	0.049656805
115	0x3c15d96d	0.009146077
116	0xbd8af817	-0.06785601
117	0x3c5a1213	0.013309973
118	0x3d7fd89b	0.06246243
119	0x3dd6d7b7	0.10490363
120	0x3d5e7d07	0.054318454
121	0x3d9d52fc	0.07681844
122	0xbe49f8d6	-0.1972383
123	0x3d414964	0.04718913
124	0xbddebab7	-0.10875457
125	0x3da99ee8	0.08282262
126	0xbc6bba86	-0.014387732
127	0x3d965ad0	0.0734154
128	0x3dac3afd	0.084096886
129	0x3b8324f2	0.004002207
130	0x3df5d087	0.12002664
131	0xbb830891	-0.003998824
132	0x3e334994	0.17508537
133	0xbd9edc7f	-0.077569
134	0x3d12bc60	0.03582418
135	0xbd94d9e8	-0.07268125
136	0x3d223e48	0.039610177
137	0x3d5d294a	0.053994454
138	0xbd9d72a4	-0.076878816
139	0xbdf2fd8b	-0.11864766
140	0xbd4f16e8	-0.050558954
141	0x3df1e591	0.118113644
142	0xbe96c316	-0.29445714
143	0xbd4da845	-0.050209302
144	0x3c93564e	0.01798549
145	0xbe04bc65	-0.12962492
146	0x3e170441	0.14747716
147	0x3da6086b	0.08107074
148	0x3db2f592	0.08738245
149	0xbe13e993	-0.1444457
150	0xbeb985d0	-0.36234903
151	0x3e65fda3	0.22460036
152	0x3e124ee5	0.14287908
153	0xbe569053	-0.20953493
154	0xbe6a8952	-0.22903946
155	0xbea464ef	-0.32108256
156	0xbe28f90b	-0.16501252
157	0xbc3cde6f	-0.011527642
158	0xbd350711	-0.044196192
159	0xbed058f1	-0.40692857
160	0xbeb474d7	-0.35245392
161	0xbe6fea45	-0.2342921
162	0xbe5faefe	-0.21844098
163	0xbe2a5aad	-0.16636153
164	0x3d418173	0.047242593
165	0xbe65331c	-0.22382778
166	0xbe7a5ae7	-0.24448739
167	0xbe96a2cf	-0.29421088
168	0xbeb725c3	-0.35770997
169	0x3d9fd0df	0.07803511
170	0xbe2bc964	-0.16776043
171	0x3ead183b	0.3380755
172	0xbea112be	-0.31459612
173	0xbe625311	-0.22102
174	0xbea9b166	-0.33143157
175	0xbea0384c	-0.3129295
176	0xbef4960f	-0.47770736
177	0xbdbd86e5	-0.09254245
178	0x3e0d3a84	0.13791853
179	0x3ee220f3	0.44165763
180	0xbda0e92e	-0.078569755
181	0xbd2b3482	-0.041798122
182	0xbe25d81e	-0.16195723
183	0xbead7687	-0.33879492
184	0x3bd405d4	0.0064704213
185	0xbed665da	-0.41874582
186	0xbf24c072	-0.6435615
187	0xbe50ad91	-0.2037871
188	0x3c6292b7	0.013828925
189	0x3ebd5b65	0.3698379
190	0xbe266e16	-0.16252932
191	0xbeb2f7e6	-0.34954756
192	0xbf472d22	-0.7780324
193	0x3e49d9de	0.19712016
194	0xbe15893d	-0.14603133
195	0xbedaaefd	-0.4271163
196	0xbe5e4ae2	-0.21708253
197	0xbec6b14d	-0.38807145
198	0xbd5c7d0d	-0.053830195
199	0x3d4efa26	0.05053153

lstm.weight_ih_l1 f4 [200, 50]
0	0x3d854e78	0.06509107
1	0x3dd946c8	0.106092036
2	0xbc46ff40	-0.012145817
3	0x3e1db760	0.15401983
4	0xbe2c2a75	-0.16813071
5	0x3e7d814f	0.24756359
6	0xbd989f13	-0.07452216
7	0xbe3cb068	-0.18426669
8	0xbe239c77	-0.15977655
9	0x3e62c9ff	0.22147368
10	0x3e728378	0.23682964
11	0xbd878179	-0.06616492
12	0xbeacc4f8	-0.33744025
13	0x3e90e1a2	0.28297144
14	0xbde04a71	-0.109516986
15	0x3b7a39fc	0.0038181534
16	0xbeb4e99c	-0.3533448
17	0xbdc94d20	-0.098291636
18	0xbc319fa4	-0.010841284
19	0x3d014095	0.03155573
20	0x3e655c39	0.22398461
21	0xbdefb6a6	-0.11704759
22	0x3de2281b	0.11042806
23	0xbd643e58	-0.055723518
24	0x3ea06179	0.31324366
25	0xbee59bfd	-0.44845572
26	0xbe2e9b83	-0.1705151
27	0xbdaf6985	-0.08565048
28	0xbdd67cc1	-0.10473014
29	0x3e7ab0a1	0.24481441
30	0x3e0e3456	0.13887152
31	0xbd43273c	-0.04764484
32	0xbebe11fb	-0.37123093
33	0x3d854aa3	0.065083764
34	0xbe3cc854	-0.18435794
35	0x3e911249	0.28334263
36	0xbea24018	-0.31689525
37	0xbc9c4838	-0.019077405
38	0x3e4af5a4	0.19820267
39	0xbe633670	-0.22188735
40	0xbd47893b	-0.048714858
41	0xbdde837f	-0.10864925
42	0x3b924a55	0.0044644275
43	0x3e139661	0.14412834
44	0x3ca586cc	0.020205878
45	0xbe00e3bb	-0.12586872
46	0xbb3ce7a2	-0.0028824587
47	0xbe72a145	-0.23694332
48	0x3c7b01d4	0.01532026
49	0x3d9fc884	0.07801917
50	0xbed2a3d1	-0.41140607
51	0x3da11136	0.07864611
52	0x3e4ecda8	0.20195639
53	0xbe97926c	-0.296039
54	0x3ad0c5b3	0.001592806
55	0x3e613ca0	0.21995783
56	0xbc998d26	-0.018744063
57	0xbe1fe48b	-0.15614526
58	0x3dfeaac3	0.12434914
59	0x3d829845	0.06376699
60	0x3f073dca	0.5282866
61	0xbdaf5aa9	-0.08562214
62	0xbe5ba779	-0.21450604
63	0x3f0d2825	0.5513938
64	0xbe05a88d	-0.13052578
65	0xbecd0ecb	-0.4005035
66	0xbe2a1983	-0.16611294
67	0xbe6b969e	-0.23006675
68	0x3e7a792b	0.24460284
69	0xbea78488	-0.327183
70	0x3e14dbcc	0.14536971
71	0x3dc77b04	0.0974026
72	0xbe63164a	-0.22176471
73	0x3df92313	0.12164893
74	0x3eaa5817	0.33270332
75	0xbedf327d	-0.43593207
76	0xbcdca995	-0.026936332
77	0xbe8c30cf	-0.27380988
78	0xbdfdff0f	-0.12402164
79	0x3ef43139	0.47693804
80	0xbe145c15	-0.14488252
81	0x3de105d4	0.1098744
82	0xbe9963e0	-0.2995901
83	0x3e903883	0.28168115
84	0xbe982c9d	-0.29721537
85	0x3cd655a6	0.026163887
86	0xbd8ed307	-0.06973844
87	0x3d1e8d3b	0.038708907
88	0x3ed94a1b	0.4243935
89	0x3e20e846	0.15713605
90	0xbea1e651	-0.3162103
91	0xbea3a4b2	-0.3196159
92	0x3ec1d26b	0.3785585
93	0x3e3d232a	0.18470445
94	0xbde0f30c	-0.109838575
95	0xbe416e6b	-0.18889777
96	0xbe677931	-0.22604825
97	0xbef96f96	-0.48717946
98	0x3d16e30a	0.036837615
99	0x3e4d2b10	0.20035958
100	0xbd8fe01a	-0.07025166
101	0xbdc58097	-0.09643667
102	0xbd844ed5	-0.064603485
103	0xbe00a50f	-0.12562965
104	0x3e19bbd9	0.15013064
105	0xbd1686e2	-0.036749728
106	0xbef77ffb	-0.4833983
107	0xbc4a0d03	-0.012332204
108	0x3e3d0530	0.1845901
109	0xbc280a37	-0.010256342
110	0x3e316330	0.17322993
111	0x3d3b94bb	0.045796137
112	0xbec51208	-0.3849032
113	0x3df45f00	0.11932182
114	0x3c580a6d	0.013186079
115	0xbd497826	-0.049186848
116	0x3e02935e	0.12751529
117	0xbd7611eb	-0.06007568
118	0xbda8c4ce	-0.082406625
119	0xbde9cd92	-0.114161626
120	0x3e0c8d01	0.13725664
121	0x3d812f05	0.063077964
122	0xbd8ca1e1	-0.068668135
123	0xbe06d1b0	-0.13165927
124	0x3d7e07a4	0.062019005
125	0xbf05c566	-0.5225433
126	0xbc8240b5	-0.015899995
127	0x3e3c11f0	0.18366218
128	0xbd82418b	-0.063601576
129	0xbdb4ffdf	-0.08837866
130	0x3eac9ad1	0.33711866
131	0xbc90cd5f	-0.017676054
132	0xbdcf01d3	-0.1010777
133	0xbead0553	-0.33793125
134	0xbe126dd2	-0.14299706
135	0xbc06befa	-0.008224243
136	0xbe543d14	-0.20726424
137	0xbecc85d7	-0.39945862
138	0x3e93dba4	0.2887851
139	0xbe48b54a	-0.19600406
140	0x3e542eac	0.20720929
141	0xbdb7ed0b	-0.08980759
142	0xbe1fc0f6	-0.15600953
143	0xbe2463d6	-0.1605371
144	0x3e40ef39	0.18841256
145	0x3d476804	0.04868318
146	0x3ba66d35	0.0050789365
147	0xbdcf7e50	-0.10131514
148	0x3e458396	0.19288477
149	0xbd19087d	-0.03736161
150	0x3caffdd1	0.021483334
151	0x3dfbbf04	0.12292293
152	0x3e9e3ffc	0.3090819
153	0x3eb2dbe6	0.34933394
154	0x3e070387	0.1318494
155	0xbc8e713b	-0.017387977
156	0x3e5e516b	0.21710746
157	0xbf25771d	-0.6463488
158	0xbdaea6fb	-0.08527943
159	0xbe4c1676	-0.19930443
160	0x3ef55a56	0.47920483
161	0xbe9472c5	-0.28993812
162	0xbef2e8e2	-0.474433
163	0x3e5d4ae0	0.21610594
164	0x3da7f23f	0.08200502
165	0xbe379345	-0.17927273
166	0x3df28e22	0.11843516
167	0x3e3e8a79	0.1860751
168	0x3e002d1f	0.12517212
169	0xbd7bcfef	-0.061477598
170	0x3e072016	0.13195834
171	0x3e1b63da	0.15174809
172	0xbe535348	-0.20637238
173	0x3d732a60	0.059366584
174	0x3dfcfce6	0.12352924
175	0xbe9dd1f9	-0.3082426
176	0xbd084f4a	-0.03327874
177	0x3db28b11	0.08717931
178	0xbd06c356	-0.03290113
179	0x3ec457b9	0.38348177
180	0x3d57c65e	0.052679412
181	0x3e83ffe3	0.25781164
182	0xbe60a98e	-0.2193968
183	0x3dbe1eb7	0.09283202
184	0x3cc52f60	0.024070442
185	0xbeae4a48	-0.34041047
186	0xbda36644	-0.0797849
187	0xbe13c077	-0.14428888
188	0xbd3148ce	-0.043282323
189	0xbe8c8aa3	-0.2744952
190	0x3de9c674	0.11414805
191	0xbdf0cd13	-0.11757865
192	0x3f12d09c	0.5734956
193	0x3e3130ab	0.17303722
194	0x3da60d5c	0.08108017
195	0xbe343768	-0.17599261
196	0x3e20c933	0.15701751
197	0xbde50c1b	-0.111839496
198	0xbd2d357c	-0.042287335
199	0xbdb763f7	-0.08954614
200	0xbeb32f5a	-0.34997064
201	0x3ea6f989	0.32612255
202	0xbe0be61b	-0.13661997
203	0xbe935238	-0.28773665
204	0xbd8a412b	-0.06750711
205	0xbe280f7f	-0.16412161
206	0x3bc2d6af	0.0059460024
207	0xbec30db7	-0.380964
208	0x3e24f96a	0.16110769
209	0xbe472146	-0.19446287
210	0x3e8d2625	0.27568164
211	0x3d8d93e9	0.06912977
212	0xbe8d6d91	-0.27622655
213	0x3f0cda59	0.5502067
214	0xbe6a989b	-0.22909777
215	0xbe858178	-0.2607534
216	0xbcb87982	-0.022518877
217	0x3ec8b400	0.3919983
218	0x3df34491	0.118783124
219	0xbe5a3724	-0.21310097
220	0x3dbaf257	0.09128254
221	0x3dea69b9	0.11445946
222	0xbd550c17	-0.052013483
223	0xbea36fa9	-0.31921127
224	0x3e898f0f	0.26866958
225	0xbf2acf3d	-0.6672247
226	0x3e0f49b3	0.13992958
227	0xbe1d1595	-0.15340264
228	0xbe3d32f9	-0.18476476
229	0x3ee6f59c	0.4510926
230	0xbd4243e9	-0.047428045
231	0x3e8f89bd	0.28034773
232	0xbd952780	-0.07282925
233	0x3ede0603	0.43363962
234	0xbed3e321	-0.41384223
235	0x3d632498	0.05545482
236	0x3d07918c	0.03309779
237	0xbe8c69ca	-0.2742446
238	0x3f449677	0.7679209
239	0xbb07ed33	-0.0020740747
240	0x3e71890b	0.23587434
241	0x3dfe77e6	0.124252126
242	0xbe6b0ec7	-0.22954856
243	0x3d8eb505	0.069681205
244	0xbd2301f7	-0.039796796
245	0x3ea751e6	0.3267967
246	0xbea58818	-0.32330394
247	0xbded06ab	-0.115735374
248	0xbe0dde72	-0.13854387
249	0x3f0bf5e1	0.54672056
250	0xbe3e6482	-0.18593028
251	0x3d21a6d3	0.039465737
252	0x3e786364	0.24256665
253	0xbeb98147	-0.36231443
254	0x3de1b5bc	0.11020991
255	0x3ecd6e02	0.40122992

lstm.weight_hh_l1 f4 [200, 50]
0	0xbe1e819f	-0.15479134
1	0xbe2b47d4	-0.16726619
2	0xbd074762	-0.03302706
3	0x3be2c37b	0.0069202757
4	0xbda5f315	-0.08103005
5	0x3d38c2d4	0.045107678
6	0xbe8dd386	-0.27700442
7	0xbd75bb4b	-0.05999307
8	0x3d7d5f8b	0.061858695
9	0x3dc316b7	0.09525817
10	0x3eb35c50	0.35031366
11	0xbe14bd57	-0.14525352
12	0x3e30fe7d	0.1728458
13	0xbdf94988	-0.12172228
14	0x3e4d687c	0.20059389
15	0x3df34c67	0.11879807
16	0x3e0cd22d	0.1375205
17	0xbd38f8e7	-0.045159247
18	0xbec1aa89	-0.3782542
19	0x3d141c4f	0.03615981
20	0xbc44fddc	-0.012023415
21	0x3e0a90cf	0.13531803
22	0x3d318e91	0.043348853
23	0x3b802631	0.003910803
24	0x3da0f777	0.078597
25	0xbeaf4b33	-0.3423706
26	0x3f10fa18	0.5663161
27	0xbe0a188a	-0.13485923
28	0x3e2e82f2	0.17042139
29	0x3d3001e7	0.042970564
30	0xbd38a9c8	-0.04508379
31	0x3e958be4	0.2920829
32	0xbe3b42cb	-0.18287198
33	0xbd80fcf4	-0.06298247
34	0x3e2915f7	0.16512285
35	0x3c2de97b	0.010614748
36	0xbc0861bf	-0.008324086
37	0xbe649423	-0.22322135
38	0x3cf85b25	0.030316899
39	0xbe91b6e7	-0.28459856
40	0xbe293f08	-0.16527951
41	0x3e18c7a0	0.14919901
42	0xbeb098ae	-0.34491485
43	0xbe146c19	-0.14494361
44	0xbe947669	-0.2899659
45	0xbe790c24	-0.24321038
46	0x3e2ddc20	0.16978502
47	0x3d3a071a	0.04541693
48	0x3e50ef78	0.2040385
49	0x3e0c0bf0	0.13676429
50	0x3e1db7bc	0.1540212
51	0xbd99b715	-0.07505623
52	0xbe869c30	-0.26291037
53	0xbd7ba382	-0.06143523
54	0x3d9d465a	0.07679434
55	0x3eb0cae2	0.34529787
56	0xbe97c91a	-0.29645616
57	0xbd4cc4f5	-0.04999252
58	0xbd8aef6f	-0.067839496
59	0xbe085a76	-0.13315758
60	0x3e81fa85	0.25386444
61	0xbf020efa	-0.508041
62	0x3ec84731	0.39116815
63	0xbda8809f	-0.082276575
64	0xbdcab315	-0.098974384
65	0xbe257a50	-0.1615994
66	0x3dd564dc	0.10419628
67	0xbe3c2df0	-0.18376899
68	0x3de82011	0.11334241
69	0xbd97909d	-0.0740063
70	0xbe10db83	-0.14146237
71	0x3f0bf949	0.54677254
72	0x3df253d1	0.11832393
73	0x3db33b1f	0.08751511
74	0x3e8d9579	0.276531
75	0xbdf57063	-0.11984327
76	0x3f8b9371	1.090437
77	0xbe0f4020	-0.13989305
78	0x3e2e50c7	0.17023002
79	0x3eb31231	0.34974816
80	0xbcfbae81	-0.030722858
81	0x3f0c1ba5	0.5472968
82	0xbea98402	-0.33108526
83	0xbef9a482	-0.48758322
84	0x3ee54690	0.44780397
85	0x3e06ce8b	0.13164727
86	0xbe295ad0	-0.16538548
87	0xbe47bedf	-0.19506405
88	0x3e289115	0.16461594
89	0xbe2de79c	-0.16982883
90	0xbca6f726	-0.020381521
91	0x3c838d3a	0.016058553
92	0xbecf2b17	-0.40462562
93	0xbe9f6a7a	-0.31135923
94	0xbea7aa55	-0.3274714
95	0xbe7944c7	-0.24342643
96	0x3ef6b455	0.48184457
97	0xbdc201ad	-0.09472976
98	0x3ed185d9	0.4092243
99	0x3e1b58b9	0.15170564
100	0x3d9e92bd	0.07742832
101	0x3c852e8c	0.016257547
102	0xbd67a8d8	-0.056557506
103	0xbd14cc16	-0.036327444
104	0xbdb425c4	-0.08796266
105	0xbd90df18	-0.07073802
106	0x3b655fd5	0.0034999747
107	0x3dd9e0d5	0.106385864
108	0x3dca50b8	0.09878677
109	0x3c8120ff	0.015762804
110	0x3df8a18e	0.12140189
111	0xbe2e546a	-0.17024389
112	0x3d845179	0.06460852
113	0x3e802b57	0.25033066
114	0xbdeecf21	-0.116606005
115	0x3c736589	0.014855751
116	0xbdadd480	-0.08487797
117	0xbe689c21	-0.22715808
118	0x3bac5ebf	0.005260318
119	0x3d68f168	0.056870848
120	0x3e07c652	0.13259247
121	0x3e3012d5	0.17194684
122	0xbc978615	-0.018496552
123	0xbd641a59	-0.05568919
124	0x3d0171e7	0.031602766
125	0xbf1fba72	-0.6239387
126	0x3f3d9aa0	0.74064064
127	0xbd55ba01	-0.05217934
128	0xbdffafa7	-0.12484675
129	0x3eca0d1d	0.3946313
130	0x3dda6eb6	0.10665648
131	0x3e1fc97e	0.15604207
132	0xbccf22bf	-0.025285123
133	0x3e7e1b7d	0.24815173
134	0x3d733553	0.059377026
135	0x3e03f8d0	0.12887883
136	0x3d4ab266	0.04948654
137	0x3e7578cd	0.23971863
138	0x3df0ee89	0.11764247
139	0xbca1d9cd	-0.019757176
140	0xbe89dddb	-0.26927075
141	0x3e627712	0.22115734
142	0xbc52367e	-0.012830375
143	0xbd26d7e1	-0.040733222
144	0xbdbd287f	-0.0923624
145	0x3d87a7c7	0.06623798
146	0xbc5aabf5	-0.013346662
147	0x3d06554b	0.032796185
148	0xbdb5d38e	-0.088782415
149	0x3db39a3e	0.08769654
150	0x3e1b81e9	0.15186276
151	0x3dabb817	0.08384722
152	0xbddb6512	-0.10712637
153	0x3e17957e	0.1480312
154	0xbd8c3062	-0.06845166
155	0xbe1e1814	-0.15438873
156	0xbe060632	-0.13088301
157	0x3e5b2681	0.21401407
158	0xbd9f7187	-0.077853255
159	0xbd4e0c04	-0.050304428
160	0xbc22bf0a	-0.009933243
161	0xbe1d4969	-0.15360035
162	0x3d26205f	0.040558215
163	0xbd100b7e	-0.03516721
164	0xbc297747	-0.010343379
165	0xbe753ad6	-0.23948225
166	0x3d737407	0.059436824
167	0x3ddacf8e	0.10684119
168	0xbc537cde	-0.012908189
169	0x3c938af1	0.018010588
170	0x3d7d7b78	0.061885327
171	0x3e48f13a	0.1962327
172	0x3d995064	0.074860364
173	0x3e67d711	0.22640635
174	0x3dfbef12	0.123014584
175	0xbde198f1	-0.110154994
176	0x3da05f43	0.0783067
177	0xbd022da1	-0.031781796
178	0x3cb66770	0.02226612
179	0xbe724ae6	-0.23661384
180	0x3e6f5e9e	0.23375937
181	0x3d11c7d0	0.035590947
182	0x3d85d2e6	0.06534366
183	0xbe718cce	-0.23588869
184	0xba6b636a	-0.00089793524
185	0x3c0df9de	0.00866553
186	0x3e2e67dd	0.17031808
187	0x3d90ec41	0.07076312
188	0x3bf36f9a	0.0074290754
189	0xbe53e0d2	-0.20691231
190	0x3d1114c5	0.035420198
191	0xbdc48287	-0.095952086
192	0xbdc1100f	-0.09426891
193	0x3e0fbce7	0.14036904
194	0xbeaa7ed7	-0.33299896
195	0xbcba2fa6	-0.022727799
196	0x3db36338	0.08759159
197	0xbe82ee02	-0.2557221
198	0x3e1c28f9	0.15250005
199	0xbe61555f	-0.22005223
200	0x3d6d3d33	0.057919692
201	0xbdf647de	-0.12025426
202	0x3b801b30	0.003909491
203	0xbd54d485	-0.051960487
204	0x3ee6602d	0.4499525
205	0x3ec76808	0.38946557
206	0xbd7086d3	-0.05872233
207	0xbdc42342	-0.095770374
208	0x3e5612d8	0.20905626
209	0xbd446103	-0.04794408
210	0x3ee46cc3	0.4461423
211	0xbe939fca	-0.28832847
212	0x3db95c1c	0.090507716
213	0xbd2872a6	-0.041124962
214	0x3e87a440	0.264925
215	0xbe81e45d	-0.2536954
216	0x3e1f53c6	0.15559301
217	0x3ce24547	0.027620925
218	0xbf059c9a	-0.5219208
219	0xbd984c1c	-0.07436392
220	0xbf02e1e3	-0.51125926
221	0x3f14a48b	0.5806357
222	0x3da8fe5e	0.08251642
223	0xbdfc08e8	-0.12306386
224	0x3e820851	0.2539697
225	0xbe9be5ed	-0.30448857
226	0x3f20c962	0.62807286
227	0xbea2f4e2	-0.31827456
228	0xbd92287a	-0.071366265
229	0xbd97bc5c	-0.074089736
230	0xbe8bf0d0	-0.27332163
231	0x3d293045	0.0413058
232	0xbdd0fe7b	-0.10204788
233	0xbea65448	-0.32486176
234	0x3ee63716	0.44963902
235	0x3ea93882	0.33050925
236	0xbea309a0	-0.3184328
237	0xbec24db2	-0.37949902
238	0x3dc5c8b4	0.09657422
239	0x3ddd375b	0.10801574
240	0xbe5a74cf	-0.21333621
241	0xbd9a117f	-0.07522868
242	0xbf292063	-0.66065043
243	0xbd9504c9	-0.07276303
244	0xbf297e04	-0.6620791
245	0xbdc60036	-0.09668009
246	0x3bab573e	0.005228906
247	0x3d4e7c65	0.0504116
248	0x3e4ca966	0.19986495
249	0x3eb899ff	0.3605499
250	0x3e5e47dd	0.21707101
251	0x3dedd782	0.116133705
252	0xbea899c8	-0.32929826
253	0x3e324937	0.17410742
254	0xbd81a2cc	-0.06329879
255	0x3e24da6f	0.16098951

lstm.bias_ih_l1 f4 [200]
0	0xbea1b840	-0.31585884
1	0xbe906c1f	-0.2820749
2	0xbebdd063	-0.3707305
3	0xbf0d0878	-0.5509105
4	0xbe914a70	-0.28377104
5	0xbcf61342	-0.03003848
6	0xbe1b5987	-0.1517087
7	0xbeab501f	-0.33459565
8	0xbec78e06	-0.38975543
9	0xbe9f2aac	-0.31087244
10	0xbe05d106	-0.13068017
11	0xbed3841c	-0.4131173
12	0xbe9658c3	-0.29364595
13	0xbea63805	-0.32464615
14	0xbeba3969	-0.36371925
15	0xbddcf987	-0.10789781
16	0xbdfeace7	-0.12435322
17	0xbee59a1e	-0.44844145
18	0xbe26485f	-0.16238545
19	0xbe2b71be	-0.16742608
20	0xbe456c5b	-0.19279616
21	0xbe9a1b90	-0.30099154
22	0xbebc4dd9	-0.36778143
23	0xbe9042a4	-0.28175843
24	0xbd222cde	-0.03959357
25	0xbe73bf81	-0.23803522
26	0xbc88354a	-0.016626973
27	0xbe407065	-0.18792875
28	0xbefeef3b	-0.49791893
29	0xbd936bbe	-0.071982846
30	0xbdac6a3a	-0.084186986
31	0xbe287fc1	-0.16454984
32	0xbeeae43a	-0.45877248
33	0xbe248a9a	-0.16068497
34	0xbe8877ec	-0.26653993
35	0xbd6652c5	-0.05623128
36	0xbe2f8593	-0.17140798
37	0xbd85a6f0	-0.065259814
38	0xbec29ad8	-0.3800876
39	0xbf070c4d	-0.52753145
40	0xbf328d2a	-0.6974665
41	0xbe6eaafb	-0.23307411
42	0xbe436ce4	-0.19084507
43	0xbf243420	-0.64142036
44	0xbee84224	-0.4536296
45	0xbec7fae9	-0.39058617
46	0xbebaddf9	-0.36497477
47	0xbe03831a	-0.1284298
48	0xbec97433	-0.39346465
49	0xbe6c7f81	-0.23095514
50	0xbe88ed4e	-0.2674355
51	0xbf095acc	-0.5365417
52	0xbf11da06	-0.569733
53	0xbeeefa37	-0.46675274
54	0xbeef263f	-0.46708867
55	0xbe93166e	-0.2872805
56	0xbf2af5b4	-0.66781163
57	0xbeff8464	-0.49905694
58	0xbf461117	-0.7736983
59	0xbc824442	-0.015901688
60	0xbed36a87	-0.4129221
61	0xbe56c72e	-0.20974419
62	0xbef41337	-0.4767091
63	0xbdc8499f	-0.09779667
64	0xbf5b3832	-0.8563262
65	0xbf60e6a8	-0.87851954
66	0xbe8c3047	-0.27380583
67	0xbf119e08	-0.5688176
68	0xbee9b77b	-0.45647797
69	0x3c8878e3	0.016659206
70	0xbf1ff9b2	-0.6249038
71	0xbf3d7ee4	-0.74021745
72	0xbf0a2561	-0.53963286
73	0xbef9becd	-0.48778382
74	0xbf2d9983	-0.67812365
75	0xbf573ae5	-0.8407424
76	0xbe850f4c	-0.25988233
77	0xbedd0c77	-0.43173572
78	0xbe9eafe2	-0.30993563
79	0xbf652c7c	-0.89521
80	0xbef531d2	-0.47889572
81	0xbef5bc21	-0.47995093
82	0xbda3ceba	-0.07998414
83	0xbed9c6d5	-0.4253451
84	0xbdb16bf8	-0.086631715
85	0xbe0c3322	-0.1369138
86	0xbf152a81	-0.5826798
87	0xbe8c0a6b	-0.27351698
88	0xbe7c479c	-0.24636692
89	0xbf439424	-0.7639792
90	0xbf113bc7	-0.5673184
91	0xbf4c2fbe	-0.7976035
92	0xbf265d25	-0.6498588
93	0xbe915d62	-0.28391558
94	0xbeef1b13	-0.46700343
95	0xbf036ba9	-0.5133615
96	0xbe98e924	-0.29865372
97	0xbf65a701	-0.8970795
98	0xbee95c76	-0.45578355
99	0xbe83075c	-0.25591552
100	0xbb35606c	-0.002767588
101	0xbd3c7c2f	-0.04601687
102	0x3e54619c	0.2074036
103	0x3bff7eb1	0.007797085
104	0x3e057bc1	0.1303549
105	0x3da6bf5f	0.0814197
106	0xbdd78173	-0.10522737
107	0x3d538723	0.05164255
108	0x3df369e4	0.118854314
109	0xbdbfc033	-0.09362831
110	0x3e1e52a2	0.1546121
111	0xbd2b9047	-0.04188564
112	0xbd05fec4	-0.032713667
113	0xbe10dbde	-0.14146373
114	0x3e8108dd	0.25202075
115	0xbd402c48	-0.04691723
116	0x3d866d28	0.06563789
117	0xbdf67a66	-0.120350644
118	0xbe057f53	-0.13036852
119	0x3e039a25	0.1285177
120	0xbd8ef9d4	-0.06981245
121	0x3dd7a38b	0.1052924
122	0xbdb4ec69	-0.08834154
123	0xbdd79743	-0.10526898
124	0x3d446f37	0.047957625
125	0xbd06c42d	-0.03290193
126	0xbe8e15bb	-0.27750954
127	0xbdd8d6d1	-0.10587848
128	0xbced7de0	-0.028990686
129	0xbe489523	-0.19588141
130	0xbe26cb01	-0.16288377
131	0x3d6cbae4	0.05779542
132	0x3df804bd	0.12110279
133	0x3dbde31e	0.09271835
134	0x3dbe253b	0.09284445
135	0x3cca5b83	0.02470184
136	0xbe6c685f	-0.2308669
137	0xbd3e4a27	-0.046457436
138	0x3e49af60	0.19695807
139	0x3c2aa316	0.010414859
140	0x3d7e0ef3	0.062025975
141	0x3ccee1eb	0.02525421
142	0xbde4d079	-0.111725755
143	0xb8ba7d04	-8.892457e-05
144	0x3cd3d42d	0.02585801
145	0x3c774be6	0.015093779
146	0xbe064a62	-0.13114312
147	0xbdd54027	-0.10412627
148	0xbd1b2da6	-0.03788533
149	0x3d137afb	0.036005955
150	0xbebdeeb3	-0.37096176
151	0xbe98fd83	-0.29880914
152	0xbeb2d065	-0.34924617
153	0xbecb6b8f	-0.39730498
154	0xbd3b205c	-0.045685157
155	0xbe767867	-0.24069367
156	0xbe582952	-0.21109512
157	0xbe8771dd	-0.26454058
158	0xbe09396d	-0.13400812
159	0xbe60303d	-0.21893401
160	0xbe883afd	-0.26607504
161	0xbe5581e2	-0.20850328
162	0xbe1a82f8	-0.15089023
163	0xbf05d018	-0.5227065
164	0xbeb9fd3a	-0.3632601
165	0x3dfb20ea	0.12262137
166	0xbdac0517	-0.08399408
167	0xbeb1e3a6	-0.34743994
168	0xbe98fad0	-0.29878855
169	0xbe895565	-0.26822963
170	0xbea6288d	-0.32452813
171	0xbed34f1d	-0.41271296
172	0xbeba96c7	-0.3644316
173	0xbe583c17	-0.21116672
174	0xbec56d1a	-0.385598
175	0xbe3d41b5	-0.18482096
176	0xbeb19530	-0.34684134
177	0xbe8eb943	-0.27875718
178	0xbe9ef2b2	-0.31044537
179	0x3e159cba	0.14610568
180	0xbe912d70	-0.2835498
181	0xbe9fba2f	-0.31196734
182	0xbecbe741	-0.3982487
183	0xbe5d388a	-0.21603599
184	0xbe0b92ac	-0.1363017
185	0xbe641da8	-0.22276938
186	0xbe22ba11	-0.15891291
187	0xbe248ea3	-0.16070037
188	0xbe518281	-0.2045994
189	0xbed73f6b	-0.42040572
190	0xbf14cbc0	-0.581234
191	0xbd54692c	-0.051858112
192	0xbe971738	-0.29509902
193	0xbef71d2b	-0.4826444
194	0xbf0f1da7	-0.5590462
195	0xbe87899a	-0.2647217
196	0xbeb6290d	-0.35578194
197	0xbdc3bfaa	-0.095580414
198	0xbeb729e4	-0.35774148
199	0xbe2928b7	-0.16519438

lstm.bias_hh_l1 f4 [200]
0	0xbe2c9256	-0.16852698
1	0xbef7c0af	-0.48389193
2	0xbec267c1	-0.37969783
3	0xbf062f83	-0.5241625
4	0xbda1eb8c	-0.07906255
5	0xbdb59eee	-0.08868204
6	0xbeaad26e	-0.3336367
7	0xbeac4454	-0.3364588
8	0xbec8aafa	-0.39192945
9	0xbec707da	-0.38873178
10	0xbeacc768	-0.33745885
11	0xbeb24609	-0.34819058
12	0xbe58fc8c	-0.21190089
13	0xbe428d68	-0.18999255
14	0xbf1415dd	-0.5784586
15	0x3d224cea	0.039624132
16	0xbe24710f	-0.16058753
17	0xbf0790ed	-0.52955514
18	0xbd97b14f	-0.07406866
19	0xbec21945	-0.37909904
20	0xbea7feea	-0.32811671
21	0xbea22df8	-0.31675696
22	0xbefc3153	-0.4925638
23	0xbe82f979	-0.25580958
24	0xbdefbd83	-0.11706068
25	0xbe9c1919	-0.30487898
26	0xbd390bca	-0.04517726
27	0xbebdd718	-0.37078166
28	0xbe9d5b59	-0.30733755
29	0x3dd5645a	0.10419531
30	0xbd0219dc	-0.031762943
31	0xbdb081e1	-0.086185224
32	0xbebd5649	-0.36979893
33	0xbdbc35c5	-0.09189943
34	0xbde1721b	-0.11008092
35	0xbe827eae	-0.25487274
36	0xbe131c8f	-0.14366363
37	0xbea8d7f3	-0.32977256
38	0xbe6f12dc	-0.23347038
39	0xbea417bf	-0.32049367
40	0xbf4f2ff0	-0.8093252
41	0xbd9a5103	-0.07534983
42	0xbda6c2c1	-0.08142615
43	0xbef93d76	-0.48679703
44	0xbf0605b3	-0.52352446
45	0xbecee53d	-0.4040927
46	0xbe34bce3	-0.1765018
47	0xbe8d2683	-0.27568445
48	0xbea904c8	-0.3301146
49	0xbeed3459	-0.46329
50	0xbea8e3cf	-0.32986304
51	0xbf039f66	-0.514151
52	0xbeb50fba	-0.3536356
53	0xbf01f9af	-0.5077161
54	0xbf194ec5	-0.5988582
55	0xbec4e079	-0.3845251
56	0xbf28d4eb	-0.6594989
57	0xbebfb4c0	-0.3744259
58	0xbf188cfa	-0.59590113
59	0xbc269f42	-0.010169806
60	0xbebe1ed9	-0.3713291
61	0xbe851bd9	-0.2599781
62	0xbeb9f0b0	-0.36316442
63	0x3cc98584	0.024599798
64	0xbf300da2	-0.687708
65	0xbf48b5ba	-0.7840229
66	0xbe1ca999	-0.15299071
67	0xbef3b60f	-0.47599837
68	0xbf1e9d09	-0.61958367
69	0x3d6fad1c	0.0585147
70	0xbf5f3409	-0.87188774
71	0xbf2cd18b	-0.6750724
72	0xbeed64b3	-0.4636589
73	0xbeeb1ae1	-0.45918944
74	0xbf08d0f1	-0.5344382
75	0xbf5d048a	-0.8633505
76	0xbe6d0192	-0.2314513
77	0xbed8b088	-0.42322183
78	0xbec70495	-0.38870683
79	0xbf6b70e3	-0.91969126
80	0xbee97581	-0.4559746
81	0xbf0ad33b	-0.5422856
82	0xbe02fd52	-0.12791947
83	0xbe4a2f31	-0.19744565
84	0xbd1053c8	-0.03523615
85	0xbe5c4697	-0.21511303
86	0xbed9e9e4	-0.42561257
87	0xbea24cf1	-0.31699327
88	0xbeb2091c	-0.34772575
89	0xbf284de4	-0.6574385
90	0xbf1baa51	-0.6080676
91	0xbf4853d7	-0.7825293
92	0xbf262ed5	-0.6491521
93	0xbeea6810	-0.45782518
94	0xbebec74e	-0.37261432
95	0xbe8c3369	-0.27382973
96	0xbec3ba31	-0.3822799
97	0xbf4f6c1d	-0.8102434
98	0xbf20a090	-0.62745
99	0xbeb44ff3	-0.35217246
100	0xbe6b8ea7	-0.23003636
101	0xbe7f23f7	-0.24916063
102	0x3d4ae2dc	0.049532756
103	0x3dfe200c	0.12408456
104	0x3df429c3	0.11922028
105	0x3e0ea1c7	0.139289
106	0xbda5e0b1	-0.08099497
107	0xbe401ec4	-0.18761736
108	0x3e0dc371	0.13844086
109	0xbd85ad01	-0.065271385
110	0x3d89aafa	0.06722064
111	0xbd8512c3	-0.06497719
112	0xbd9209db	-0.07130786
113	0xbe4c2672	-0.1993654
114	0x3d88a762	0.06672551
115	0xbd9fa9bd	-0.07796047
116	0xbcffc536	-0.031221967
117	0x3db1911a	0.08670254
118	0xbe00e7d6	-0.12588438
119	0x3d139a84	0.03603603
120	0xbced0146	-0.028931271
121	0x3e1015d4	0.14070827
122	0xbda45abb	-0.08025118
123	0xbd178d97	-0.037000265
124	0x3d526ea3	0.051375043
125	0xbcc31d9a	-0.023817826
126	0xbea51a0f	-0.32246444
127	0xbcb324ef	-0.021868197
128	0x3df090e0	0.11746383
129	0xbe490857	-0.19632088
130	0xbd2d8d12	-0.042370863
131	0xbd84b034	-0.064789206
132	0xbca776f8	-0.02044247
133	0x3c85722b	0.016289791
134	0x3ce66e9f	0.02812892
135	0x3e58fbb9	0.21189775
136	0xbd407f71	-0.046996538
137	0xbd1ca9ce	-0.038247876
138	0xbc926330	-0.017869562
139	0x3e138b36	0.14408574
140	0xbe0d44b9	-0.13795747
141	0x3d8b374c	0.067976564
142	0xbe1a4e0a	-0.15068832
143	0xbc149492	-0.009068625
144	0xbd2f3ebb	-0.042784434
145	0xbd36df00	-0.044646263
146	0x3d3ee477	0.0466046
147	0xbd95c854	-0.073136
148	0xb8babab0	-8.9039444e-05
149	0x3e00a0d3	0.1256135
150	0xbee29dba	-0.4426096
151	0xbeb75ed7	-0.35814545
152	0xbef1dfed	-0.47241154
153	0xbecd2342	-0.40065962
154	0xbe23fa29	-0.16013397
155	0xbe6b1d2a	-0.22960344
156	0xbe2e5488	-0.17024434
157	0xbea260dc	-0.31714523
158	0xbe81009f	-0.25195786
159	0xbedd5e5a	-0.43236047
160	0xbeb3319f	-0.34998795
161	0xbea1c9c4	-0.31599247
162	0xbe80cc1e	-0.2515573
163	0xbed6b6b8	-0.41936278
164	0xbf0a5f9f	-0.54052156
165	0x3dbf8bc4	0.0935283
166	0xbdc422f2	-0.09576978
167	0xbedb5563	-0.42838582
168	0xbec94989	-0.39313915
169	0xbe2739ec	-0.16330689
170	0xbe91f232	-0.28505093
171	0xbe9c8c28	-0.3057568
172	0xbec90d3a	-0.39267904
173	0xbe9130ec	-0.28357637
174	0xbe88bc7e	-0.26706308
175	0xbe314add	-0.17313714
176	0xbe8bbe1d	-0.27293482
177	0xbecf29f0	-0.40461683
178	0xbeaf5c9e	-0.3425035
179	0x3d652a69	0.05594865
180	0xbeb00040	-0.3437519
181	0xbe9f1c55	-0.31076303
182	0xbe8e3102	-0.27771765
183	0xbd9f9af7	-0.07793229
184	0xbe7ce9bd	-0.24698539
185	0xbe266fc4	-0.16253573
186	0xbec291e1	-0.38001922
187	0xbded287a	-0.11579986
188	0xbe67a096	-0.22619852
189	0xbe8245f6	-0.25444
190	0xbf167ec9	-0.5878721
191	0xbdd364bc	-0.10321948
192	0xbe354451	-0.17701842
193	0xbf21d518	-0.6321578
194	0xbf17e1b2	-0.5932876
195	0xbeb11407	-0.34585592
196	0xbebcf656	-0.3690669
197	0xbe856ab4	-0.2605797
198	0xbe6205e5	-0.22072561
199	0xbe407187	-0.18793307
