models/lstm/generation/saved_model/generation_lstm_house_6.pth (torch, 293312 bytes, 17 tensors)

lstm.weight_ih_l0 f4 [200, 1]
00000000: 290f 2ebf 0de9 633f 4bbc 53bf 7cee 093f
00000010: c790 1cbf 7e44 7d3e 91f6 2d3f 75f1 213f
00000020: eae1 51bd 8363 0a3e 5462 783f dc9a 25bf
00000030: 13aa 63bf 28a2 55be f236 283f d870 1ebe
00000040: c6fb 163f 3529 81bf b398 44bf 0e73 5b3f
00000050: 71a9 253f f5d1 94be 94f4 2ebf fda3 063e
00000060: dee1 543f e057 babe 5a40 13bf 9707 42bf
00000070: f9b9 64bf 53e1 10bf 3c25 2a3f 4601 133f
00000080: f90c f7be 1b08 dabe 2a4a 0f3f d895 17bf
00000090: 8b59 34bf 48e3 2abe a0ca e2bc c22f 49bf
000000a0: c50b 7c3e 6a20 08bf 63c5 38be 7f73 393f
000000b0: 0409 fa3e 585e 1fbf def4 143f 4770 a63b
000000c0: 2180 96be fcec 503f 7f3a 58bf de1a 253f
000000d0: fbde 02bf 03bc 99be ed4e 71be 97c7 febd
000000e0: d78f 1b3f 3a23 233f c142 3d3e e06a 083f
000000f0: dbeb 2d3f 8d4d 2b3f f9f5 7dbf a8fa cbbb
00000100: 70e5 513f db2c aabd 7ec5 a8bd f17a 6fbf
00000110: 67cb 13bf d349 513e 75eb 083f e81b 00bf
00000120: c000 adbe cf9d efbe dfab 023f 1277 59bd
00000130: 4073 3dbe e0dd 2cbf 8a51 38bf 6b62 81bf
00000140: 7cbd cd3e d5fd 423c a37d 8ebe 9937 ccbe
00000150: f366 243f 8965 f4be e4fd 63bf 2aa2 9fbe
00000160: 13c6 bebd 600d 97be 60b0 c43e d9a6 dabe
00000170: c8a2 863e 0c08 e8bc ccc9 453f f565 713e
00000180: a6a1 333f fd85 1abf a9e4 25be 2df0 543f
00000190: 90dd 33c0 39d2 8dbf 9826 3b3e f873 72bf
000001a0: 36a6 4b3f 95c9 aa3f 57f3 833f 2f82 77bf
000001b0: d86e 6abf cd0e 4dbf 26dd a2bf 0ad2 96be
000001c0: 0b27 fb3f 6563 d63f 5737 963f 3527 4e3f
000001d0: be6c 553f 7810 05c0 7b3d 583e 107a 903f
000001e0: f35a 973f 94af 023f 01c1 5d3f 26b8 9b3f
000001f0: 0b2e 70bf ec57 2f3f 1720 0abf 3b2e 39bf
00000200: 1625 48bf d744 f5bf 5333 573f 16b7 51bf
00000210: 0b44 743f b274 993f 8bae 54bf 0047 bebe
00000220: cddc c63f cbce a63f 4132 45bf 47f6 cabf
00000230: 0529 61bf 78ae 103f b397 4a3f 9257 64bf
00000240: 31f9 a93f 012a f23e df1f 88bf 39c1 443f
00000250: b9e8 c23f f04c 90bf 8b73 6fbf 45bc 3a3f
00000260: 91cd 83bf 0a57 cf3e 7737 4abf b186 813e
00000270: c8db 0d3f 7a20 303f 7ea3 953e f815 06bd
00000280: dc1d 593f a03a 2cbf 1ae8 8ebf c550 a9be
00000290: 2168 1b3f d816 d1be 05ee da3e 6e68 8fbf
000002a0: 5ee5 63bf c04b 503f e3a8 ed3e ffa5 76be
000002b0: 7eb4 39bf 74d3 ffbb 9f6c 263f 3fe4 8cbe
000002c0: d8a5 52bf 4065 40bf 2723 6cbf af3a 52bf
000002d0: a3db 3a3f 9a72 e93e b7f2 e5be 2516 acbe
000002e0: 10cc 333f fc1d dbbe f66e 72bf 6772 73bd
000002f0: db82 38bc 11c3 20bf 2ab7 5a3e d9b4 26bf
00000300: 654f 433d 0119 293f ce73 ae3e c586 3dbf
00000310: e0cd 423f 1382 52be e204 e4be 39b4 633f
-0.6799188 0.8902748 -0.8270919 0.53879523 -0.6115841 0.24733159 0.67954355 0.6325906
-0.05124084 0.13514523 0.97025037 -0.6468942 -0.8893139 -0.20862639 0.6570884 -0.15472734
0.58977926 -1.00907 -0.767955 0.85722435 0.6471167 -0.29066435 -0.68341947 0.13148494
0.83157146 -0.36395168 -0.5752007 -0.7579283 -0.8934627 -0.5659382 0.66463065 0.5742382
-0.48252085 -0.4258431 0.5597254 -0.5921302 -0.7044913 -0.16688263 -0.02768451 -0.785885
0.24613865 -0.5317446 -0.18044047 0.7244186 0.48835003 -0.6225333 0.5818614 0.0050793025
-0.2939463 0.8161161 -0.8446426 0.6449412 -0.5112149 -0.30026254 -0.23565264 -0.124404125
0.6076636 0.63725626 0.18482496 0.5328808 0.6793801 0.6691521 -0.9920345 -0.006224949
0.8199072 -0.08309337 -0.08240794 -0.9354697 -0.5773224 0.20438318 0.5348428 -0.5004258
-0.33789635 -0.46800086 0.51043504 -0.05309207 -0.18500996 -0.67526054 -0.7199942 -1.010816
0.40183628 0.011901339 -0.27830228 -0.39886168 0.6421959 -0.47733715 -0.8905928 -0.3117841
-0.093151234 -0.29502392 0.38415813 -0.4270542 0.26296067 -0.02832415 0.7726104 0.2357405
0.7016853 -0.603607 -0.16200508 0.8317898 -2.810398 -1.107978 0.18276441 -0.94708204
0.7955049 1.3342768 1.0308636 -0.9668302 -0.91575384 -0.8010071 -1.2723739 -0.29457122
1.962129 1.6749083 1.1735638 0.80528575 0.8336905 -2.0791302 0.21117203 1.128725
1.182463 0.5104916 0.86622626 1.2165573 -0.93820256 0.68493533 -0.53955215 -0.7233617
-0.7818159 -1.9161633 0.8406269 -0.8191999 0.95416325 1.1988738 -0.8307883 -0.37163544
1.5536133 1.3031858 -0.77029806 -1.5856408 -0.87953216 0.5651622 0.79137725 -0.8919612
1.3279172 0.4729767 -1.0634726 0.76857334 1.5227271 -1.127348 -0.9353568 0.72943527
-1.0297109 0.40496093 -0.7899088 0.25298074 0.55413485 0.68799555 0.29226297 -0.032735795
0.84811187 -0.67276955 -1.1164582 -0.33069435 0.60705763 -0.4083774 0.4275972 -1.1203744
-0.8902186 0.81365585 0.46417913 -0.2408676 -0.72541034 -0.0078071896 0.6500949 -0.27517888
-0.8228431 -0.75154495 -0.9224114 -0.82120794 0.7299139 0.45595247 -0.4491174 -0.33610645
0.7023325 -0.42796314 -0.9470056 -0.059435274 -0.011261667 -0.6279765 0.21358934 -0.651197
0.04768314 0.6605378 0.34072727 -0.74033767 0.7609539 -0.20557432 -0.44534975 0.8894687

lstm.weight_hh_l0 f4 [200, 50]
00000000: 9f46 603f ee58 493e f996 3ebf dd5c 153f
00000010: 1f3a 40bf 35b8 b5be d211 c2bd 3e68 9f3c
00000020: 0cce c13e 5f2c 143e 8ce8 313e 4a4d 09bf
00000030: 91f2 98bf f4fc 1fbf 2fd6 4ebc 90ff 3bbf
00000040: 9b15 07be 474c 8f3f 2906 4dbf 665e 393e
00000050: c593 51be 3352 80bf 58b9 23bf c8d3 01bf
00000060: 0a9a ec3e f1bf 05bf 5f41 0e3f 97e2 5c3f
00000070: c396 92bd 0b90 ba3f 5172 3dbe fa33 4a3d
00000080: d371 b4be f986 5cbf 2c67 c7be aeb6 093f
00000090: 8888 5bbf ea9b aabe a65f debd 2c39 0f3f
000000a0: 619f 993d ff06 19bf 8594 b8be 91c0 fc3e
000000b0: 650e 07bf bfba 803e ec40 03be 7446 80bf
000000c0: ce7d f3be ad95 1ebc 9e38 533d e23a e03d
000000d0: 3959 a23d 22c8 103f bb78 dfbd 6263 3bbe
000000e0: 9f28 44be bfcd 023f cb9a 72bd 68c6 8c3d
000000f0: ff3f 003e e680 95bc 1386 393e 0c3e 61be
00000100: 0060 febd 73e9 cdbc 2fc8 8bbe f6d9 d2be
00000110: e08c acbd 27ea 2fbe 8236 80be 1baf 0dbd
00000120: 43d6 8ebe 2346 f5be eec7 393e 7948 573e
00000130: 12bd ef3c 68e7 0c3e 8671 9bbd e607 58be
00000140: 2cbb 7fbd 20a9 b23e c70f db3d 5fe7 b7bd
00000150: d369 243e a81f 35bd 8a2a 0dbd 1ee9 5bbe
00000160: 22a3 81bd f5cb 4cbe 25b4 a03e e93b 01be
00000170: 007a 0ab6 499f 7a3e 4db2 23be efe1 0e3d
00000180: 22cd 7a3e b476 c03d 07bb 05be 76fd b93e
00000190: 2642 dfbe db7f 82bd aab8 853c 1be9 94bd
000001a0: 98b2 6f3e 802c 583e c3f5 56be 9f7f edbc
000001b0: 63b3 7e3e fb52 1d3e e62b f6be 6140 72be
000001c0: 0284 14be a0f1 bc3e e67d 6f3d c032 a03d
000001d0: 0157 af3e a075 213d 2edd 12bc b5d7 083f
000001e0: 8ecc 4e3e a2f4 8fbe 3e3b 273d 79d0 9b3e
000001f0: c93f 9cbe 42c1 10be 3a0e 14bb eb42 a93e
00000200: 89f3 5ebf 6d85 d83d ea94 bc3d 9a57 89be
00000210: 640f 443e a9bd 93bd bb19 bfbd 73f3 553b
00000220: 98d3 913d 7eac 563d 368e cdbe 2dcf 34be
00000230: 8f99 cbbd 9664 8f3e e27e ad3e 6572 afbe
00000240: 009b 073e 1a9f f53e 98ca bdbd 61eb 18bc
00000250: 6956 983e f33e 863d c1ea 923e 5529 9b3e
00000260: 1e2e 00be 3804 63bd 0352 4c3e 694d 31be
00000270: 3c01 6cbe d4fb 8d3e 66c6 a43e d7b0 613e
00000280: e48c a33e 04c0 4ebe a6f0 1f3e 2c0c 8abe
00000290: c16a 03bf a450 cdbc 361e 073c c65c adbd
000002a0: 9dd5 003e 4c68 6a3e 82dc 033d c4dc b0bc
000002b0: 607a 413e 9762 a73d af95 023f 8a31 013e
000002c0: 55e0 14be bbfd e73e 71fe ffbe 66aa eebe
000002d0: 12e7 68be 02de b63d 45fb 0fbd e3c4 973c
000002e0: f3df 473e 3ab6 2ebe 2c61 46be 1d62 5abd
000002f0: 8e95 87be e3d5 4e3e f20b edbd 8632 f13c
00000300: b9f7 883e 4d23 613e ffff 9ebe d130 babd
00000310: c3eb 033d bd68 9abd 399e 7fbe e2c3 bf3e
00000320: cf8b 6cbd 37f5 943b b7ba c5be 9614 84be
00000330: 03b9 a13e c743 abbc e9de 483d 1ae0 aebd
00000340: d68f 51be 1a65 05be 15a6 1f3d aca2 61be
00000350: f7a7 e23d 4a88 bb3e d078 5a3d 10a1 9ebc
00000360: fe55 3a3e 6e37 a1be 7da6 d4bd ac4a a83d
00000370: 24b1 723c 00bf 82bd 787a 883e bcd9 40bd
00000380: 0818 f33b fe80 943c 013e cc3c c2b2 033d
00000390: e019 72be 34e3 98ba 7663 30be 1189 1f3e
000003a0: bdd5 263e c9f7 703e 5f81 4e3e dcc0 193a
000003b0: fb4f 703b 398f 21bd 72db 01be 4b09 30bf
000003c0: 81a7 343d 255e e6bd b482 223e 17e3 07bd
000003d0: 5afd a23d e40f 2b3e c1e5 f5bd 41d8 b3bc
000003e0: a402 3d3e 9fd8 113e 8fdc e63e 07f8 b9be
000003f0: 84a9 ef3d a3b3 d23e 716c c9be 6d90 a93c
0.8760776 0.1966283 -0.74449116 0.58344823 -0.75088686 -0.354921 -0.09476055 0.019458886
0.37852514 0.14470051 0.17373866 -0.5363356 -1.1949025 -0.6249535 -0.012624308 -0.7343683
-0.13191836 1.1195153 -0.80087525 0.18102416 -0.20466526 -1.0025085 -0.6395469 -0.5071378
0.46211272 -0.52246004 0.555685 0.8628325 -0.07157662 1.4575208 -0.1850064 0.049365975
-0.3524309 -0.8614345 -0.389459 0.5379437 -0.85755205 -0.33322078 -0.10858087 0.5594661
0.07501102 -0.597763 -0.3605081 0.49365667 -0.5275634 0.25142476 -0.12817734 -1.00215
-0.4755692 -0.00967924 0.051567666 0.10948731 0.07927174 0.5655538 -0.109116994 -0.1829963
-0.1915612 0.51095194 -0.059229653 0.068737805 0.12524413 -0.01824994 0.18117552 -0.21996325
-0.12420654 -0.025135731 -0.27301165 -0.41181916 -0.08425307 -0.17179166 -0.25041586 -0.03459082
-0.27897844 -0.47905073 0.18142673 0.2102374 0.02926496 0.1376015 -0.07590012 -0.21096763
-0.06243436 0.34894657 0.10696369 -0.089796774 0.16055994 -0.044219643 -0.034464397 -0.21475646
-0.06329943 -0.19999678 0.3138744 -0.1262051 -2.0634616e-06 0.24474825 -0.15985985 0.034883436
0.24492314 0.09397641 -0.13059627 0.36326188 -0.43605155 -0.06372043 0.016323406 -0.07271024
0.23407972 0.21110725 -0.20992188 -0.028991519 0.24873118 0.15363686 -0.48080367 -0.23657371
-0.14503482 0.36903095 0.058469675 0.0782218 0.34246066 0.039418817 -0.008963866 0.5345414
0.20195219 -0.28116328 0.040827982 0.3043249 -0.30517414 -0.14136222 -0.0022591488 0.33058867
-0.87090355 0.10572324 0.092080906 -0.26824647 0.19146496 -0.07213909 -0.093310796 0.0032646328
0.071204364 0.052410595 -0.4014756 -0.17657156 -0.09941398 0.28006428 0.33885866 -0.34266964
0.13242722 0.47972947 -0.09267157 -0.009333462 0.29753426 0.06554975 0.28694728 0.3030497
-0.12517592 -0.055423945 0.1995316 -0.17314686 -0.23047346 0.27731192 0.32182616 0.22040115
0.3194343 -0.20190436 0.15619144 -0.2696241 -0.5133477 -0.025062867 0.008246949 -0.08464961
0.12581487 0.22891349 0.032192715 -0.021589644 0.18894339 0.081731014 0.5100965 0.12616554
-0.14538701 0.45310768 -0.4999881 -0.4661438 -0.22744396 0.089290634 -0.03515174 0.0185265
0.19519024 -0.17061701 -0.19373006 -0.053316224 -0.2648129 0.20198779 -0.11574544 0.029443037
0.26751497 0.21986122 -0.31054685 -0.09091342 0.03220726 -0.075395085 -0.24962701 0.37454134
-0.05775052 0.0045458334 -0.38619015 -0.25796956 0.31586465 -0.020906342 0.04904071 -0.08538838
-0.20465025 -0.13026848 0.038976748 -0.2203471 0.11067193 0.36627418 0.053337872 -0.01936391
0.18196866 -0.31487602 -0.103833176 0.082173675 0.014812741 -0.063840866 0.26655936 -0.047082648
0.007418636 0.018127915 0.02493191 0.0321529 -0.23642683 -0.0011664391 -0.17225441 0.1557963
0.16292472 0.23532023 0.20166539 0.0005865225 0.0036668766 -0.03944323 -0.12681368 -0.6876418
0.044105057 -0.112484254 0.15870172 -0.033175554 0.07958479 0.1670528 -0.12006713 -0.021953704
0.18458039 0.1424279 0.45090148 -0.36322042 0.117022544 0.41152677 -0.39340547 0.02069875

lstm.bias_ih_l0 f4 [200]
00000000: d4d9 373f 21e8 fbbd 56a9 1bbf 0504 d4be
00000010: 9f33 58be e875 353d ef88 d83e 65df e3be
00000020: 03ea d7be cc0f 08bf fec3 fd3e f203 e6be
00000030: 0fbc 6bbd 5bc7 b03e e326 6a3e 29a1 dabe
00000040: 5c0c a6be 5a2c aabe 98a0 3abf b9e9 d2be
00000050: d4e9 a23d 97f8 b7be eb05 34be 2f63 2abe
00000060: 4350 a63e 6987 27bf 50c0 06bf 152e dfbe
00000070: ff9b c8bd 1d41 02be 2b83 03bf e8c6 27be
00000080: 5b64 e6be 7f9b 99be b043 62be e39d 4fbf
00000090: da2a 183e 4010 4bbe 6409 11bf 8cff fa3d
000000a0: 8ab6 0cbf 483d 44bf a40e 12bf 0825 ee3d
000000b0: cac2 103f a986 f3be 5281 9f3c c2dc 03bf
000000c0: 7447 7abd 3216 9e3d 7573 83bf c7bd 1dbf
000000d0: 011f 1bbe f04a 4abf eacc e0be b8ca 94bf
000000e0: 0bcf 2ebf dda6 45bf 8955 53bf b2ba 16bf
000000f0: b1bb 60bf 040f 833b f1e1 6abf b9bb 8dbf
00000100: f194 48bf ac04 dabe 98a3 29bf a4b7 93bf
00000110: be60 dbbe ac57 84bf 82f7 74bf 4c47 f3be
00000120: d394 2fbf 14df 63bf 316a 2dbf 9fdc 4dbf
00000130: 2c4d 0dbf 5a2c 56bf 07bb b5be 02d5 68bf
00000140: 3a26 39bf 8064 2bbf f571 19bf 575e 71bf
00000150: 1065 e9be e830 0ebf e968 73bf 6b18 65bf
00000160: 033a 27bf 5387 babf 36df 38bf 1e12 1bbf
00000170: 343e 2bbf 5158 41bf 4474 62bf 09df 8e3e
00000180: 95be 57bf 47aa 35bf 7eb2 96bf f887 36bf
00000190: 00bc f5bb 531d aa3d 8045 4cbb c3a8 453d
000001a0: 26f4 05bd 037a 8fbd 291e 13be dde2 d5bc
000001b0: 1ec4 463c f6cf 9a3d 042d 7a3d 96d2 113d
000001c0: dbee b0bd 4341 2dbe 57dd babd 0107 2dbe
000001d0: d963 00be fab9 c5bc 7a42 293d 0ac1 28be
000001e0: dc2b 9b3c 6224 203d 20a9 3c3c 99fd dcbc
000001f0: 8dbd 5cbd 45ad f8bc a81a 5e3b eb74 5dbd
00000200: e0e6 863d eaec 97bd 7d88 5abd f9dc e0bc
00000210: 8362 d2bd 8083 2abe ffdc 9e3d 704f e1bb
00000220: fd11 56bd 24bc 3ebd 226f fb3d 2c29 383e
00000230: f3fd 2c3d 336f 1cbd eb3c 16be 992f ddbd
00000240: 2632 3dbd 653a 71bd 639d 0e3e 26a1 16bd
00000250: 09b5 07be b51b 0f3e fa46 213f 8e97 933d
00000260: 8f00 17bf 2751 03bf c315 b3be 7eed e5bd
00000270: 0894 bc3e 2b2e d9be 7879 53be 1126 0dbf
00000280: 9fc7 013f 14cb d0be 1649 46bc 4ede de3e
00000290: 65df a63e 71ef 17bf d506 eebe e570 8fbe
000002a0: 5835 4ebf 5097 1abe cb28 ae3e dd21 f0be
000002b0: b4da abbe 25af b9bd 7104 063f ee3e 25bf
000002c0: 4e9c d2be 8719 07bf 771b 163d a91a f4bd
000002d0: a516 f0be 1f2f 8bbe 6ba4 01bf ac03 3cbe
000002e0: c627 33be 4067 36bf 1e06 73bc 5af7 9bbe
000002f0: ff27 27bf f166 06be a3dc 05bf 847b 12bf
00000300: 4360 e6be f657 983e b382 993e 447b 93bd
00000310: 85fc 8a3b b082 dcbe a057 a6bc d488 863e
0.71816754 -0.123001345 -0.6080526 -0.41409317 -0.21113442 0.044301897 0.42291972 -0.44506374
-0.42170724 -0.53149104 0.49563593 -0.44924885 -0.057552394 0.34527096 0.22866397 -0.4270108
-0.32431304 -0.33236963 -0.72901297 -0.4119394 0.079547554 -0.35931846 -0.17580383 -0.16639398
0.3248311 -0.65440995 -0.52637196 -0.43589845 -0.09795379 -0.12720151 -0.5137202 -0.1638447
-0.4499844 -0.30001447 -0.22096133 -0.8110029 0.14860097 -0.19830418 -0.56654954 0.12255773
-0.5496603 -0.7665601 -0.5705359 0.11628157 0.56547225 -0.47563675 0.019470844 -0.51508725
-0.0611033 0.07719077 -1.026961 -0.616177 -0.15148546 -0.79020596 -0.43906337 -1.1624365
-0.6828467 -0.7720774 -0.8255239 -0.58878624 -0.87786394 0.0039995927 -0.9175101 -1.1072913
-0.78352267 -0.4258169 -0.6626525 -1.1540418 -0.42847246 -1.0339255 -0.95690167 -0.47515333
-0.6858646 -0.89012265 -0.6774016 -0.80414766 -0.5519588 -0.83661425 -0.35494253 -0.90950024
-0.72323954 -0.66950226 -0.5993951 -0.94284576 -0.45584917 -0.55543375 -0.95081955 -0.89490384
-0.65322894 -1.4572548 -0.7221559 -0.6057452 -0.6689179 -0.75525385 -0.8845866 0.27904537
-0.8427518 -0.7096295 -1.1773221 -0.7130122 -0.007499218 0.083063744 -0.0031169355 0.048256647
-0.03270354 -0.07005694 -0.14366974 -0.026109153 0.012131719 0.07559197 0.061078086 0.03560122
-0.08639308 -0.16919427 -0.091242485 -0.16897203 -0.12538089 -0.024136532 0.041323163 -0.16479889
0.018941812 0.039097197 0.011514932 -0.026976394 -0.053891707 -0.030356059 0.00338904 -0.05406658
0.06587005 -0.07418235 -0.05335282 -0.027449118 -0.10272696 -0.16651726 0.077569954 -0.0068759248
-0.05226325 -0.046566144 0.12277056 0.17984456 0.042234372 -0.038191985 -0.14671676 -0.10800094
-0.046190403 -0.05889358 0.13927226 -0.036774777 -0.13252653 0.13975413 0.62998927 0.07206641
-0.5898523 -0.51295704 -0.3497754 -0.11226939 0.3683169 -0.42418036 -0.20651805 -0.5513621
0.5069522 -0.40779936 -0.012102386 0.4352898 0.32592312 -0.59349734 -0.46489587 -0.2801582
-0.80550146 -0.15096784 0.34015498 -0.46900836 -0.33565295 -0.09066609 0.5235053 -0.6454915
-0.41134876 -0.52773327 0.036647286 -0.119191475 -0.46892276 -0.27184388 -0.50641507 -0.18360776
-0.17495641 -0.71251297 -0.014833001 -0.30462152 -0.65295404 -0.13125207 -0.5228979 -0.5721972
-0.44995317 0.2975461 0.29982528 -0.072012454 0.0042415285 -0.43068457 -0.020305455 0.26276267

lstm.bias_hh_l0 f4 [200]
00000000: ff18 3b3f 5450 29bd 6f3c 4abf 4c6e fdbe
00000010: b92c 7abe 9641 ad3d ce83 783e 6589 b0be
00000020: 6d07 dfbe 4b22 30bf b4a0 193f 1d1c 09bf
00000030: 19b9 f9bd c72f ee3e f4a6 b33e a658 fcbe
00000040: 4778 ddbe 4ac9 7dbe 7442 46bf eb3f 91be
00000050: 7b54 a73e b1b7 d1be 8b64 44be b87c 75be
00000060: 3262 8c3e c73a 3bbf f626 a4be 6d49 06bf
00000070: 5e3c 1bbe 58fa acbd fcdd b2be 9d31 19bd
00000080: 1c92 14bf 8c02 53be 0785 0bbe 3e43 37bf
00000090: a669 623e 898f 91be 2e7b 16bf eb9f 873c
000000a0: 0285 dbbe 8a74 10bf 4e04 e9be 62fb 193e
000000b0: 66b4 d93e b8b8 ccbe e332 10bd 88d9 0ebf
000000c0: 6b76 74be f7df 5b3e 8314 8dbf d8e1 2fbf
000000d0: 4191 afbe 0928 6bbf 0459 87be ce06 93bf
000000e0: 47c5 38bf c371 28bf 192a 30bf 34e5 3fbf
000000f0: 88dd 50bf 7834 edbd 9fdb 44bf 3d43 92bf
00000100: a3d6 40bf 76d1 10bf 5c99 0ebf 65ca 8ebf
00000110: 26e6 1dbf 1983 80bf 9b0b 72bf b524 02bf
00000120: 69dd 04bf 7a3c 70bf 83f8 68bf 6fe8 60bf
00000130: 3615 1bbf a047 54bf 4218 81be 26f7 4dbf
00000140: 00c2 1bbf 685a 4fbf 05ee 3cbf 28d9 90bf
00000150: acce 31bf fc7a 28bf 48b8 34bf 41b1 38bf
00000160: 8cb8 1ebf a023 bdbf 7398 4bbf fe2f f3be
00000170: 4b81 34bf 83ba 0bbf 04ed 74bf 9f0f 383e
00000180: 5fc4 5abf 3795 2dbf ec59 a5bf eaf7 54bf
00000190: ee0f 18bd a3b7 99bc 82c6 a2bd 4a74 c83c
000001a0: 4387 78be a034 f838 2c0c b5bb 57c3 043e
000001b0: d2ac d93d afc7 433c 3017 79bd 858c cc3c
000001c0: 063f 5cbe affa 063d f09e fe3c 04f9 93bc
000001d0: d738 07bd 5389 213d 6594 50bd 1624 053d
000001e0: 29d4 f8bd e831 9a3d 4cc3 2abe 8f91 443d
000001f0: 959d b63d a4d2 41bd bfda 0c3e b058 0bbc
00000200: 81f7 9f3d 968d 073d 46a4 23bd 2abb 753d
00000210: 165d 7ebc 5867 77bd 8d4f e13d 13dd c83d
00000220: fae5 323c 84a3 e1bb 5869 7bbb 81e0 1fbd
00000230: 6f38 33bd 0626 f1bd 088f 0ebe 7485 c43d
00000240: cd04 45bd 0919 75bc 2744 3d3d cdb1 fbbd
00000250: ba58 4f3d 9d88 efbd 3dad 453f 1933 3abd
00000260: 03a9 0dbf 3c4b d8be 7bbf 71be 1081 3bbc
00000270: a20d ff3d 5bcc 39be bff8 a1be 7f82 f8be
00000280: a958 0c3f 4a05 20bf d73f f1bc c3d6 fa3e
00000290: c727 9d3e 006f c2be bc74 bdbe 141a f4be
000002a0: 8226 1ebf 3253 5fbe 8fea 873e 865c 0fbf
000002b0: e877 9abe 4371 5dbd 5d4c 093f fd42 13bf
000002c0: f45a afbe c078 abbe a8aa 88bd f475 2cbe
000002d0: 552c 0abf 27ed 89bd c24d d6be b6ae 2fbe
000002e0: 765a 24be 627e 71bf b6fc 01bd 7569 92be
000002f0: 1b1b 1abf cee4 1fbe 5741 09bf a560 2cbf
00000300: de5b aebe 91b4 e83d 6a5c e93e 7218 2fbe
00000310: e1b1 90bc 2b0d d4be eb71 abbd 3944 c83d
0.73085016 -0.041336372 -0.78998464 -0.49498212 -0.24431123 0.08459775 0.2426903 -0.34479824
-0.43560353 -0.68802327 0.6001084 -0.5355852 -0.12193508 0.46520826 0.35088313 -0.49286383
-0.43255827 -0.24783817 -0.7744515 -0.28369078 0.3268164 -0.40960458 -0.19178979 -0.23973358
0.27418667 -0.7313656 -0.32060975 -0.5245579 -0.15159747 -0.08446187 -0.34934986 -0.03740083
-0.58035445 -0.2060644 -0.13624965 -0.7158698 0.22110614 -0.2842982 -0.5878171 0.016555747
-0.42874914 -0.56427824 -0.45511097 0.15037301 0.42520446 -0.3998468 -0.03520478 -0.55800676
-0.23873298 0.21472155 -1.1021885 -0.68703985 -0.34290507 -0.91857964 -0.264351 -1.1486452
-0.7217602 -0.65798587 -0.68814236 -0.7495911 -0.8158803 -0.11582273 -0.76897615 -1.142677
-0.7532751 -0.5656961 -0.5570276 -1.1155516 -0.61679304 -1.0040008 -0.9454896 -0.5083726
-0.51900345 -0.9384228 -0.910042 -0.87854666 -0.6057924 -0.8292179 -0.2521382 -0.80455244
-0.60842896 -0.80997324 -0.7380069 -1.1316271 -0.6945598 -0.6581266 -0.7059369 -0.7214547
-0.62000346 -1.4776497 -0.79529494 -0.47497553 -0.70509785 -0.5458147 -0.9567416 0.17974709
-0.8545589 -0.6780581 -1.2918067 -0.83190787 -0.037124567 -0.018764323 -0.079480186 0.024469513
-0.24270348 0.00011835364 -0.0055251326 0.12965141 0.10628666 0.011949464 -0.06081313 0.024969349
-0.21508417 0.032953914 0.031081647 -0.018063076 -0.03301319 0.039437603 -0.05092277 0.032505117
-0.12149841 0.0752905 -0.16676062 0.047990378 0.08916775 -0.047320023 0.1375532 -0.0085050315
0.078108795 0.03309401 -0.039951585 0.059992947 -0.015525123 -0.06040129 0.11001501 0.098077916
0.0109190885 -0.0068859477 -0.003836235 -0.039032463 -0.04375499 -0.117748305 -0.1392175 0.09595767
-0.04810028 -0.014959582 0.046207573 -0.12289772 0.050621726 -0.11695979 0.77217466 -0.045458887
-0.55336016 -0.422449 -0.236082 -0.011444345 0.12453772 -0.18144362 -0.3163509 -0.4853706
0.54822785 -0.6250807 -0.029449387 0.48991975 0.3069441 -0.3797531 -0.37003124 -0.47676146
-0.6177751 -0.2180908 0.26546142 -0.56000555 -0.30169606 -0.054063093 0.53632146 -0.5752409
-0.3424908 -0.33490562 -0.06673175 -0.1684187 -0.53973895 -0.06734686 -0.418562 -0.1715649
-0.16050133 -0.9433347 -0.031735145 -0.28596082 -0.6019761 -0.15614626 -0.53615326 -0.6733497
-0.34054464 0.11362565 0.4557832 -0.17099169 -0.017662944 -0.41416296 -0.083713375 0.097786374

lstm.weight_ih_l1 f4 [200, 50]
00000000: c6ff 36bf bc9c 4c3e ae85 83be 35b3 28bd
00000010: 87a3 1fbe 63f5 00bd 8e53 d43d d5f9 e9be
00000020: c81b 5b3e a440 743e 88ff 463f 48b2 103f
00000030: 38e7 243f 48a7 4c3e 50e1 153e ec78 253e
00000040: 23c4 7f3d 06dd 14bf 4480 633e ad19 6c3e
00000050: 02aa 28bf e9af 9b3e 168b 07bf 9767 513e
00000060: 1fd6 8fbe 6552 5cbe 0899 d13e 3c48 c2be
00000070: 5f72 bebd e78a fcbe 0900 1fbd 0f98 89be
00000080: 20f9 65bd fb28 5d3f 2212 7d3c 4f2b 12be
00000090: 6037 c03e e031 053f 192a 72be a4e9 32be
000000a0: aae0 b93e 687a a53d 702b 4dbe e8a3 0f3f
000000b0: 950c 043f afa7 24be 3827 083f 734c ff3e
000000c0: 3f4b bc3e b1b9 783e 290f c13e 21f6 1cbe
000000d0: 05d0 7ebc 2bdc 9fbe e404 9e3e 4796 5d3e
000000e0: e8c8 263d eb9a cabd f71a ee3c d742 143e
000000f0: 4594 e0bc 92c1 c6bc dfc4 ba3e 7a50 2bbf
00000100: 8cb8 663e 88d5 3e3c b081 533d 5ec9 33be
00000110: 8b24 033e 7a6e bb3e 098d 52bd 4120 debc
00000120: 0bc2 053f 5824 23be b762 93bd 450b 5fbe
00000130: 8741 dd3c 121f b7bd d534 1abf 0fdb 4d3c
00000140: 667b 693d 5dd9 99be 7fe5 35be fb0e 863e
00000150: bc69 49be 192e 1bbe 1b11 1dbe c00e 03be
00000160: 76a2 b23c b5c1 6e3e d9ed 1a3e ed30 3d3e
00000170: 7903 123e 9cd2 57be e421 87bb db3f 0f3f
00000180: 776a 823b b7ee 883e e2e5 9fbe 5da0 0b3e
00000190: 0b75 11bf c863 8fbe a2c5 553e d5de 6dbd
000001a0: 4268 223f 679e d73e c663 363f 5a1d c9be
000001b0: c101 e8be 5868 bdbe 26ae fe3e 3f02 8e3c
000001c0: 2bc8 953f 4d60 5b3f 97ca 293f 2a42 e53e
000001d0: aa88 8c3f a013 6bbf 1b0b 423e 207b 1a3f
000001e0: 961f 193e ed7a 283f fdcf 103e 4af4 a0be
000001f0: 5027 61be 8ed7 09bf abd3 8e3d 5dba a1be
00000200: c0aa 05bf fa05 86bf 58b5 b73d b010 c83e
00000210: bb8f fdbd 6372 7b3f 105c 20bf 6610 e33d
00000220: 9c96 333f 957a 263f 6f7a abbd 5d9f 9cbe
00000230: f74e a63c 09a4 a43e 3402 a6bd 5685 363d
00000240: 5554 463d 1aa2 8ebd c7c6 073e 0225 cc3e
00000250: b3e1 1a3f 7607 e6bd be7c bfbe 89ed 073e
00000260: b4a5 d7bd 8094 8d3e 1270 f23e 355e 8dbe
00000270: a107 8fbc ed19 983e aac4 2ebe 784d 5a3e
00000280: 201a 5e3e c766 54bd 504d 3f3f 79bf b9bd
00000290: 98ce bd3e 1eb7 b33e 5d80 2f3d f039 f9be
000002a0: 11e7 b73c b5bf 40be 487d a5be e14f bc3e
000002b0: 3bda 83bd e43e 5a3e 2863 c1be 9c90 42be
000002c0: b719 bdbe eb3b f9be 3de5 cbbe e2dd 80be
000002d0: 2675 3b3e 003f 9a3d 4ae3 8a3e b3a8 4b3f
000002e0: deda a2be 325e 623c 5b68 243f 6593 df3e
000002f0: aee0 393e aae2 8ebd c431 1e3f 2f1f 173e
00000300: bb3a 813e 6fd1 08be ba08 2d3e c356 903e
00000310: b359 3cbd a131 fc3e 2ebe 163f d234 c03d
00000320: 92ec 4c3f 1b88 0e3e d935 3e3d 126e 97be
00000330: 488e fbbb 3ee3 843e 4534 7ebe d355 c9be
00000340: 6997 0abd 445c 9c3c 99e1 493e 5858 33be
00000350: d0cb 69be c9e0 c5be 4c85 c7be 2743 cbbe
00000360: 5895 313f ce67 c43d 0ff6 843e b724 f63e
00000370: ae49 af3e c7fc 20bd 99ad 003d c0ab 623d
00000380: b74e b33d 75ab f43c e5f7 fdbd f071 83be
00000390: e7d5 c73d bbaf 613e ff4d 94bd 29c8 b1bd
000003a0: 49d9 9dbe f979 033e 4f2c a8be f58d 3f3d
000003b0: d54d e4be 6b1e 0a3f 9683 6ebe bba5 a23e
000003c0: fab6 f3bd b680 24be 5138 2c3f 6525 b2be
000003d0: d81b 34be 36b9 bdbe c179 15be f203 333c
000003e0: 96df c4bd 10a5 d8bd ea7d cb3e 3208 15bc
000003f0: 903f 40bd 8923 5abd 7145 373e 4ab8 933b
-0.7148403 0.19981664 -0.25687927 -0.04118653 -0.15589724 -0.03148402 0.10367499 -0.4569842
0.21397316 0.23852783 0.7773366 0.56522036 0.6441531 0.19985688 0.14636731 0.1615941
0.06244291 -0.58149755 0.22216898 0.2305667 -0.6588441 0.30407646 -0.52946603 0.20449673
-0.2809305 -0.21515806 0.40937066 -0.37945735 -0.09299158 -0.49324724 -0.038818393 -0.26873824
-0.056145787 0.86390656 0.015446218 -0.14274333 0.37542248 0.5202923 -0.23648871 -0.1747194
0.36304218 0.08079988 -0.20036101 0.56109476 0.515817 -0.16079591 0.53184843 0.49863014
0.36776158 0.24289586 0.3770688 -0.15328266 -0.015552525 -0.31222662 0.30863106 0.21639358
0.040718943 -0.098928295 0.029065592 0.14478622 -0.02741445 -0.024262223 0.36478326 -0.6691967
0.22531337 0.0116475895 0.05163735 -0.17557284 0.12806909 0.36607724 -0.051404033 -0.02711499
0.5224921 -0.15931833 -0.07196563 -0.21781643 0.027008785 -0.08941473 -0.60236865 0.012564435
0.057002448 -0.30048648 -0.17763327 0.26183304 -0.1966924 -0.15154304 -0.15338556 -0.12798595
0.021805983 0.23316081 0.15129794 0.18475695 0.14259137 -0.21076435 -0.004123913 0.5595681
0.0039799768 0.26744625 -0.31230074 0.13635392 -0.5681922 -0.28005815 0.20876172 -0.058073837
0.63440335 0.4211304 0.7124599 -0.39280206 -0.45313838 -0.3699367 0.4974224 0.017335055
1.1701711 0.8569382 0.6632475 0.44777042 1.0979207 -0.9182682 0.18949549 0.60344124
0.14953455 0.6581257 0.14141841 -0.31436378 -0.21987653 -0.53844535 0.06973966 -0.31587496
-0.5221367 -1.0470574 0.089701355 0.39075232 -0.1238093 0.98221415 -0.62640476 0.11087112
0.70151687 0.65030795 -0.08372962 -0.30590335 0.020301325 0.321564 -0.08105889 0.044560753
0.04842027 -0.06964512 0.13259421 0.39871985 0.6050064 -0.11231892 -0.37399858 0.13274206
-0.10529652 0.2765236 0.47351128 -0.27610937 -0.017459692 0.2970728 -0.17067209 0.21318614
0.21689653 -0.05185583 0.74727345 -0.09069724 0.3707168 0.35100645 0.042847026 -0.48677015
0.022449048 -0.1882313 -0.32322145 0.36779693 -0.064381085 0.21313053 -0.37770963 -0.19000477
-0.3693368 -0.48678526 -0.39823332 -0.25169283 0.18306407 0.075315475 0.27126533 0.7955429
-0.31807607 0.013816403 0.64221734 0.4366714 0.18152115 -0.069768265 0.61794686 0.1475799
0.2524012 -0.13361143 0.1689786 0.28191194 -0.04598398 0.49256614 0.5888394 0.09385075
0.8004848 0.13919108 0.046438072 -0.29576164 -0.0076768734 0.25954622 -0.24824627 -0.3932329
-0.033835802 0.019086964 0.19714965 -0.17514169 -0.22831655 -0.3864806 -0.38968885 -0.3969967
0.69368505 0.09590112 0.25968978 0.48074886 0.342359 -0.039303567 0.031415556 0.055339575
0.08755248 0.029866913 -0.12400798 -0.25672865 0.097575955 0.22039692 -0.07241439 -0.08680756
-0.30829838 0.12839498 -0.32846305 0.04676624 -0.4459063 0.53952664 -0.23292384 0.31767067
-0.119001344 -0.16064724 0.6727343 -0.34794155 -0.17588747 -0.37055367 -0.14597227 0.010926234
-0.09612958 -0.10578358 0.39744502 -0.009096192 -0.046935618 -0.053256545 0.17897584 0.004508053

lstm.weight_hh_l1 f4 [200, 50]
00000000: ecb9 273e a511 4f3e 6af5 6a3e 54bd b23e
00000010: 8f2b 0b3e 9af7 f03d bf36 be3e 4e96 8d3e
00000020: b13b 173e 587b 0e3d 619d 8e3c 2fec 5abd
00000030: 3cdc bb3d 3c35 a8bd 8c24 8cbe 4916 3d3e
00000040: 47c7 493d d842 fabe 1f06 94be e33c 31bf
00000050: 510d 833c 3f6e bb3c f0ce fdbd 6133 22be
00000060: b18b 5fbe ca16 cd3e 8309 4e3e 0b5c 36bd
00000070: f3b5 a7be bc5b 1bbe 6b16 92be ee46 513e
00000080: 1b4a d23c fb90 99bc 8121 e33c 11a6 073e
00000090: 1d22 ebbd 67fd 17be a81e 5bbe e1ac ec3e
000000a0: f57c fdbd 4a02 503e 6970 603e 0f03 c1bd
000000b0: 466d 5a3f 5aea 35be 76cd e33d ebde fc3d
000000c0: 57d0 17bd aed9 c53d f27f f1be 7814 4a3e
000000d0: 8c01 b8be 2641 77be c6d9 edbc b1fe 2d3e
000000e0: 7449 a4be c48f 88be c7de a1bd d959 c0bd
000000f0: c22a a53b 69b3 863e 045e a63e ab4f 1bbe
00000100: a772 803e 08c6 68be 6a22 c0be be54 bc3d
00000110: ffd7 f03d 86f9 3c3d 123f c93e 7064 a1bd
00000120: 602b edbd 6786 03be e26c 84be e5ca 3c3d
00000130: d871 513d 1985 27bd 19a4 1e3d 76ac 7e3a
00000140: 833b 113e 0b42 663e e28e 363e 40c6 883e
00000150: e7a5 94bd afdd 09be 5851 a03e a8f4 89be
00000160: e466 f93d cbc7 283e c615 253e 3b3e 1a3e
00000170: f577 d9bb 3f37 8ebe 66a0 143e 2033 9cbe
00000180: bf96 85bd ed26 5cbd 7b95 5abe 99af 4bbe
00000190: 6a9e 6cbd 51d3 a3be 08a2 c3be ade6 c73e
000001a0: d4fc 413d ce6a e6bc 0c77 51be 3af2 f7bd
000001b0: 5498 053e ba88 1e3f 16f6 0d3e f645 88be
000001c0: 4360 e83e 8901 abbd 2a9e de3e 4bd8 8f3e
000001d0: 1e9f 33bd 967e 96be ff79 d2bd 081a 3cbf
000001e0: 852e 8dbe 9439 943c 6f78 d6bd ba51 ebbd
000001f0: a3c8 c7be bc11 d93e 9bba 803e 5bd0 013e
00000200: cfe2 1c3e 0cfa 15bf 6975 2b3d 7f54 ee3e
00000210: ecff 62bc 97db b03e c2e2 b13d 2e15 c63b
00000220: 47ae aabc e376 ec3d 2c0c cebe 007e bebe
00000230: fb42 b03e 5841 5f3e 802b 403e d058 773b
00000240: 2d84 e43e 54ee 11be 8f0a 1abe d05c 933e
00000250: 14c0 3fbe 8611 34be b83d 6b3e 44bd 8c3e
00000260: d46f 933e 6109 273e ffc2 183f 8cac 033e
00000270: af9b 0a3e b82d 1e3e 241a f33d fabd e0be
00000280: 8c1c 773e 0837 a3bd 0e15 91be 8aa2 28bf
00000290: 1fd8 abbd 0bf3 92be ae36 9b3e 7905 c2be
000002a0: 30e3 dc3e 555a 99bf 8f93 4abe 294b 0c3f
000002b0: ba08 71be 70b6 59bf ff51 3fbf f3b0 833e
000002c0: f0b6 7e3e 6ad3 ecbe 2fdd fabe 030f c9bc
000002d0: 2fa4 a8be f48f 933e 25ee 3c3e 5300 df3d
000002e0: 0bd5 be3e 5ff8 d63d 2e3b cb3e 733b 03bf
000002f0: 3ad5 01be b4a5 063f 0670 37be b07e bd3e
00000300: c77e 81be b62a 3cbf 7208 813e 91b2 00bf
00000310: 90a6 8f3e 2525 de3e 292f 7abe 430b bbbe
00000320: 2277 babe b5d1 34be 5162 a63e 9178 0e3f
00000330: d5cb b23e 3dc1 6abe 303e 5dbe 2f0e a03e
00000340: 586d 9f3c a338 5d3e 538e 483e 1a3f 90be
00000350: 1b88 5d3f 0c54 82be b08a b6be 21eb 71be
00000360: 9847 9b3d c7b3 9dbb 4de7 5fbd 8a97 543c
00000370: 441b 433f 24dd 153e 8191 e83d 8ad4 1fbe
00000380: c92e 043e 7745 863e 89e5 333e 2ce9 2dbe
00000390: a6bb c4bd 4fe3 76bd bfb7 7ebe 07d2 753e
000003a0: 1050 bc3e 179e 823e d655 2bbb 4f43 db3d
000003b0: e19a a4be c8c8 d0be 8ca5 22bf 152b 8b3d
000003c0: 09fc 0c3e 5092 50bd f5d3 463e 4fad 6c3e
000003d0: b3a4 a73e 2da8 d33d 354a 233d 31dc 163f
000003e0: 60f4 ba3e aa5d 953e 2e43 033c df82 4fbc
000003f0: 67b1 9cbe fac7 47be 242e 17ba 6822 c13d
0.16379517 0.20221575 0.2294518 0.3491007 0.13590835 0.11765976 0.37151143 0.27653736
0.14768864 0.0347856 0.017409028 -0.0534479 0.09172866 -0.08213279 -0.27371633 0.18465532
0.04926231 -0.48879123 -0.2891092 -0.6923353 0.01599756 0.022879718 -0.12392986 -0.15839912
-0.21830632 0.4005645 0.20120816 -0.044521373 -0.32756004 -0.15171713 -0.2853273 0.20437214
0.025670102 -0.01874589 0.027725937 0.13246943 -0.11481116 -0.14842759 -0.21398413 0.46225646
-0.12377349 0.20313373 0.21917881 -0.094244115 0.8532299 -0.1776518 0.11123173 0.12347206
-0.037063923 0.0966066 -0.47167927 0.1973437 -0.3593868 -0.24145946 -0.029034507 0.16991688
-0.3208729 -0.26672184 -0.079038195 -0.09392137 0.0050404975 0.26308754 0.32493603 -0.1516711
0.25087473 -0.22731793 -0.37526256 0.09195851 0.11759948 0.0461364 0.3930593 -0.07880485
-0.11580539 -0.12844239 -0.2586432 0.046091933 0.05113396 -0.040898416 0.038730714 0.000971503
0.14182858 0.22486131 0.17827943 0.26713753 -0.07258206 -0.13463472 0.3131206 -0.2694447
0.12177828 0.16482465 0.16121587 0.15062802 -0.0066366144 -0.27776524 0.14514312 -0.30507755
-0.06522893 -0.05374806 -0.21346085 -0.19891204 -0.057768263 -0.3199716 -0.38209558 0.3904318
0.047360256 -0.0281271 -0.20455569 -0.12106748 0.1304639 0.6192738 0.13863406 -0.26615876
0.45385942 -0.08349902 0.43480045 0.28094706 -0.043852918 -0.29393452 -0.10277175 -0.7347722
-0.27574554 0.018093862 -0.1047219 -0.114901975 -0.3902026 0.42396343 0.2514237 0.12677138
0.15320896 -0.58584666 0.041860018 0.4654884 -0.013854962 0.34542534 0.08685829 0.0060450053
-0.020835055 0.11546113 -0.4024366 -0.37205505 0.34426102 0.2180227 0.18766594 0.0037742145
0.44632092 -0.14251071 -0.1504309 0.28781748 -0.18725616 -0.1758481 0.22972763 0.27488148
0.28796256 0.16312172 0.5967254 0.1285879 0.13535951 0.15447128 0.1187022 -0.4389494
0.24131984 -0.07969481 -0.28336376 -0.65873015 -0.08390831 -0.28701052 0.30315155 -0.378948
0.4314208 -1.1980692 -0.19782852 0.54802185 -0.23538485 -0.85044 -0.7473449 0.2572094
0.24874473 -0.46255046 -0.48996875 -0.024543291 -0.32937762 0.28820765 0.1845022 0.10888734
0.37271914 0.10496592 0.39693588 -0.5126259 -0.12678996 0.5259659 -0.17913827 0.37010717
-0.25292036 -0.7350267 0.25201756 -0.5027247 0.28056765 0.43387714 -0.24432053 -0.3653203
-0.36419016 -0.17658122 0.32496884 0.5565272 0.34921136 -0.22925277 -0.21605754 0.3126082
0.019461319 0.21603636 0.19585542 -0.28173143 0.86535805 -0.25454748 -0.35652685 -0.23624851
0.07582015 -0.004812691 -0.054663945 0.012975583 0.7621348 0.1463514 0.11355878 -0.15608421
0.12908472 0.26224872 0.1756803 -0.1698348 -0.096061036 -0.060275372 -0.24874781 0.240059
0.36779833 0.25511238 -0.0026143692 0.107061975 -0.32149413 -0.40778184 -0.63533854 0.067953266
0.13768019 -0.050920784 0.19416793 0.23112987 0.32742843 0.10334811 0.03986569 0.58929735
0.36514568 0.29173023 0.008011622 -0.012665479 -0.30604097 -0.19509879 -0.00057670684 0.094303906

lstm.bias_ih_l1 f4 [200]
00000000: f2d3 00be 5214 8fbe 1d18 4e3e 4ee2 733e
00000010: 24f9 82be 6079 46bf 47b3 19bf ddbd 78be
00000020: 08f8 09bf 9d87 69bd 8c7d d8bc 5f97 45bf
00000030: 35ad 07bf 95d8 003e 58f4 223e 11c0 21be
00000040: f169 efbe fc52 d8be 5aa7 66be 2f73 12bf
00000050: f365 73bf 0272 5fbe caba 71bf 8b14 09bf
00000060: 752a 2dbf 8e2a 10bf a898 0dbf cd28 b3bc
00000070: 27a7 ec3b 048a 0dbe 0c54 05bf bf2b 01bf
00000080: c137 29bf 60ae bcbe c253 1dbf 8fe2 d9bd
00000090: d5e4 08bf c4b8 cebe 2e0c a4be 3d80 093c
000000a0: bbdd 10bf 1cbd 25bf a057 eabd 4c55 7cbe
000000b0: 6e85 e8be 2f29 36bf 56bd eebe 0c8f 11bf
000000c0: 05f7 f8be 1180 c7be e1ca 5bbf a5ec 33bf
000000d0: 510a 80bf e5d3 19bf 7a2e 46bf 8161 dabe
000000e0: 8aea c9be 8e1e 34be 7cdf f2be d07f 1bbf
000000f0: 3cc8 1abf a196 ebbe 025a cdbe 08de 49bf
00000100: 4707 94bf 6405 ddbe 7a14 a3be 41c2 21bf
00000110: ec54 19bf 6412 1b3c 7ba4 f5be c9d8 01bf
00000120: d0c4 28bf 2a1e 00bf 2b61 1abe 9d3a c5bd
00000130: d9bd 81be e9ec 0fbf 5b35 30bf 2c0b c8be
00000140: a59f 0ebf 00e6 58bf b29d febe f036 c3be
00000150: 4fcd 9dbe 89ad 48be 4228 8abe 9492 2abf
00000160: fce7 2cbf 68a7 5bbf c8eb debe 1ec1 37bf
00000170: 4681 1dbf a32a ecbe b208 1fbf 1266 b6be
00000180: c43d 2dbf 242c babe 0ee3 4fbf 14f9 9ebe
00000190: e9a0 35bd 63e5 a63d 77d8 b1bd e8ab 9abb
000001a0: dc15 0c3d 2af7 4abd a892 58be f67a adbd
000001b0: 9b66 173d 7c37 a93d 0e28 a33d bab0 23be
000001c0: 7769 5f3d 8a06 df3d 3317 c7bb c7f8 4abe
000001d0: fa1f c13d d125 04be eb40 3fbe 732c 373d
000001e0: 5507 6e3d fc9f f33d 96b8 043e 7406 833c
000001f0: 931f bd3c 82b1 cabd 6e65 acbd 1442 29bb
00000200: 2107 0ebc 9355 83bd 7566 23bc b444 39bd
00000210: 2dd1 6d3c 084b 193d a69d e43d 260e ecbc
00000220: 0d54 babd d8fa 69bd 45c4 11be e070 c33d
00000230: 3d6e 173e 4303 c4bd 23bb f53c d1d9 513d
00000240: 2a44 103e 484f 093d efe0 53bc 185a c63d
00000250: cd0f 51bd d20c 913d 2c8c 15be 5deb cebe
00000260: 1010 64be 5a40 de3d bf94 003e 8155 46bf
00000270: 24f5 36bf 2012 9bbe f23b f9be 4f24 1b3d
00000280: 3977 f03d 40ac 49bf 88b6 15bf ba3c 56bd
00000290: 6858 333d de54 2cbe 3806 0abf 4f73 0dbf
000002a0: 3f70 ebbe 1716 d5be 6bd9 67bf ce04 91be
000002b0: 6250 4fbf 1b70 1cbf 7de0 bebe 5f87 1fbf
000002c0: 911c adbe 68f3 16be 55d4 e03d 3f53 c6be
000002d0: e3fa 26bf 595b 05bf 5e8e 55bf 2196 c7be
000002e0: 02cc 07bf 230c 1dbd df14 3cbf 31a1 55be
000002f0: b552 adbe 49da 8bbe 6fe9 f6be 50f8 34bf
00000300: 1b93 17be 9cfc d7be 7d65 a4be a550 34bf
00000310: b040 dfbe e2b4 d4be 4d54 16bf 40a4 11bf
-0.1258085 -0.2794519 0.20126386 0.23816797 -0.25580704 -0.77528954 -0.6003918 -0.24291177
-0.5389409 -0.057014097 -0.026427053 -0.771841 -0.5299867 0.1258262 0.15913522 -0.15795924
-0.46760514 -0.42250812 -0.22524777 -0.57207006 -0.9507744 -0.21820834 -0.9442564 -0.5354697
-0.6764291 -0.56314933 -0.5531106 -0.021870041 0.0072220745 -0.1382218 -0.5208137 -0.50457376
-0.661007 -0.36851788 -0.6145593 -0.10638916 -0.5347417 -0.4037534 -0.32040542 0.008392391
-0.56588334 -0.64741683 -0.114424944 -0.24641913 -0.454143 -0.7115659 -0.46628827 -0.568589
-0.4862596 -0.38964894 -0.85856444 -0.70282966 -1.0003148 -0.6008895 -0.7741467 -0.42652515
-0.39436752 -0.1758978 -0.4743613 -0.607419 -0.60461783 -0.46013358 -0.40107733 -0.7885442
-1.1564721 -0.43168175 -0.3185156 -0.6318703 -0.59895205 0.009464834 -0.4797705 -0.5072141
-0.6592531 -0.50046027 -0.15076129 -0.0963032 -0.25340155 -0.5622087 -0.68831414 -0.39071023
-0.5571235 -0.8472595 -0.49729687 -0.3812785 -0.308207 -0.19597448 -0.2698384 -0.6662991
-0.6754148 -0.85802317 -0.43539262 -0.7177905 -0.6152538 -0.4612628 -0.62122643 -0.35624748
-0.6767237 -0.36361802 -0.8120583 -0.31049407 -0.04434291 0.08149221 -0.086838655 -0.0047202
0.034200534 -0.04955212 -0.21149695 -0.084707186 0.036963087 0.08262536 0.07966624 -0.15985385
0.05454394 0.10889919 -0.0060757636 -0.19821464 0.09429927 -0.12905051 -0.18677108 0.044720124
0.05811246 0.11895749 0.12961039 0.015994288 0.023086345 -0.09897138 -0.08417784 -0.002582674
-0.008668692 -0.06412806 -0.009973158 -0.045231536 0.014515203 0.03742507 0.111628816 -0.02881534
-0.09098063 -0.05712399 -0.14235027 0.095430136 0.14788146 -0.095709346 0.02999646 0.051233117
0.14088503 0.033522874 -0.012932046 0.09685153 -0.05104046 0.070825234 -0.14604253 -0.40413943
-0.22271752 0.10852118 0.12556742 -0.7747422 -0.71467805 -0.30287266 -0.48678547 0.037876423
0.1174149 -0.7877846 -0.58481646 -0.052304007 0.043785483 -0.1682925 -0.5391574 -0.5525407
-0.45984074 -0.41618416 -0.9056613 -0.28323978 -0.8098203 -0.6110856 -0.37280646 -0.62315935
-0.33810857 -0.1474129 0.10977999 -0.38735387 -0.6522657 -0.5209251 -0.8342036 -0.38981727
-0.53045666 -0.038341653 -0.73469347 -0.20862271 -0.33852163 -0.27314976 -0.4822497 -0.70691395
-0.1480221 -0.42184913 -0.3210868 -0.70435554 -0.4360404 -0.41544253 -0.5872238 -0.5689125

lstm.bias_hh_l1 f4 [200]
00000000: 8b62 cbbc 92d6 ffbe 9085 b53d 61bf 803e
00000010: 22c6 89be 833e 2fbf 5b93 0ebf 51b6 f9be
00000020: b8c1 d3be 5012 3bbd 53a4 2e3e 0c8e 4abf
00000030: 5054 09bf f264 da3c c475 613e 89b8 38be
00000040: d0c4 19bf df3c e1be 16fa abbe 8316 36bf
00000050: 5419 54bf 5f08 43be 152e 3bbf a402 40bf
00000060: 0fdd ebbe eabb 1ebf 06e1 18bf a074 883d
00000070: 5eb2 21bc 6f3d 9dbe 4ef3 adbe f2a3 95be
00000080: 347d 5ebf 1a57 e0be 06d3 fcbe fc69 b33d
00000090: 5adc 17bf 55e6 35be 6ef2 80be 4552 f03c
000000a0: 7f0f ebbe 5944 37bf 3eb8 00be d5d2 a6be
000000b0: ae8f a9be 8a43 1ebf bb1d 0dbf c64a e2be
000000c0: 9c0d 3dbf 8ed1 f6be 9878 85bf 04dd 49bf
000000d0: c99e 8cbf a931 32bf e954 30bf e4f7 9cbe
000000e0: b0f3 9cbe 392a acbe 65dd 99be 4d05 11bf
000000f0: 9182 19bf ca7f e4be c3b1 a9be ba12 1fbf
00000100: f67a 94bf baa5 a6be ba90 06bf 1ec4 3dbf
00000110: 5314 19bf a430 42bc e89b 02bf 6f19 03bf
00000120: ddce 2dbf b460 13bf a63f 2fbe b1ca 62be
00000130: 40b2 57be 838d 24bf 92fc 13bf e58f fabe
00000140: 39cf 1bbf c4ad 47bf 421a 29bf 6fcc e5be
00000150: bc9d f5be 8508 c9be 6473 62be a27b 1abf
00000160: b9cf 11bf e625 40bf 0f08 b9be 5fa4 12bf
00000170: 475f 05bf 4933 25bf a5e1 21bf f79c a8be
00000180: d5d4 dbbe a031 01bf bb8f 4dbf 1ffb 26be
00000190: 6236 d5bd 8b3b 63bc 4d36 a6bd f4ec f5bd
000001a0: 6fcf 54bd 9a73 d73a d5bf 96bd 1ff2 3e3d
000001b0: efc9 ad3d ee25 c1bb 0a17 263d 7793 8b3d
000001c0: 7ad1 843d 50ae 5abd c60a b23d 220a 2ebd
000001d0: 0a60 bd3c 01f0 07be 2ff2 f03c 588e 233d
000001e0: 616e 183e 3b1b 783e e073 6cbc f100 873c
000001f0: b6f9 9dbb 1ae2 20bd b61d 753b 69fc d33c
00000200: b76b 833d 9185 87bc 8a9a 15bd c4e6 103e
00000210: cb96 033e 7260 053e 6638 43bd 3130 b73d
00000220: 6aa6 48bc 1fe5 78bd 4a56 e6bd e7f7 7a3d
00000230: 3b3c f63d c580 0ebe 54d6 9abb d72a c6bd
00000240: 2819 a03d 1c38 8c3c 3288 10be 7772 5b3c
00000250: 82bc 2c3d c823 dc3c ceca 9b3d 5e54 c7be
00000260: 5571 e5bd bd0d 283e 2b89 f53d 0a74 24bf
00000270: 8e8a 29bf 55d9 98be 3179 26bf 4753 24be
00000280: 85a1 43bc f6fa 36bf 0d06 06bf 26df 94bd
00000290: dc9a 353e 5381 85be ea4a 0fbf 7513 bfbe
000002a0: f9b3 fcbe 8f57 f2be 5dd7 5abf 7894 9abd
000002b0: d77a 4abf 0319 02bf df1e 8ebe 1fe4 15bf
000002c0: 1ad0 e4be 99e2 e6bd e91a 5b3d d600 53be
000002d0: f931 d5be b737 26bf c7e8 29bf 179c d0be
000002e0: 5d80 1cbf 1670 323e 752d 20bf 143f 7bbe
000002f0: 200d 89be a361 8bbe 7d4e d0be 840e 22bf
00000300: 1971 30be b57e 89be 2f14 e1be 1fff 22bf
00000310: a3d5 c8be e43e 1dbf 8fe0 38bf d23c ccbe
-0.024827262 -0.49968392 0.08863366 0.2514601 -0.26908976 -0.6845476 -0.55693597 -0.4877191
-0.41358733 -0.04567176 0.17054872 -0.79122996 -0.53644276 0.026659463 0.2201758 -0.18039145
-0.6006594 -0.43991753 -0.33589238 -0.711281 -0.8285115 -0.19046162 -0.7311719 -0.7500403
-0.46067092 -0.62005484 -0.5971836 0.066628695 -0.009869186 -0.30710933 -0.3397469 -0.29226643
-0.86909795 -0.43816453 -0.49379748 0.08760449 -0.59320605 -0.17763646 -0.2518496 0.029336104
-0.4591026 -0.71588665 -0.12570283 -0.32582727 -0.3311743 -0.61821806 -0.5512349 -0.44197673
-0.7384889 -0.48206753 -1.0427427 -0.7885287 -1.0985957 -0.69607025 -0.6887956 -0.30657876
-0.3065467 -0.33625963 -0.30051723 -0.56648713 -0.59964854 -0.44628745 -0.33143434 -0.6213795
-1.1600025 -0.32548314 -0.52564585 -0.74127376 -0.5979664 -0.011852417 -0.51019144 -0.51210684
-0.67893773 -0.5756943 -0.17114124 -0.22147633 -0.2106409 -0.6427843 -0.57807267 -0.48937908
-0.6086307 -0.7799952 -0.6605569 -0.44882533 -0.47971904 -0.39264312 -0.2211433 -0.603449
-0.56957585 -0.7505783 -0.3613896 -0.5728206 -0.52098507 -0.6453138 -0.6323493 -0.32932255
-0.42935815 -0.50466347 -0.8029744 -0.16306733 -0.10410763 -0.013869177 -0.08115826 -0.12008086
-0.051955637 0.001643765 -0.07360808 0.046617623 0.084857814 -0.005894414 0.040549316 0.06815236
0.06485267 -0.053388894 0.08693461 -0.042490132 0.023117084 -0.13275148 0.029412357 0.03993067
0.14885856 0.24229138 -0.014431924 0.016479941 -0.0048210276 -0.039278127 0.0037401742 0.025877194
0.06417029 -0.016543182 -0.036524333 0.1415053 0.12850492 0.13025072 -0.047661208 0.08944739
-0.012246707 -0.060765382 -0.11246927 0.061271574 0.12023207 -0.13916309 -0.004725257 -0.0967614
0.07817298 0.017116599 -0.14114454 0.01339399 0.042171963 0.02687253 0.07607041 -0.38931555
-0.11203257 0.1641149 0.11989053 -0.6423956 -0.6622704 -0.2985331 -0.65028673 -0.16047393
-0.011940365 -0.71476686 -0.5235298 -0.07269125 0.17734855 -0.2607523 -0.55973685 -0.37319532
-0.49356058 -0.47332427 -0.8548487 -0.075478494 -0.7909369 -0.50819415 -0.27757928 -0.5855121
-0.4469002 -0.11273689 0.05349246 -0.20605788 -0.4163969 -0.64928764 -0.66370815 -0.40744087
-0.61133367 0.1742557 -0.6256936 -0.24535781 -0.26767826 -0.27222928 -0.40684882 -0.633034
-0.17230643 -0.26854482 -0.4396071 -0.63670534 -0.39225492 -0.6142409 -0.7221765 -0.39890152

lstm.weight_ih_l2 f4 [200, 50]
00000000: 0d81 34be c72a 7fbe f6d0 f9bd 16fd 93be
00000010: 39a3 20be 8317 c03b dbf8 98bd c81b 83bd
00000020: 7180 a6be 2876 3d3e 58ed 97be a5a8 833c
00000030: 6f8f e13e 0b5d 1dbc cf44 dcbe e37d 1d3f
00000040: 8561 08bf 78e0 423f b579 a63c 82af 87be
00000050: 1a43 7ebf 52c1 99be 20be 1dbe 0bde 36bd
00000060: 449b 8f3e db5b 5dbe 6740 fa3c 876f 743e
00000070: b3cf 2c3d e8d5 01be dbf2 c63e a824 24bd
00000080: 58c7 d23d e62d b73e 6513 2a3b 21ae 98be
00000090: 325d 1b3e c62b 0f3f c1d5 793e 2d64 07bf
000000a0: 56b5 29be 0d3b 1c3e 11c0 a93e 650e bd3e
000000b0: 562f dfbe 7a6d 863d d192 a43e aa0c 8dbe
000000c0: e014 07be 7046 ff3b 731b 263f aed2 9f3e
000000d0: 08f6 283d 6db2 823d b180 943e 4169 b93e
000000e0: 2d41 a53e c9a1 f83e f009 e93e 747a 61bf
000000f0: fb30 023f c394 0e3c 2249 e3bd 7e0e cabe
00000100: 3812 adbe 15cc 61bf 7911 0d3e ff61 7d3d
00000110: 0d3a 053f 86d7 963e d031 17be 0d95 ef3e
00000120: dd93 00bf 5dd0 05bf 6ee3 a2be 993b 69be
00000130: 37d1 f4be bdd0 d9be ed49 20bf 5eda da3e
00000140: 97c6 9dbe 133f c2bc f240 883c c8ac 85be
00000150: 1b46 5c3e bb04 273e d199 1c3e a3bf dfbe
00000160: f69d a2be b4f3 233f 3e4e 583b ee58 823e
00000170: af10 8abe e630 06bf a4ab 15bd 470a b03c
00000180: ce16 9f3e 8360 7ebe 653c 81be 4fd5 d4be
00000190: 1031 cabe 89ae 20bc a4a2 e2be 3e77 95bd
000001a0: 9973 90be 9241 ff3c 5ff4 123d 1df9 0fbb
000001b0: f314 8abe 2ec4 01be fc3b 4ebe d5d4 32be
000001c0: ee5e 493c 6dcf fe3d a08a c3bd a423 61be
000001d0: faa2 7b3d eaf7 b03e 8e2c dd3d d85b 0abe
000001e0: 8671 15bf 608f e73d e76d ce3d 3e7a d33d
000001f0: 1aa9 7dbc ab02 8c3e b3d2 e43d e146 12be
00000200: 3817 24be 54f7 aa3d 17a7 753d 3bfe 49be
00000210: ddea c2be 8b83 c9bd 47ff b43d 93aa 193c
00000220: e7eb ae3d 25db 1ebe 18d5 a73e 3ccc 4a3d
00000230: e0e4 b8bc 6463 d23e 6a26 813d f4c4 4fbe
00000240: 1043 aabe 1d01 bfbd 7871 cf3e c143 5cbe
00000250: 1855 dfbd 4d84 37be 18b6 6b3e 9de9 ef3d
00000260: 8419 bd3e 97f5 f63e 1975 343e b71c 853d
00000270: 2fd1 923c be11 e03c d05f d43e 8275 0a3b
00000280: 23e9 14bd df29 223e 8eb4 a6be 3013 ffbe
00000290: e82a 3bbf 70ad d9bd 693d 993c ed5e ebbe
000002a0: dd80 083e 6aff 0fbf 6394 c73d 84bf acbe
000002b0: 09cd 54be 3da6 5ebd bedb 2d3e 3487 5abf
000002c0: 8361 febd 68bc e5be cad4 92be 649f 64bd
000002d0: f1f3 b1be be68 29bf 7a7d 053f 5420 4bbd
000002e0: 9c70 c93e f97e dbbd dafd bc3c 47bb 53bd
000002f0: 9eb3 e93b 542f 6e3e 6e8a 3f3d f054 d23d
00000300: d6c8 cd3d b461 503d 8e00 8c3e 0f6e 993d
00000310: 0bf9 dd3e 8c14 323b 5058 cabd eae7 99be
00000320: 7cac 50be 0fce 1bbe 25a8 eebc 2709 b1be
00000330: 1588 a2be dfe4 4ebd a4a1 24be f6d3 ea3d
00000340: 4bdb 0dbf dfe3 973e 1369 e3be d376 583e
00000350: a985 7c3e aa4d c03e f421 963c 1077 f13d
00000360: 7744 b1be f657 cf3e 8567 6e3b 7823 70bc
00000370: 165f 63be 3906 f6be aa2b 7abe e4af a23e
00000380: 669d f53e bfad 0abd e349 353e 1738 103f
00000390: ca1d b63d 50f3 1dbf d7ab 333d d2af bb3e
000003a0: 0db3 95be 4b9d fcbc 6533 98bd 352b babe
000003b0: ed0e f23d 4fa1 90bc b2d5 b1bd 3216 89be
000003c0: e351 75be d4a5 063e f298 9f3e f159 133f
000003d0: 6448 82be 98d8 f83d e199 98be b65d a03d
000003e0: f30b 40bf bac1 cabd 6f7d 50bf d5e4 87be
000003f0: 700a 48bf 877a 1bbf a063 03be 580e 9d3e
-0.17627354 -0.24918662 -0.12198059 -0.28904027 -0.15687265 0.005862178 -0.074693404 -0.06401783
-0.32519868 0.18502104 -0.29673266 0.016071627 0.44054744 -0.009604703 -0.43021247 0.6152021
-0.53273803 0.7612376 0.020321706 -0.2650109 -0.9932114 -0.30030304 -0.15404558 -0.04464535
0.28048146 -0.21617071 0.030548288 0.2387067 0.042190265 -0.12679255 0.3885716 -0.04007402
0.10291928 0.35777205 0.0025951501 -0.2982035 0.1517227 0.5592617 0.24397947 -0.5288723
-0.1657308 0.15256901 0.33154348 0.36925045 -0.43590802 0.0656385 0.32143262 -0.27548724
-0.13191557 0.007790379 0.64885634 0.31215423 0.04125026 0.06381688 0.29004434 0.36213115
0.32276288 0.48560932 0.45515394 -0.88077474 0.5085599 0.00870246 -0.11097933 -0.39464182
-0.33802962 -0.8820203 0.13776197 0.061861034 0.52041703 0.29461306 -0.14765096 0.46793404
-0.5022562 -0.5227106 -0.3181414 -0.22776641 -0.47815868 -0.42542067 -0.626128 0.42744726
-0.30815575 -0.023711717 0.01663253 -0.26108384 0.21511118 0.16310398 0.15293051 -0.43700895
-0.3176114 0.64043736 0.003300562 0.25458473 -0.26965854 -0.52418363 -0.036540642 0.021489276
0.31072086 -0.24841504 -0.2524139 -0.41568992 -0.39490557 -0.009807237 -0.4426471 -0.07298134
-0.28213194 0.031159196 0.03587758 -0.0021968551 -0.26969108 -0.12672493 -0.2014007 -0.17464001
0.012290699 0.12441907 -0.09547925 -0.21986252 0.061434723 0.34564143 0.10799514 -0.13511598
-0.5837635 0.113066435 0.10079556 0.1032605 -0.0154822115 0.27345785 0.11173 -0.1428485
-0.16024482 0.08347955 0.059973802 -0.19725887 -0.3806981 -0.09839543 0.08837753 0.009379047
0.085410886 -0.15513285 0.32779765 0.04951118 -0.022570074 0.41091454 0.06306155 -0.20289975
-0.3325429 -0.09326384 0.40516257 -0.21510221 -0.10904902 -0.17921562 0.23018682 0.1171448
0.3693353 0.48234245 0.17622794 0.064996175 0.017922012 0.02735221 0.4147935 0.002112717
-0.03635515 0.15836285 -0.32559627 -0.49819326 -0.73112345 -0.10628784 0.01870604 -0.4597086
0.13330407 -0.56249106 0.097450994 -0.33739865 -0.2078134 -0.054357756 0.16978356 -0.85362554
-0.12420943 -0.44870305 -0.2867797 -0.05581607 -0.34756425 -0.6617545 0.5214459 -0.049591377
0.39343727 -0.107175775 0.023070265 -0.051692273 0.0071320077 0.23260242 0.046762876 0.10270107
0.10048072 0.050874427 0.27344173 0.07491695 0.43354067 0.0027172891 -0.098801255 -0.3005975
-0.20378298 -0.15215324 -0.029132912 -0.34577295 -0.31744447 -0.050511237 -0.16077286 0.114662096
-0.5541274 0.2966604 -0.44416103 0.21139078 0.24660362 0.37559253 0.018326737 0.117902875
-0.34622547 0.40496796 0.003637762 -0.014656894 -0.22204241 -0.48051623 -0.24430719 0.3177482
0.47971648 -0.033857103 0.17703967 0.56335586 0.088924006 -0.6169939 0.04386505 0.36657578
-0.29238167 -0.030836722 -0.07431678 -0.3636109 0.11819253 -0.017655043 -0.08683337 -0.26774746
-0.23957019 0.13149196 0.31171376 0.57559115 -0.25445855 0.12150687 -0.298049 0.07830374
-0.75018233 -0.09900232 -0.81441396 -0.26541772 -0.78140926 -0.60733837 -0.12830973 0.30675006
